input: "data"
input_shape {
  dim: 1
  dim: 3
  dim: 513
  dim: 513
}
input: "data_dim"
input_shape {
  dim: 1
  dim: 1
  dim: 1
  dim: 2
}

################ inception-v4 ################
layer {
  name: "conv1_3x3_s2"
  type: "Convolution"
  bottom: "data"
  top: "conv1_3x3_s2"
  param {
    lr_mult: 1
    decay_mult: 1
  }
  convolution_param {
    bias_term: false
    num_output: 32
    pad: 1
    kernel_size: 3
    stride: 2
  }
}
layer {
  name: "conv1_3x3_s2_scale"
  type: "Scale"
  bottom: "conv1_3x3_s2"
  top: "conv1_3x3_s2"
  scale_param {
    bias_term: true
  }
  param {
    lr_mult: 0.0
    decay_mult: 0.0
  }
  param {
    lr_mult: 0.0
    decay_mult: 0.0
  }
}
layer {
  name: "conv1_3x3_s2_relu"
  type: "ReLU"
  bottom: "conv1_3x3_s2"
  top: "conv1_3x3_s2"
}
layer {
  name: "conv2_3x3_s1"
  type: "Convolution"
  bottom: "conv1_3x3_s2"
  top: "conv2_3x3_s1"
  param {
    lr_mult: 1
    decay_mult: 1
  }
  convolution_param {
    bias_term: false
    num_output: 32
    pad: 1
    kernel_size: 3
    stride: 1
  }
}
layer {
  name: "conv2_3x3_s1_scale"
  type: "Scale"
  bottom: "conv2_3x3_s1"
  top: "conv2_3x3_s1"
  scale_param {
    bias_term: true
  }
  param {
    lr_mult: 0.0
    decay_mult: 0.0
  }
  param {
    lr_mult: 0.0
    decay_mult: 0.0
  }
}
layer {
  name: "conv2_3x3_s1_relu"
  type: "ReLU"
  bottom: "conv2_3x3_s1"
  top: "conv2_3x3_s1"
}
layer {
  name: "conv3_3x3_s1"
  type: "Convolution"
  bottom: "conv2_3x3_s1"
  top: "conv3_3x3_s1"
  param {
    lr_mult: 1
    decay_mult: 1
  }
  convolution_param {
    bias_term: false
    num_output: 64
    pad: 1
    kernel_size: 3
    stride: 1
  }
}
layer {
  name: "conv3_3x3_s1_scale"
  type: "Scale"
  bottom: "conv3_3x3_s1"
  top: "conv3_3x3_s1"
  scale_param {
    bias_term: true
  }
  param {
    lr_mult: 0.0
    decay_mult: 0.0
  }
  param {
    lr_mult: 0.0
    decay_mult: 0.0
  }
}
layer {
  name: "conv3_3x3_s1_relu"
  type: "ReLU"
  bottom: "conv3_3x3_s1"
  top: "conv3_3x3_s1"
}
layer {
  name: "inception_stem1_3x3_s2"
  type: "Convolution"
  bottom: "conv3_3x3_s1"
  top: "inception_stem1_3x3_s2"
  param {
    lr_mult: 1
    decay_mult: 1
  }
  convolution_param {
    bias_term: false
    num_output: 96
    pad: 0
    kernel_size: 3
    stride: 2
  }
}
layer {
  name: "inception_stem1_3x3_s2_scale"
  type: "Scale"
  bottom: "inception_stem1_3x3_s2"
  top: "inception_stem1_3x3_s2"
  scale_param {
    bias_term: true
  }
  param {
    lr_mult: 0.0
    decay_mult: 0.0
  }
  param {
    lr_mult: 0.0
    decay_mult: 0.0
  }
}
layer {
  name: "inception_stem1_3x3_s2_relu"
  type: "ReLU"
  bottom: "inception_stem1_3x3_s2"
  top: "inception_stem1_3x3_s2"
}
layer {
  name: "inception_stem1_pool"
  type: "Pooling"
  bottom: "conv3_3x3_s1"
  top: "inception_stem1_pool"
  pooling_param {
    pool: MAX
    kernel_size: 3
    stride: 2
    pad: 0
    ceil_mode:false
  }
}
layer {
  name: "inception_stem1"
  type: "Concat"
  bottom: "inception_stem1_pool"
  bottom: "inception_stem1_3x3_s2"
  top: "inception_stem1"
}
layer {
  name: "inception_stem2_3x3_reduce"
  type: "Convolution"
  bottom: "inception_stem1"
  top: "inception_stem2_3x3_reduce"
  param {
    lr_mult: 1
    decay_mult: 1
  }
  convolution_param {
    bias_term: false
    num_output: 64
    pad: 0
    kernel_size: 1
    stride: 1
  }
}
layer {
  name: "inception_stem2_3x3_reduce_scale"
  type: "Scale"
  bottom: "inception_stem2_3x3_reduce"
  top: "inception_stem2_3x3_reduce"
  scale_param {
    bias_term: true
  }
  param {
    lr_mult: 0.0
    decay_mult: 0.0
  }
  param {
    lr_mult: 0.0
    decay_mult: 0.0
  }
}
layer {
  name: "inception_stem2_3x3_reduce_relu"
  type: "ReLU"
  bottom: "inception_stem2_3x3_reduce"
  top: "inception_stem2_3x3_reduce"
}
layer {
  name: "inception_stem2_3x3"
  type: "Convolution"
  bottom: "inception_stem2_3x3_reduce"
  top: "inception_stem2_3x3"
  param {
    lr_mult: 1
    decay_mult: 1
  }
  convolution_param {
    bias_term: false
    num_output: 96
    pad: 1
    kernel_size: 3
    stride: 1
  }
}
layer {
  name: "inception_stem2_3x3_scale"
  type: "Scale"
  bottom: "inception_stem2_3x3"
  top: "inception_stem2_3x3"
  scale_param {
    bias_term: true
  }
  param {
    lr_mult: 0.0
    decay_mult: 0.0
  }
  param {
    lr_mult: 0.0
    decay_mult: 0.0
  }
}
layer {
  name: "inception_stem2_3x3_relu"
  type: "ReLU"
  bottom: "inception_stem2_3x3"
  top: "inception_stem2_3x3"
}
layer {
  name: "inception_stem2_1x7_reduce"
  type: "Convolution"
  bottom: "inception_stem1"
  top: "inception_stem2_1x7_reduce"
  param {
    lr_mult: 1
    decay_mult: 1
  }
  convolution_param {
    bias_term: false
    num_output: 64
    pad: 0
    kernel_size: 1
    stride: 1
  }
}
layer {
  name: "inception_stem2_1x7_reduce_scale"
  type: "Scale"
  bottom: "inception_stem2_1x7_reduce"
  top: "inception_stem2_1x7_reduce"
  scale_param {
    bias_term: true
  }
  param {
    lr_mult: 0.0
    decay_mult: 0.0
  }
  param {
    lr_mult: 0.0
    decay_mult: 0.0
  }
}
layer {
  name: "inception_stem2_1x7_reduce_relu"
  type: "ReLU"
  bottom: "inception_stem2_1x7_reduce"
  top: "inception_stem2_1x7_reduce"
}
layer {
  name: "inception_stem2_1x7"
  type: "Convolution"
  bottom: "inception_stem2_1x7_reduce"
  top: "inception_stem2_1x7"
  param {
    lr_mult: 1
    decay_mult: 1
  }
  convolution_param {
    bias_term: false
    num_output: 64
    stride: 1
    pad_h: 0
    pad_w: 3
    kernel_h: 1
    kernel_w: 7
  }
}
layer {
  name: "inception_stem2_1x7_scale"
  type: "Scale"
  bottom: "inception_stem2_1x7"
  top: "inception_stem2_1x7"
  scale_param {
    bias_term: true
  }
  param {
    lr_mult: 0.0
    decay_mult: 0.0
  }
  param {
    lr_mult: 0.0
    decay_mult: 0.0
  }
}
layer {
  name: "inception_stem2_1x7_relu"
  type: "ReLU"
  bottom: "inception_stem2_1x7"
  top: "inception_stem2_1x7"
}
layer {
  name: "inception_stem2_7x1"
  type: "Convolution"
  bottom: "inception_stem2_1x7"
  top: "inception_stem2_7x1"
  param {
    lr_mult: 1
    decay_mult: 1
  }
  convolution_param {
    bias_term: false
    num_output: 64
    stride: 1
    pad_h: 3
    pad_w: 0
    kernel_h: 7
    kernel_w: 1
  }
}
layer {
  name: "inception_stem2_7x1_scale"
  type: "Scale"
  bottom: "inception_stem2_7x1"
  top: "inception_stem2_7x1"
  scale_param {
    bias_term: true
  }
  param {
    lr_mult: 0.0
    decay_mult: 0.0
  }
  param {
    lr_mult: 0.0
    decay_mult: 0.0
  }
}
layer {
  name: "inception_stem2_7x1_relu"
  type: "ReLU"
  bottom: "inception_stem2_7x1"
  top: "inception_stem2_7x1"
}
layer {
  name: "inception_stem2_3x3_2"
  type: "Convolution"
  bottom: "inception_stem2_7x1"
  top: "inception_stem2_3x3_2"
  param {
    lr_mult: 1
    decay_mult: 1
  }
  convolution_param {
    bias_term: false
    num_output: 96
    pad: 1
    kernel_size: 3
    stride: 1
  }
}
layer {
  name: "inception_stem2_3x3_2_scale"
  type: "Scale"
  bottom: "inception_stem2_3x3_2"
  top: "inception_stem2_3x3_2"
  scale_param {
    bias_term: true
  }
  param {
    lr_mult: 0.0
    decay_mult: 0.0
  }
  param {
    lr_mult: 0.0
    decay_mult: 0.0
  }
}
layer {
  name: "inception_stem2_3x3_2_relu"
  type: "ReLU"
  bottom: "inception_stem2_3x3_2"
  top: "inception_stem2_3x3_2"
}
layer {
  name: "inception_stem2"
  type: "Concat"
  bottom: "inception_stem2_3x3"
  bottom: "inception_stem2_3x3_2"
  top: "inception_stem2"
}
layer {
  name: "inception_stem3_3x3_s2"
  type: "Convolution"
  bottom: "inception_stem2"
  top: "inception_stem3_3x3_s2"
  param {
    lr_mult: 1
    decay_mult: 1
  }
  convolution_param {
    bias_term: false
    num_output: 192
    pad: 1
    kernel_size: 3
    stride: 2
  }
}
layer {
  name: "inception_stem3_3x3_s2_scale"
  type: "Scale"
  bottom: "inception_stem3_3x3_s2"
  top: "inception_stem3_3x3_s2"
  scale_param {
    bias_term: true
  }
  param {
    lr_mult: 0.0
    decay_mult: 0.0
  }
  param {
    lr_mult: 0.0
    decay_mult: 0.0
  }
}
layer {
  name: "inception_stem3_3x3_s2_relu"
  type: "ReLU"
  bottom: "inception_stem3_3x3_s2"
  top: "inception_stem3_3x3_s2"
}
layer {
  name: "inception_stem3_pool"
  type: "Pooling"
  bottom: "inception_stem2"
  top: "inception_stem3_pool"
  pooling_param {
    pool: MAX
    kernel_size: 3
    stride: 2
    pad: 1
    ceil_mode:false
  }
}
layer {
  name: "inception_stem3"
  type: "Concat"
  bottom: "inception_stem3_3x3_s2"
  bottom: "inception_stem3_pool"
  top: "inception_stem3"
}
layer {
  name: "inception_a1_1x1_2"
  type: "Convolution"
  bottom: "inception_stem3"
  top: "inception_a1_1x1_2"
  param {
    lr_mult: 1
    decay_mult: 1
  }
  convolution_param {
    bias_term: false
    num_output: 96
    pad: 0
    kernel_size: 1
    stride: 1
  }
}
layer {
  name: "inception_a1_1x1_2_scale"
  type: "Scale"
  bottom: "inception_a1_1x1_2"
  top: "inception_a1_1x1_2"
  scale_param {
    bias_term: true
  }
  param {
    lr_mult: 0.0
    decay_mult: 0.0
  }
  param {
    lr_mult: 0.0
    decay_mult: 0.0
  }
}
layer {
  name: "inception_a1_1x1_2_relu"
  type: "ReLU"
  bottom: "inception_a1_1x1_2"
  top: "inception_a1_1x1_2"
}
layer {
  name: "inception_a1_3x3_reduce"
  type: "Convolution"
  bottom: "inception_stem3"
  top: "inception_a1_3x3_reduce"
  param {
    lr_mult: 1
    decay_mult: 1
  }
  convolution_param {
    bias_term: false
    num_output: 64
    pad: 0
    kernel_size: 1
    stride: 1
  }
}
layer {
  name: "inception_a1_3x3_reduce_scale"
  type: "Scale"
  bottom: "inception_a1_3x3_reduce"
  top: "inception_a1_3x3_reduce"
  scale_param {
    bias_term: true
  }
  param {
    lr_mult: 0.0
    decay_mult: 0.0
  }
  param {
    lr_mult: 0.0
    decay_mult: 0.0
  }
}
layer {
  name: "inception_a1_3x3_reduce_relu"
  type: "ReLU"
  bottom: "inception_a1_3x3_reduce"
  top: "inception_a1_3x3_reduce"
}
layer {
  name: "inception_a1_3x3"
  type: "Convolution"
  bottom: "inception_a1_3x3_reduce"
  top: "inception_a1_3x3"
  param {
    lr_mult: 1
    decay_mult: 1
  }
  convolution_param {
    bias_term: false
    num_output: 96
    pad: 1
    kernel_size: 3
    stride: 1
  }
}
layer {
  name: "inception_a1_3x3_scale"
  type: "Scale"
  bottom: "inception_a1_3x3"
  top: "inception_a1_3x3"
  scale_param {
    bias_term: true
  }
  param {
    lr_mult: 0.0
    decay_mult: 0.0
  }
  param {
    lr_mult: 0.0
    decay_mult: 0.0
  }
}
layer {
  name: "inception_a1_3x3_relu"
  type: "ReLU"
  bottom: "inception_a1_3x3"
  top: "inception_a1_3x3"
}
layer {
  name: "inception_a1_3x3_2_reduce"
  type: "Convolution"
  bottom: "inception_stem3"
  top: "inception_a1_3x3_2_reduce"
  param {
    lr_mult: 1
    decay_mult: 1
  }
  convolution_param {
    bias_term: false
    num_output: 64
    pad: 0
    kernel_size: 1
    stride: 1
  }
}
layer {
  name: "inception_a1_3x3_2_reduce_scale"
  type: "Scale"
  bottom: "inception_a1_3x3_2_reduce"
  top: "inception_a1_3x3_2_reduce"
  scale_param {
    bias_term: true
  }
  param {
    lr_mult: 0.0
    decay_mult: 0.0
  }
  param {
    lr_mult: 0.0
    decay_mult: 0.0
  }
}
layer {
  name: "inception_a1_3x3_2_reduce_relu"
  type: "ReLU"
  bottom: "inception_a1_3x3_2_reduce"
  top: "inception_a1_3x3_2_reduce"
}
layer {
  name: "inception_a1_3x3_2"
  type: "Convolution"
  bottom: "inception_a1_3x3_2_reduce"
  top: "inception_a1_3x3_2"
  param {
    lr_mult: 1
    decay_mult: 1
  }
  convolution_param {
    bias_term: false
    num_output: 96
    pad: 1
    kernel_size: 3
    stride: 1
  }
}
layer {
  name: "inception_a1_3x3_2_scale"
  type: "Scale"
  bottom: "inception_a1_3x3_2"
  top: "inception_a1_3x3_2"
  scale_param {
    bias_term: true
  }
  param {
    lr_mult: 0.0
    decay_mult: 0.0
  }
  param {
    lr_mult: 0.0
    decay_mult: 0.0
  }
}
layer {
  name: "inception_a1_3x3_2_relu"
  type: "ReLU"
  bottom: "inception_a1_3x3_2"
  top: "inception_a1_3x3_2"
}
layer {
  name: "inception_a1_3x3_3"
  type: "Convolution"
  bottom: "inception_a1_3x3_2"
  top: "inception_a1_3x3_3"
  param {
    lr_mult: 1
    decay_mult: 1
  }
  convolution_param {
    bias_term: false
    num_output: 96
    pad: 1
    kernel_size: 3
    stride: 1
  }
}
layer {
  name: "inception_a1_3x3_3_scale"
  type: "Scale"
  bottom: "inception_a1_3x3_3"
  top: "inception_a1_3x3_3"
  scale_param {
    bias_term: true
  }
  param {
    lr_mult: 0.0
    decay_mult: 0.0
  }
  param {
    lr_mult: 0.0
    decay_mult: 0.0
  }
}
layer {
  name: "inception_a1_3x3_3_relu"
  type: "ReLU"
  bottom: "inception_a1_3x3_3"
  top: "inception_a1_3x3_3"
}
layer {
  name: "inception_a1_pool_ave"
  type: "Pooling"
  bottom: "inception_stem3"
  top: "inception_a1_pool_ave"
  pooling_param {
    pool: AVE
    kernel_size: 3
    stride: 1
    pad: 1
  }
}
layer {
  name: "inception_a1_1x1"
  type: "Convolution"
  bottom: "inception_a1_pool_ave"
  top: "inception_a1_1x1"
  param {
    lr_mult: 1
    decay_mult: 1
  }
  convolution_param {
    bias_term: false
    num_output: 96
    pad: 0
    kernel_size: 1
    stride: 1
  }
}
layer {
  name: "inception_a1_1x1_scale"
  type: "Scale"
  bottom: "inception_a1_1x1"
  top: "inception_a1_1x1"
  scale_param {
    bias_term: true
  }
  param {
    lr_mult: 0.0
    decay_mult: 0.0
  }
  param {
    lr_mult: 0.0
    decay_mult: 0.0
  }
}
layer {
  name: "inception_a1_1x1_relu"
  type: "ReLU"
  bottom: "inception_a1_1x1"
  top: "inception_a1_1x1"
}
layer {
  name: "inception_a1_concat"
  type: "Concat"
  bottom: "inception_a1_1x1_2"
  bottom: "inception_a1_3x3"
  bottom: "inception_a1_3x3_3"
  bottom: "inception_a1_1x1"
  top: "inception_a1_concat"
}
layer {
  name: "inception_a2_1x1_2"
  type: "Convolution"
  bottom: "inception_a1_concat"
  top: "inception_a2_1x1_2"
  param {
    lr_mult: 1
    decay_mult: 1
  }
  convolution_param {
    bias_term: false
    num_output: 96
    pad: 0
    kernel_size: 1
    stride: 1
  }
}
layer {
  name: "inception_a2_1x1_2_scale"
  type: "Scale"
  bottom: "inception_a2_1x1_2"
  top: "inception_a2_1x1_2"
  scale_param {
    bias_term: true
  }
  param {
    lr_mult: 0.0
    decay_mult: 0.0
  }
  param {
    lr_mult: 0.0
    decay_mult: 0.0
  }
}
layer {
  name: "inception_a2_1x1_2_relu"
  type: "ReLU"
  bottom: "inception_a2_1x1_2"
  top: "inception_a2_1x1_2"
}
layer {
  name: "inception_a2_3x3_reduce"
  type: "Convolution"
  bottom: "inception_a1_concat"
  top: "inception_a2_3x3_reduce"
  param {
    lr_mult: 1
    decay_mult: 1
  }
  convolution_param {
    bias_term: false
    num_output: 64
    pad: 0
    kernel_size: 1
    stride: 1
  }
}
layer {
  name: "inception_a2_3x3_reduce_scale"
  type: "Scale"
  bottom: "inception_a2_3x3_reduce"
  top: "inception_a2_3x3_reduce"
  scale_param {
    bias_term: true
  }
  param {
    lr_mult: 0.0
    decay_mult: 0.0
  }
  param {
    lr_mult: 0.0
    decay_mult: 0.0
  }
}
layer {
  name: "inception_a2_3x3_reduce_relu"
  type: "ReLU"
  bottom: "inception_a2_3x3_reduce"
  top: "inception_a2_3x3_reduce"
}
layer {
  name: "inception_a2_3x3"
  type: "Convolution"
  bottom: "inception_a2_3x3_reduce"
  top: "inception_a2_3x3"
  param {
    lr_mult: 1
    decay_mult: 1
  }
  convolution_param {
    bias_term: false
    num_output: 96
    pad: 1
    kernel_size: 3
    stride: 1
  }
}
layer {
  name: "inception_a2_3x3_scale"
  type: "Scale"
  bottom: "inception_a2_3x3"
  top: "inception_a2_3x3"
  scale_param {
    bias_term: true
  }
  param {
    lr_mult: 0.0
    decay_mult: 0.0
  }
  param {
    lr_mult: 0.0
    decay_mult: 0.0
  }
}
layer {
  name: "inception_a2_3x3_relu"
  type: "ReLU"
  bottom: "inception_a2_3x3"
  top: "inception_a2_3x3"
}
layer {
  name: "inception_a2_3x3_2_reduce"
  type: "Convolution"
  bottom: "inception_a1_concat"
  top: "inception_a2_3x3_2_reduce"
  param {
    lr_mult: 1
    decay_mult: 1
  }
  convolution_param {
    bias_term: false
    num_output: 64
    pad: 0
    kernel_size: 1
    stride: 1
  }
}
layer {
  name: "inception_a2_3x3_2_reduce_scale"
  type: "Scale"
  bottom: "inception_a2_3x3_2_reduce"
  top: "inception_a2_3x3_2_reduce"
  scale_param {
    bias_term: true
  }
  param {
    lr_mult: 0.0
    decay_mult: 0.0
  }
  param {
    lr_mult: 0.0
    decay_mult: 0.0
  }
}
layer {
  name: "inception_a2_3x3_2_reduce_relu"
  type: "ReLU"
  bottom: "inception_a2_3x3_2_reduce"
  top: "inception_a2_3x3_2_reduce"
}
layer {
  name: "inception_a2_3x3_2"
  type: "Convolution"
  bottom: "inception_a2_3x3_2_reduce"
  top: "inception_a2_3x3_2"
  param {
    lr_mult: 1
    decay_mult: 1
  }
  convolution_param {
    bias_term: false
    num_output: 96
    pad: 1
    kernel_size: 3
    stride: 1
  }
}
layer {
  name: "inception_a2_3x3_2_scale"
  type: "Scale"
  bottom: "inception_a2_3x3_2"
  top: "inception_a2_3x3_2"
  scale_param {
    bias_term: true
  }
  param {
    lr_mult: 0.0
    decay_mult: 0.0
  }
  param {
    lr_mult: 0.0
    decay_mult: 0.0
  }
}
layer {
  name: "inception_a2_3x3_2_relu"
  type: "ReLU"
  bottom: "inception_a2_3x3_2"
  top: "inception_a2_3x3_2"
}
layer {
  name: "inception_a2_3x3_3"
  type: "Convolution"
  bottom: "inception_a2_3x3_2"
  top: "inception_a2_3x3_3"
  param {
    lr_mult: 1
    decay_mult: 1
  }
  convolution_param {
    bias_term: false
    num_output: 96
    pad: 1
    kernel_size: 3
    stride: 1
  }
}
layer {
  name: "inception_a2_3x3_3_scale"
  type: "Scale"
  bottom: "inception_a2_3x3_3"
  top: "inception_a2_3x3_3"
  scale_param {
    bias_term: true
  }
  param {
    lr_mult: 0.0
    decay_mult: 0.0
  }
  param {
    lr_mult: 0.0
    decay_mult: 0.0
  }
}
layer {
  name: "inception_a2_3x3_3_relu"
  type: "ReLU"
  bottom: "inception_a2_3x3_3"
  top: "inception_a2_3x3_3"
}
layer {
  name: "inception_a2_pool_ave"
  type: "Pooling"
  bottom: "inception_a1_concat"
  top: "inception_a2_pool_ave"
  pooling_param {
    pool: AVE
    kernel_size: 3
    stride: 1
    pad: 1
  }
}
layer {
  name: "inception_a2_1x1"
  type: "Convolution"
  bottom: "inception_a2_pool_ave"
  top: "inception_a2_1x1"
  param {
    lr_mult: 1
    decay_mult: 1
  }
  convolution_param {
    bias_term: false
    num_output: 96
    pad: 0
    kernel_size: 1
    stride: 1
  }
}
layer {
  name: "inception_a2_1x1_scale"
  type: "Scale"
  bottom: "inception_a2_1x1"
  top: "inception_a2_1x1"
  scale_param {
    bias_term: true
  }
  param {
    lr_mult: 0.0
    decay_mult: 0.0
  }
  param {
    lr_mult: 0.0
    decay_mult: 0.0
  }
}
layer {
  name: "inception_a2_1x1_relu"
  type: "ReLU"
  bottom: "inception_a2_1x1"
  top: "inception_a2_1x1"
}
layer {
  name: "inception_a2_concat"
  type: "Concat"
  bottom: "inception_a2_1x1_2"
  bottom: "inception_a2_3x3"
  bottom: "inception_a2_3x3_3"
  bottom: "inception_a2_1x1"
  top: "inception_a2_concat"
}
layer {
  name: "inception_a3_1x1_2"
  type: "Convolution"
  bottom: "inception_a2_concat"
  top: "inception_a3_1x1_2"
  param {
    lr_mult: 1
    decay_mult: 1
  }
  convolution_param {
    bias_term: false
    num_output: 96
    pad: 0
    kernel_size: 1
    stride: 1
  }
}
layer {
  name: "inception_a3_1x1_2_scale"
  type: "Scale"
  bottom: "inception_a3_1x1_2"
  top: "inception_a3_1x1_2"
  scale_param {
    bias_term: true
  }
  param {
    lr_mult: 0.0
    decay_mult: 0.0
  }
  param {
    lr_mult: 0.0
    decay_mult: 0.0
  }
}
layer {
  name: "inception_a3_1x1_2_relu"
  type: "ReLU"
  bottom: "inception_a3_1x1_2"
  top: "inception_a3_1x1_2"
}
layer {
  name: "inception_a3_3x3_reduce"
  type: "Convolution"
  bottom: "inception_a2_concat"
  top: "inception_a3_3x3_reduce"
  param {
    lr_mult: 1
    decay_mult: 1
  }
  convolution_param {
    bias_term: false
    num_output: 64
    pad: 0
    kernel_size: 1
    stride: 1
  }
}
layer {
  name: "inception_a3_3x3_reduce_scale"
  type: "Scale"
  bottom: "inception_a3_3x3_reduce"
  top: "inception_a3_3x3_reduce"
  scale_param {
    bias_term: true
  }
  param {
    lr_mult: 0.0
    decay_mult: 0.0
  }
  param {
    lr_mult: 0.0
    decay_mult: 0.0
  }
}
layer {
  name: "inception_a3_3x3_reduce_relu"
  type: "ReLU"
  bottom: "inception_a3_3x3_reduce"
  top: "inception_a3_3x3_reduce"
}
layer {
  name: "inception_a3_3x3"
  type: "Convolution"
  bottom: "inception_a3_3x3_reduce"
  top: "inception_a3_3x3"
  param {
    lr_mult: 1
    decay_mult: 1
  }
  convolution_param {
    bias_term: false
    num_output: 96
    pad: 1
    kernel_size: 3
    stride: 1
  }
}
layer {
  name: "inception_a3_3x3_scale"
  type: "Scale"
  bottom: "inception_a3_3x3"
  top: "inception_a3_3x3"
  scale_param {
    bias_term: true
  }
  param {
    lr_mult: 0.0
    decay_mult: 0.0
  }
  param {
    lr_mult: 0.0
    decay_mult: 0.0
  }
}
layer {
  name: "inception_a3_3x3_relu"
  type: "ReLU"
  bottom: "inception_a3_3x3"
  top: "inception_a3_3x3"
}
layer {
  name: "inception_a3_3x3_2_reduce"
  type: "Convolution"
  bottom: "inception_a2_concat"
  top: "inception_a3_3x3_2_reduce"
  param {
    lr_mult: 1
    decay_mult: 1
  }
  convolution_param {
    bias_term: false
    num_output: 64
    pad: 0
    kernel_size: 1
    stride: 1
  }
}
layer {
  name: "inception_a3_3x3_2_reduce_scale"
  type: "Scale"
  bottom: "inception_a3_3x3_2_reduce"
  top: "inception_a3_3x3_2_reduce"
  scale_param {
    bias_term: true
  }
  param {
    lr_mult: 0.0
    decay_mult: 0.0
  }
  param {
    lr_mult: 0.0
    decay_mult: 0.0
  }
}
layer {
  name: "inception_a3_3x3_2_reduce_relu"
  type: "ReLU"
  bottom: "inception_a3_3x3_2_reduce"
  top: "inception_a3_3x3_2_reduce"
}
layer {
  name: "inception_a3_3x3_2"
  type: "Convolution"
  bottom: "inception_a3_3x3_2_reduce"
  top: "inception_a3_3x3_2"
  param {
    lr_mult: 1
    decay_mult: 1
  }
  convolution_param {
    bias_term: false
    num_output: 96
    pad: 1
    kernel_size: 3
    stride: 1
  }
}
layer {
  name: "inception_a3_3x3_2_scale"
  type: "Scale"
  bottom: "inception_a3_3x3_2"
  top: "inception_a3_3x3_2"
  scale_param {
    bias_term: true
  }
  param {
    lr_mult: 0.0
    decay_mult: 0.0
  }
  param {
    lr_mult: 0.0
    decay_mult: 0.0
  }
}
layer {
  name: "inception_a3_3x3_2_relu"
  type: "ReLU"
  bottom: "inception_a3_3x3_2"
  top: "inception_a3_3x3_2"
}
layer {
  name: "inception_a3_3x3_3"
  type: "Convolution"
  bottom: "inception_a3_3x3_2"
  top: "inception_a3_3x3_3"
  param {
    lr_mult: 1
    decay_mult: 1
  }
  convolution_param {
    bias_term: false
    num_output: 96
    pad: 1
    kernel_size: 3
    stride: 1
  }
}
layer {
  name: "inception_a3_3x3_3_scale"
  type: "Scale"
  bottom: "inception_a3_3x3_3"
  top: "inception_a3_3x3_3"
  scale_param {
    bias_term: true
  }
  param {
    lr_mult: 0.0
    decay_mult: 0.0
  }
  param {
    lr_mult: 0.0
    decay_mult: 0.0
  }
}
layer {
  name: "inception_a3_3x3_3_relu"
  type: "ReLU"
  bottom: "inception_a3_3x3_3"
  top: "inception_a3_3x3_3"
}
layer {
  name: "inception_a3_pool_ave"
  type: "Pooling"
  bottom: "inception_a2_concat"
  top: "inception_a3_pool_ave"
  pooling_param {
    pool: AVE
    kernel_size: 3
    stride: 1
    pad: 1
  }
}
layer {
  name: "inception_a3_1x1"
  type: "Convolution"
  bottom: "inception_a3_pool_ave"
  top: "inception_a3_1x1"
  param {
    lr_mult: 1
    decay_mult: 1
  }
  convolution_param {
    bias_term: false
    num_output: 96
    pad: 0
    kernel_size: 1
    stride: 1
  }
}
layer {
  name: "inception_a3_1x1_scale"
  type: "Scale"
  bottom: "inception_a3_1x1"
  top: "inception_a3_1x1"
  scale_param {
    bias_term: true
  }
  param {
    lr_mult: 0.0
    decay_mult: 0.0
  }
  param {
    lr_mult: 0.0
    decay_mult: 0.0
  }
}
layer {
  name: "inception_a3_1x1_relu"
  type: "ReLU"
  bottom: "inception_a3_1x1"
  top: "inception_a3_1x1"
}
layer {
  name: "inception_a3_concat"
  type: "Concat"
  bottom: "inception_a3_1x1_2"
  bottom: "inception_a3_3x3"
  bottom: "inception_a3_3x3_3"
  bottom: "inception_a3_1x1"
  top: "inception_a3_concat"
}
layer {
  name: "inception_a4_1x1_2"
  type: "Convolution"
  bottom: "inception_a3_concat"
  top: "inception_a4_1x1_2"
  param {
    lr_mult: 1
    decay_mult: 1
  }
  convolution_param {
    bias_term: false
    num_output: 96
    pad: 0
    kernel_size: 1
    stride: 1
  }
}
layer {
  name: "inception_a4_1x1_2_scale"
  type: "Scale"
  bottom: "inception_a4_1x1_2"
  top: "inception_a4_1x1_2"
  scale_param {
    bias_term: true
  }
  param {
    lr_mult: 0.0
    decay_mult: 0.0
  }
  param {
    lr_mult: 0.0
    decay_mult: 0.0
  }
}
layer {
  name: "inception_a4_1x1_2_relu"
  type: "ReLU"
  bottom: "inception_a4_1x1_2"
  top: "inception_a4_1x1_2"
}
layer {
  name: "inception_a4_3x3_reduce"
  type: "Convolution"
  bottom: "inception_a3_concat"
  top: "inception_a4_3x3_reduce"
  param {
    lr_mult: 1
    decay_mult: 1
  }
  convolution_param {
    bias_term: false
    num_output: 64
    pad: 0
    kernel_size: 1
    stride: 1
  }
}
layer {
  name: "inception_a4_3x3_reduce_scale"
  type: "Scale"
  bottom: "inception_a4_3x3_reduce"
  top: "inception_a4_3x3_reduce"
  scale_param {
    bias_term: true
  }
  param {
    lr_mult: 0.0
    decay_mult: 0.0
  }
  param {
    lr_mult: 0.0
    decay_mult: 0.0
  }
}
layer {
  name: "inception_a4_3x3_reduce_relu"
  type: "ReLU"
  bottom: "inception_a4_3x3_reduce"
  top: "inception_a4_3x3_reduce"
}
layer {
  name: "inception_a4_3x3"
  type: "Convolution"
  bottom: "inception_a4_3x3_reduce"
  top: "inception_a4_3x3"
  param {
    lr_mult: 1
    decay_mult: 1
  }
  convolution_param {
    bias_term: false
    num_output: 96
    pad: 1
    kernel_size: 3
    stride: 1
  }
}
layer {
  name: "inception_a4_3x3_scale"
  type: "Scale"
  bottom: "inception_a4_3x3"
  top: "inception_a4_3x3"
  scale_param {
    bias_term: true
  }
  param {
    lr_mult: 0.0
    decay_mult: 0.0
  }
  param {
    lr_mult: 0.0
    decay_mult: 0.0
  }
}
layer {
  name: "inception_a4_3x3_relu"
  type: "ReLU"
  bottom: "inception_a4_3x3"
  top: "inception_a4_3x3"
}
layer {
  name: "inception_a4_3x3_2_reduce"
  type: "Convolution"
  bottom: "inception_a3_concat"
  top: "inception_a4_3x3_2_reduce"
  param {
    lr_mult: 1
    decay_mult: 1
  }
  convolution_param {
    bias_term: false
    num_output: 64
    pad: 0
    kernel_size: 1
    stride: 1
  }
}
layer {
  name: "inception_a4_3x3_2_reduce_scale"
  type: "Scale"
  bottom: "inception_a4_3x3_2_reduce"
  top: "inception_a4_3x3_2_reduce"
  scale_param {
    bias_term: true
  }
  param {
    lr_mult: 0.0
    decay_mult: 0.0
  }
  param {
    lr_mult: 0.0
    decay_mult: 0.0
  }
}
layer {
  name: "inception_a4_3x3_2_reduce_relu"
  type: "ReLU"
  bottom: "inception_a4_3x3_2_reduce"
  top: "inception_a4_3x3_2_reduce"
}
layer {
  name: "inception_a4_3x3_2"
  type: "Convolution"
  bottom: "inception_a4_3x3_2_reduce"
  top: "inception_a4_3x3_2"
  param {
    lr_mult: 1
    decay_mult: 1
  }
  convolution_param {
    bias_term: false
    num_output: 96
    pad: 1
    kernel_size: 3
    stride: 1
  }
}
layer {
  name: "inception_a4_3x3_2_scale"
  type: "Scale"
  bottom: "inception_a4_3x3_2"
  top: "inception_a4_3x3_2"
  scale_param {
    bias_term: true
  }
  param {
    lr_mult: 0.0
    decay_mult: 0.0
  }
  param {
    lr_mult: 0.0
    decay_mult: 0.0
  }
}
layer {
  name: "inception_a4_3x3_2_relu"
  type: "ReLU"
  bottom: "inception_a4_3x3_2"
  top: "inception_a4_3x3_2"
}
layer {
  name: "inception_a4_3x3_3"
  type: "Convolution"
  bottom: "inception_a4_3x3_2"
  top: "inception_a4_3x3_3"
  param {
    lr_mult: 1
    decay_mult: 1
  }
  convolution_param {
    bias_term: false
    num_output: 96
    pad: 1
    kernel_size: 3
    stride: 1
  }
}
layer {
  name: "inception_a4_3x3_3_scale"
  type: "Scale"
  bottom: "inception_a4_3x3_3"
  top: "inception_a4_3x3_3"
  scale_param {
    bias_term: true
  }
  param {
    lr_mult: 0.0
    decay_mult: 0.0
  }
  param {
    lr_mult: 0.0
    decay_mult: 0.0
  }
}
layer {
  name: "inception_a4_3x3_3_relu"
  type: "ReLU"
  bottom: "inception_a4_3x3_3"
  top: "inception_a4_3x3_3"
}
layer {
  name: "inception_a4_pool_ave"
  type: "Pooling"
  bottom: "inception_a3_concat"
  top: "inception_a4_pool_ave"
  pooling_param {
    pool: AVE
    kernel_size: 3
    stride: 1
    pad: 1
  }
}
layer {
  name: "inception_a4_1x1"
  type: "Convolution"
  bottom: "inception_a4_pool_ave"
  top: "inception_a4_1x1"
  param {
    lr_mult: 1
    decay_mult: 1
  }
  convolution_param {
    bias_term: false
    num_output: 96
    pad: 0
    kernel_size: 1
    stride: 1
  }
}
layer {
  name: "inception_a4_1x1_scale"
  type: "Scale"
  bottom: "inception_a4_1x1"
  top: "inception_a4_1x1"
  scale_param {
    bias_term: true
  }
  param {
    lr_mult: 0.0
    decay_mult: 0.0
  }
  param {
    lr_mult: 0.0
    decay_mult: 0.0
  }
}
layer {
  name: "inception_a4_1x1_relu"
  type: "ReLU"
  bottom: "inception_a4_1x1"
  top: "inception_a4_1x1"
}
layer {
  name: "inception_a4_concat"
  type: "Concat"
  bottom: "inception_a4_1x1_2"
  bottom: "inception_a4_3x3"
  bottom: "inception_a4_3x3_3"
  bottom: "inception_a4_1x1"
  top: "inception_a4_concat"
}
layer {
  name: "reduction_a_3x3"
  type: "Convolution"
  bottom: "inception_a4_concat"
  top: "reduction_a_3x3"
  param {
    lr_mult: 1
    decay_mult: 1
  }
  convolution_param {
    bias_term: false
    num_output: 384
    pad: 2
    dilation: 2
    kernel_size: 3
    stride: 1
  }
}
layer {
  name: "reduction_a_3x3_scale"
  type: "Scale"
  bottom: "reduction_a_3x3"
  top: "reduction_a_3x3"
  scale_param {
    bias_term: true
  }
  param {
    lr_mult: 0.0
    decay_mult: 0.0
  }
  param {
    lr_mult: 0.0
    decay_mult: 0.0
  }
}
layer {
  name: "reduction_a_3x3_relu"
  type: "ReLU"
  bottom: "reduction_a_3x3"
  top: "reduction_a_3x3"
}
layer {
  name: "reduction_a_3x3_2_reduce"
  type: "Convolution"
  bottom: "inception_a4_concat"
  top: "reduction_a_3x3_2_reduce"
  param {
    lr_mult: 1
    decay_mult: 1
  }
  convolution_param {
    bias_term: false
    num_output: 192
    pad: 0
    kernel_size: 1
    stride: 1
  }
}
layer {
  name: "reduction_a_3x3_2_reduce_scale"
  type: "Scale"
  bottom: "reduction_a_3x3_2_reduce"
  top: "reduction_a_3x3_2_reduce"
  scale_param {
    bias_term: true
  }
  param {
    lr_mult: 0.0
    decay_mult: 0.0
  }
  param {
    lr_mult: 0.0
    decay_mult: 0.0
  }
}
layer {
  name: "reduction_a_3x3_2_reduce_relu"
  type: "ReLU"
  bottom: "reduction_a_3x3_2_reduce"
  top: "reduction_a_3x3_2_reduce"
}
layer {
  name: "reduction_a_3x3_2"
  type: "Convolution"
  bottom: "reduction_a_3x3_2_reduce"
  top: "reduction_a_3x3_2"
  param {
    lr_mult: 1
    decay_mult: 1
  }
  convolution_param {
    bias_term: false
    num_output: 224
    pad: 2
    dilation: 2
    kernel_size: 3
    stride: 1
  }
}
layer {
  name: "reduction_a_3x3_2_scale"
  type: "Scale"
  bottom: "reduction_a_3x3_2"
  top: "reduction_a_3x3_2"
  scale_param {
    bias_term: true
  }
  param {
    lr_mult: 0.0
    decay_mult: 0.0
  }
  param {
    lr_mult: 0.0
    decay_mult: 0.0
  }
}
layer {
  name: "reduction_a_3x3_2_relu"
  type: "ReLU"
  bottom: "reduction_a_3x3_2"
  top: "reduction_a_3x3_2"
}
layer {
  name: "reduction_a_3x3_3"
  type: "Convolution"
  bottom: "reduction_a_3x3_2"
  top: "reduction_a_3x3_3"
  param {
    lr_mult: 1
    decay_mult: 1
  }
  convolution_param {
    bias_term: false
    num_output: 256
    pad: 2
    dilation: 2
    kernel_size: 3
    stride: 1
  }
}
layer {
  name: "reduction_a_3x3_3_scale"
  type: "Scale"
  bottom: "reduction_a_3x3_3"
  top: "reduction_a_3x3_3"
  scale_param {
    bias_term: true
  }
  param {
    lr_mult: 0.0
    decay_mult: 0.0
  }
  param {
    lr_mult: 0.0
    decay_mult: 0.0
  }
}
layer {
  name: "reduction_a_3x3_3_relu"
  type: "ReLU"
  bottom: "reduction_a_3x3_3"
  top: "reduction_a_3x3_3"
}
layer {
  name: "reduction_a_pool"
  type: "Pooling"
  bottom: "inception_a4_concat"
  top: "reduction_a_pool"
  pooling_param {
    pool: MAX
    kernel_size: 3
    stride: 1
    pad: 1
    ceil_mode:false
  }
}
layer {
  name: "reduction_a_concat"
  type: "Concat"
  bottom: "reduction_a_3x3"
  bottom: "reduction_a_3x3_3"
  bottom: "reduction_a_pool"
  top: "reduction_a_concat"
}
layer {
  name: "inception_b1_1x1_2"
  type: "Convolution"
  bottom: "reduction_a_concat"
  top: "inception_b1_1x1_2"
  param {
    lr_mult: 1
    decay_mult: 1
  }
  convolution_param {
    bias_term: false
    num_output: 384
    pad: 0
    kernel_size: 1
    stride: 1
  }
}
layer {
  name: "inception_b1_1x1_2_scale"
  type: "Scale"
  bottom: "inception_b1_1x1_2"
  top: "inception_b1_1x1_2"
  scale_param {
    bias_term: true
  }
  param {
    lr_mult: 0.0
    decay_mult: 0.0
  }
  param {
    lr_mult: 0.0
    decay_mult: 0.0
  }
}
layer {
  name: "inception_b1_1x1_2_relu"
  type: "ReLU"
  bottom: "inception_b1_1x1_2"
  top: "inception_b1_1x1_2"
}
layer {
  name: "inception_b1_1x7_reduce"
  type: "Convolution"
  bottom: "reduction_a_concat"
  top: "inception_b1_1x7_reduce"
  param {
    lr_mult: 1
    decay_mult: 1
  }
  convolution_param {
    bias_term: false
    num_output: 192
    pad: 0
    kernel_size: 1
    stride: 1
  }
}
layer {
  name: "inception_b1_1x7_reduce_scale"
  type: "Scale"
  bottom: "inception_b1_1x7_reduce"
  top: "inception_b1_1x7_reduce"
  scale_param {
    bias_term: true
  }
  param {
    lr_mult: 0.0
    decay_mult: 0.0
  }
  param {
    lr_mult: 0.0
    decay_mult: 0.0
  }
}
layer {
  name: "inception_b1_1x7_reduce_relu"
  type: "ReLU"
  bottom: "inception_b1_1x7_reduce"
  top: "inception_b1_1x7_reduce"
}
layer {
  name: "inception_b1_1x7"
  type: "Convolution"
  bottom: "inception_b1_1x7_reduce"
  top: "inception_b1_1x7"
  param {
    lr_mult: 1
    decay_mult: 1
  }
  convolution_param {
    bias_term: false
    num_output: 224
    stride: 1
    pad_h: 0
    pad_w: 3
    kernel_h: 1
    kernel_w: 7
  }
}
layer {
  name: "inception_b1_1x7_scale"
  type: "Scale"
  bottom: "inception_b1_1x7"
  top: "inception_b1_1x7"
  scale_param {
    bias_term: true
  }
  param {
    lr_mult: 0.0
    decay_mult: 0.0
  }
  param {
    lr_mult: 0.0
    decay_mult: 0.0
  }
}
layer {
  name: "inception_b1_1x7_relu"
  type: "ReLU"
  bottom: "inception_b1_1x7"
  top: "inception_b1_1x7"
}
layer {
  name: "inception_b1_7x1"
  type: "Convolution"
  bottom: "inception_b1_1x7"
  top: "inception_b1_7x1"
  param {
    lr_mult: 1
    decay_mult: 1
  }
  convolution_param {
    bias_term: false
    num_output: 256
    stride: 1
    pad_h: 3
    pad_w: 0
    kernel_h: 7
    kernel_w: 1
  }
}
layer {
  name: "inception_b1_7x1_scale"
  type: "Scale"
  bottom: "inception_b1_7x1"
  top: "inception_b1_7x1"
  scale_param {
    bias_term: true
  }
  param {
    lr_mult: 0.0
    decay_mult: 0.0
  }
  param {
    lr_mult: 0.0
    decay_mult: 0.0
  }
}
layer {
  name: "inception_b1_7x1_relu"
  type: "ReLU"
  bottom: "inception_b1_7x1"
  top: "inception_b1_7x1"
}
layer {
  name: "inception_b1_7x1_2_reduce"
  type: "Convolution"
  bottom: "reduction_a_concat"
  top: "inception_b1_7x1_2_reduce"
  param {
    lr_mult: 1
    decay_mult: 1
  }
  convolution_param {
    bias_term: false
    num_output: 192
    pad: 0
    kernel_size: 1
    stride: 1
  }
}
layer {
  name: "inception_b1_7x1_2_reduce_scale"
  type: "Scale"
  bottom: "inception_b1_7x1_2_reduce"
  top: "inception_b1_7x1_2_reduce"
  scale_param {
    bias_term: true
  }
  param {
    lr_mult: 0.0
    decay_mult: 0.0
  }
  param {
    lr_mult: 0.0
    decay_mult: 0.0
  }
}
layer {
  name: "inception_b1_7x1_2_reduce_relu"
  type: "ReLU"
  bottom: "inception_b1_7x1_2_reduce"
  top: "inception_b1_7x1_2_reduce"
}
layer {
  name: "inception_b1_7x1_2"
  type: "Convolution"
  bottom: "inception_b1_7x1_2_reduce"
  top: "inception_b1_7x1_2"
  param {
    lr_mult: 1
    decay_mult: 1
  }
  convolution_param {
    bias_term: false
    num_output: 192
    stride: 1
    pad_h: 3
    pad_w: 0
    kernel_h: 7
    kernel_w: 1
  }
}
layer {
  name: "inception_b1_7x1_2_scale"
  type: "Scale"
  bottom: "inception_b1_7x1_2"
  top: "inception_b1_7x1_2"
  scale_param {
    bias_term: true
  }
  param {
    lr_mult: 0.0
    decay_mult: 0.0
  }
  param {
    lr_mult: 0.0
    decay_mult: 0.0
  }
}
layer {
  name: "inception_b1_7x1_2_relu"
  type: "ReLU"
  bottom: "inception_b1_7x1_2"
  top: "inception_b1_7x1_2"
}
layer {
  name: "inception_b1_1x7_2"
  type: "Convolution"
  bottom: "inception_b1_7x1_2"
  top: "inception_b1_1x7_2"
  param {
    lr_mult: 1
    decay_mult: 1
  }
  convolution_param {
    bias_term: false
    num_output: 224
    stride: 1
    pad_h: 0
    pad_w: 3
    kernel_h: 1
    kernel_w: 7
  }
}
layer {
  name: "inception_b1_1x7_2_scale"
  type: "Scale"
  bottom: "inception_b1_1x7_2"
  top: "inception_b1_1x7_2"
  scale_param {
    bias_term: true
  }
  param {
    lr_mult: 0.0
    decay_mult: 0.0
  }
  param {
    lr_mult: 0.0
    decay_mult: 0.0
  }
}
layer {
  name: "inception_b1_1x7_2_relu"
  type: "ReLU"
  bottom: "inception_b1_1x7_2"
  top: "inception_b1_1x7_2"
}
layer {
  name: "inception_b1_7x1_3"
  type: "Convolution"
  bottom: "inception_b1_1x7_2"
  top: "inception_b1_7x1_3"
  param {
    lr_mult: 1
    decay_mult: 1
  }
  convolution_param {
    bias_term: false
    num_output: 224
    stride: 1
    pad_h: 3
    pad_w: 0
    kernel_h: 7
    kernel_w: 1
  }
}
layer {
  name: "inception_b1_7x1_3_scale"
  type: "Scale"
  bottom: "inception_b1_7x1_3"
  top: "inception_b1_7x1_3"
  scale_param {
    bias_term: true
  }
  param {
    lr_mult: 0.0
    decay_mult: 0.0
  }
  param {
    lr_mult: 0.0
    decay_mult: 0.0
  }
}
layer {
  name: "inception_b1_7x1_3_relu"
  type: "ReLU"
  bottom: "inception_b1_7x1_3"
  top: "inception_b1_7x1_3"
}
layer {
  name: "inception_b1_1x7_3"
  type: "Convolution"
  bottom: "inception_b1_7x1_3"
  top: "inception_b1_1x7_3"
  param {
    lr_mult: 1
    decay_mult: 1
  }
  convolution_param {
    bias_term: false
    num_output: 256
    stride: 1
    pad_h: 0
    pad_w: 3
    kernel_h: 1
    kernel_w: 7
  }
}
layer {
  name: "inception_b1_1x7_3_scale"
  type: "Scale"
  bottom: "inception_b1_1x7_3"
  top: "inception_b1_1x7_3"
  scale_param {
    bias_term: true
  }
  param {
    lr_mult: 0.0
    decay_mult: 0.0
  }
  param {
    lr_mult: 0.0
    decay_mult: 0.0
  }
}
layer {
  name: "inception_b1_1x7_3_relu"
  type: "ReLU"
  bottom: "inception_b1_1x7_3"
  top: "inception_b1_1x7_3"
}
layer {
  name: "inception_b1_pool_ave"
  type: "Pooling"
  bottom: "reduction_a_concat"
  top: "inception_b1_pool_ave"
  pooling_param {
    pool: AVE
    kernel_size: 3
    stride: 1
    pad: 1
  }
}
layer {
  name: "inception_b1_1x1"
  type: "Convolution"
  bottom: "inception_b1_pool_ave"
  top: "inception_b1_1x1"
  param {
    lr_mult: 1
    decay_mult: 1
  }
  convolution_param {
    bias_term: false
    num_output: 128
    pad: 0
    kernel_size: 1
    stride: 1
  }
}
layer {
  name: "inception_b1_1x1_scale"
  type: "Scale"
  bottom: "inception_b1_1x1"
  top: "inception_b1_1x1"
  scale_param {
    bias_term: true
  }
  param {
    lr_mult: 0.0
    decay_mult: 0.0
  }
  param {
    lr_mult: 0.0
    decay_mult: 0.0
  }
}
layer {
  name: "inception_b1_1x1_relu"
  type: "ReLU"
  bottom: "inception_b1_1x1"
  top: "inception_b1_1x1"
}
layer {
  name: "inception_b1_concat"
  type: "Concat"
  bottom: "inception_b1_1x1_2"
  bottom: "inception_b1_7x1"
  bottom: "inception_b1_1x7_3"
  bottom: "inception_b1_1x1"
  top: "inception_b1_concat"
}
layer {
  name: "inception_b2_1x1_2"
  type: "Convolution"
  bottom: "inception_b1_concat"
  top: "inception_b2_1x1_2"
  param {
    lr_mult: 1
    decay_mult: 1
  }
  convolution_param {
    bias_term: false
    num_output: 384
    pad: 0
    kernel_size: 1
    stride: 1
  }
}
layer {
  name: "inception_b2_1x1_2_scale"
  type: "Scale"
  bottom: "inception_b2_1x1_2"
  top: "inception_b2_1x1_2"
  scale_param {
    bias_term: true
  }
  param {
    lr_mult: 0.0
    decay_mult: 0.0
  }
  param {
    lr_mult: 0.0
    decay_mult: 0.0
  }
}
layer {
  name: "inception_b2_1x1_2_relu"
  type: "ReLU"
  bottom: "inception_b2_1x1_2"
  top: "inception_b2_1x1_2"
}
layer {
  name: "inception_b2_1x7_reduce"
  type: "Convolution"
  bottom: "inception_b1_concat"
  top: "inception_b2_1x7_reduce"
  param {
    lr_mult: 1
    decay_mult: 1
  }
  convolution_param {
    bias_term: false
    num_output: 192
    pad: 0
    kernel_size: 1
    stride: 1
  }
}
layer {
  name: "inception_b2_1x7_reduce_scale"
  type: "Scale"
  bottom: "inception_b2_1x7_reduce"
  top: "inception_b2_1x7_reduce"
  scale_param {
    bias_term: true
  }
  param {
    lr_mult: 0.0
    decay_mult: 0.0
  }
  param {
    lr_mult: 0.0
    decay_mult: 0.0
  }
}
layer {
  name: "inception_b2_1x7_reduce_relu"
  type: "ReLU"
  bottom: "inception_b2_1x7_reduce"
  top: "inception_b2_1x7_reduce"
}
layer {
  name: "inception_b2_1x7"
  type: "Convolution"
  bottom: "inception_b2_1x7_reduce"
  top: "inception_b2_1x7"
  param {
    lr_mult: 1
    decay_mult: 1
  }
  convolution_param {
    bias_term: false
    num_output: 224
    stride: 1
    pad_h: 0
    pad_w: 3
    kernel_h: 1
    kernel_w: 7
  }
}
layer {
  name: "inception_b2_1x7_scale"
  type: "Scale"
  bottom: "inception_b2_1x7"
  top: "inception_b2_1x7"
  scale_param {
    bias_term: true
  }
  param {
    lr_mult: 0.0
    decay_mult: 0.0
  }
  param {
    lr_mult: 0.0
    decay_mult: 0.0
  }
}
layer {
  name: "inception_b2_1x7_relu"
  type: "ReLU"
  bottom: "inception_b2_1x7"
  top: "inception_b2_1x7"
}
layer {
  name: "inception_b2_7x1"
  type: "Convolution"
  bottom: "inception_b2_1x7"
  top: "inception_b2_7x1"
  param {
    lr_mult: 1
    decay_mult: 1
  }
  convolution_param {
    bias_term: false
    num_output: 256
    stride: 1
    pad_h: 3
    pad_w: 0
    kernel_h: 7
    kernel_w: 1
  }
}
layer {
  name: "inception_b2_7x1_scale"
  type: "Scale"
  bottom: "inception_b2_7x1"
  top: "inception_b2_7x1"
  scale_param {
    bias_term: true
  }
  param {
    lr_mult: 0.0
    decay_mult: 0.0
  }
  param {
    lr_mult: 0.0
    decay_mult: 0.0
  }
}
layer {
  name: "inception_b2_7x1_relu"
  type: "ReLU"
  bottom: "inception_b2_7x1"
  top: "inception_b2_7x1"
}
layer {
  name: "inception_b2_7x1_2_reduce"
  type: "Convolution"
  bottom: "inception_b1_concat"
  top: "inception_b2_7x1_2_reduce"
  param {
    lr_mult: 1
    decay_mult: 1
  }
  convolution_param {
    bias_term: false
    num_output: 192
    pad: 0
    kernel_size: 1
    stride: 1
  }
}
layer {
  name: "inception_b2_7x1_2_reduce_scale"
  type: "Scale"
  bottom: "inception_b2_7x1_2_reduce"
  top: "inception_b2_7x1_2_reduce"
  scale_param {
    bias_term: true
  }
  param {
    lr_mult: 0.0
    decay_mult: 0.0
  }
  param {
    lr_mult: 0.0
    decay_mult: 0.0
  }
}
layer {
  name: "inception_b2_7x1_2_reduce_relu"
  type: "ReLU"
  bottom: "inception_b2_7x1_2_reduce"
  top: "inception_b2_7x1_2_reduce"
}
layer {
  name: "inception_b2_7x1_2"
  type: "Convolution"
  bottom: "inception_b2_7x1_2_reduce"
  top: "inception_b2_7x1_2"
  param {
    lr_mult: 1
    decay_mult: 1
  }
  convolution_param {
    bias_term: false
    num_output: 192
    stride: 1
    pad_h: 3
    pad_w: 0
    kernel_h: 7
    kernel_w: 1
  }
}
layer {
  name: "inception_b2_7x1_2_scale"
  type: "Scale"
  bottom: "inception_b2_7x1_2"
  top: "inception_b2_7x1_2"
  scale_param {
    bias_term: true
  }
  param {
    lr_mult: 0.0
    decay_mult: 0.0
  }
  param {
    lr_mult: 0.0
    decay_mult: 0.0
  }
}
layer {
  name: "inception_b2_7x1_2_relu"
  type: "ReLU"
  bottom: "inception_b2_7x1_2"
  top: "inception_b2_7x1_2"
}
layer {
  name: "inception_b2_1x7_2"
  type: "Convolution"
  bottom: "inception_b2_7x1_2"
  top: "inception_b2_1x7_2"
  param {
    lr_mult: 1
    decay_mult: 1
  }
  convolution_param {
    bias_term: false
    num_output: 224
    stride: 1
    pad_h: 0
    pad_w: 3
    kernel_h: 1
    kernel_w: 7
  }
}
layer {
  name: "inception_b2_1x7_2_scale"
  type: "Scale"
  bottom: "inception_b2_1x7_2"
  top: "inception_b2_1x7_2"
  scale_param {
    bias_term: true
  }
  param {
    lr_mult: 0.0
    decay_mult: 0.0
  }
  param {
    lr_mult: 0.0
    decay_mult: 0.0
  }
}
layer {
  name: "inception_b2_1x7_2_relu"
  type: "ReLU"
  bottom: "inception_b2_1x7_2"
  top: "inception_b2_1x7_2"
}
layer {
  name: "inception_b2_7x1_3"
  type: "Convolution"
  bottom: "inception_b2_1x7_2"
  top: "inception_b2_7x1_3"
  param {
    lr_mult: 1
    decay_mult: 1
  }
  convolution_param {
    bias_term: false
    num_output: 224
    stride: 1
    pad_h: 3
    pad_w: 0
    kernel_h: 7
    kernel_w: 1
  }
}
layer {
  name: "inception_b2_7x1_3_scale"
  type: "Scale"
  bottom: "inception_b2_7x1_3"
  top: "inception_b2_7x1_3"
  scale_param {
    bias_term: true
  }
  param {
    lr_mult: 0.0
    decay_mult: 0.0
  }
  param {
    lr_mult: 0.0
    decay_mult: 0.0
  }
}
layer {
  name: "inception_b2_7x1_3_relu"
  type: "ReLU"
  bottom: "inception_b2_7x1_3"
  top: "inception_b2_7x1_3"
}
layer {
  name: "inception_b2_1x7_3"
  type: "Convolution"
  bottom: "inception_b2_7x1_3"
  top: "inception_b2_1x7_3"
  param {
    lr_mult: 1
    decay_mult: 1
  }
  convolution_param {
    bias_term: false
    num_output: 256
    stride: 1
    pad_h: 0
    pad_w: 3
    kernel_h: 1
    kernel_w: 7
  }
}
layer {
  name: "inception_b2_1x7_3_scale"
  type: "Scale"
  bottom: "inception_b2_1x7_3"
  top: "inception_b2_1x7_3"
  scale_param {
    bias_term: true
  }
  param {
    lr_mult: 0.0
    decay_mult: 0.0
  }
  param {
    lr_mult: 0.0
    decay_mult: 0.0
  }
}
layer {
  name: "inception_b2_1x7_3_relu"
  type: "ReLU"
  bottom: "inception_b2_1x7_3"
  top: "inception_b2_1x7_3"
}
layer {
  name: "inception_b2_pool_ave"
  type: "Pooling"
  bottom: "inception_b1_concat"
  top: "inception_b2_pool_ave"
  pooling_param {
    pool: AVE
    kernel_size: 3
    stride: 1
    pad: 1
  }
}
layer {
  name: "inception_b2_1x1"
  type: "Convolution"
  bottom: "inception_b2_pool_ave"
  top: "inception_b2_1x1"
  param {
    lr_mult: 1
    decay_mult: 1
  }
  convolution_param {
    bias_term: false
    num_output: 128
    pad: 0
    kernel_size: 1
    stride: 1
  }
}
layer {
  name: "inception_b2_1x1_scale"
  type: "Scale"
  bottom: "inception_b2_1x1"
  top: "inception_b2_1x1"
  scale_param {
    bias_term: true
  }
  param {
    lr_mult: 0.0
    decay_mult: 0.0
  }
  param {
    lr_mult: 0.0
    decay_mult: 0.0
  }
}
layer {
  name: "inception_b2_1x1_relu"
  type: "ReLU"
  bottom: "inception_b2_1x1"
  top: "inception_b2_1x1"
}
layer {
  name: "inception_b2_concat"
  type: "Concat"
  bottom: "inception_b2_1x1_2"
  bottom: "inception_b2_7x1"
  bottom: "inception_b2_1x7_3"
  bottom: "inception_b2_1x1"
  top: "inception_b2_concat"
}
layer {
  name: "inception_b3_1x1_2"
  type: "Convolution"
  bottom: "inception_b2_concat"
  top: "inception_b3_1x1_2"
  param {
    lr_mult: 1
    decay_mult: 1
  }
  convolution_param {
    bias_term: false
    num_output: 384
    pad: 0
    kernel_size: 1
    stride: 1
  }
}
layer {
  name: "inception_b3_1x1_2_scale"
  type: "Scale"
  bottom: "inception_b3_1x1_2"
  top: "inception_b3_1x1_2"
  scale_param {
    bias_term: true
  }
  param {
    lr_mult: 0.0
    decay_mult: 0.0
  }
  param {
    lr_mult: 0.0
    decay_mult: 0.0
  }
}
layer {
  name: "inception_b3_1x1_2_relu"
  type: "ReLU"
  bottom: "inception_b3_1x1_2"
  top: "inception_b3_1x1_2"
}
layer {
  name: "inception_b3_1x7_reduce"
  type: "Convolution"
  bottom: "inception_b2_concat"
  top: "inception_b3_1x7_reduce"
  param {
    lr_mult: 1
    decay_mult: 1
  }
  convolution_param {
    bias_term: false
    num_output: 192
    pad: 0
    kernel_size: 1
    stride: 1
  }
}
layer {
  name: "inception_b3_1x7_reduce_scale"
  type: "Scale"
  bottom: "inception_b3_1x7_reduce"
  top: "inception_b3_1x7_reduce"
  scale_param {
    bias_term: true
  }
  param {
    lr_mult: 0.0
    decay_mult: 0.0
  }
  param {
    lr_mult: 0.0
    decay_mult: 0.0
  }
}
layer {
  name: "inception_b3_1x7_reduce_relu"
  type: "ReLU"
  bottom: "inception_b3_1x7_reduce"
  top: "inception_b3_1x7_reduce"
}
layer {
  name: "inception_b3_1x7"
  type: "Convolution"
  bottom: "inception_b3_1x7_reduce"
  top: "inception_b3_1x7"
  param {
    lr_mult: 1
    decay_mult: 1
  }
  convolution_param {
    bias_term: false
    num_output: 224
    stride: 1
    pad_h: 0
    pad_w: 3
    kernel_h: 1
    kernel_w: 7
  }
}
layer {
  name: "inception_b3_1x7_scale"
  type: "Scale"
  bottom: "inception_b3_1x7"
  top: "inception_b3_1x7"
  scale_param {
    bias_term: true
  }
  param {
    lr_mult: 0.0
    decay_mult: 0.0
  }
  param {
    lr_mult: 0.0
    decay_mult: 0.0
  }
}
layer {
  name: "inception_b3_1x7_relu"
  type: "ReLU"
  bottom: "inception_b3_1x7"
  top: "inception_b3_1x7"
}
layer {
  name: "inception_b3_7x1"
  type: "Convolution"
  bottom: "inception_b3_1x7"
  top: "inception_b3_7x1"
  param {
    lr_mult: 1
    decay_mult: 1
  }
  convolution_param {
    bias_term: false
    num_output: 256
    stride: 1
    pad_h: 3
    pad_w: 0
    kernel_h: 7
    kernel_w: 1
  }
}
layer {
  name: "inception_b3_7x1_scale"
  type: "Scale"
  bottom: "inception_b3_7x1"
  top: "inception_b3_7x1"
  scale_param {
    bias_term: true
  }
  param {
    lr_mult: 0.0
    decay_mult: 0.0
  }
  param {
    lr_mult: 0.0
    decay_mult: 0.0
  }
}
layer {
  name: "inception_b3_7x1_relu"
  type: "ReLU"
  bottom: "inception_b3_7x1"
  top: "inception_b3_7x1"
}
layer {
  name: "inception_b3_7x1_2_reduce"
  type: "Convolution"
  bottom: "inception_b2_concat"
  top: "inception_b3_7x1_2_reduce"
  param {
    lr_mult: 1
    decay_mult: 1
  }
  convolution_param {
    bias_term: false
    num_output: 192
    pad: 0
    kernel_size: 1
    stride: 1
  }
}
layer {
  name: "inception_b3_7x1_2_reduce_scale"
  type: "Scale"
  bottom: "inception_b3_7x1_2_reduce"
  top: "inception_b3_7x1_2_reduce"
  scale_param {
    bias_term: true
  }
  param {
    lr_mult: 0.0
    decay_mult: 0.0
  }
  param {
    lr_mult: 0.0
    decay_mult: 0.0
  }
}
layer {
  name: "inception_b3_7x1_2_reduce_relu"
  type: "ReLU"
  bottom: "inception_b3_7x1_2_reduce"
  top: "inception_b3_7x1_2_reduce"
}
layer {
  name: "inception_b3_7x1_2"
  type: "Convolution"
  bottom: "inception_b3_7x1_2_reduce"
  top: "inception_b3_7x1_2"
  param {
    lr_mult: 1
    decay_mult: 1
  }
  convolution_param {
    bias_term: false
    num_output: 192
    stride: 1
    pad_h: 3
    pad_w: 0
    kernel_h: 7
    kernel_w: 1
  }
}
layer {
  name: "inception_b3_7x1_2_scale"
  type: "Scale"
  bottom: "inception_b3_7x1_2"
  top: "inception_b3_7x1_2"
  scale_param {
    bias_term: true
  }
  param {
    lr_mult: 0.0
    decay_mult: 0.0
  }
  param {
    lr_mult: 0.0
    decay_mult: 0.0
  }
}
layer {
  name: "inception_b3_7x1_2_relu"
  type: "ReLU"
  bottom: "inception_b3_7x1_2"
  top: "inception_b3_7x1_2"
}
layer {
  name: "inception_b3_1x7_2"
  type: "Convolution"
  bottom: "inception_b3_7x1_2"
  top: "inception_b3_1x7_2"
  param {
    lr_mult: 1
    decay_mult: 1
  }
  convolution_param {
    bias_term: false
    num_output: 224
    stride: 1
    pad_h: 0
    pad_w: 3
    kernel_h: 1
    kernel_w: 7
  }
}
layer {
  name: "inception_b3_1x7_2_scale"
  type: "Scale"
  bottom: "inception_b3_1x7_2"
  top: "inception_b3_1x7_2"
  scale_param {
    bias_term: true
  }
  param {
    lr_mult: 0.0
    decay_mult: 0.0
  }
  param {
    lr_mult: 0.0
    decay_mult: 0.0
  }
}
layer {
  name: "inception_b3_1x7_2_relu"
  type: "ReLU"
  bottom: "inception_b3_1x7_2"
  top: "inception_b3_1x7_2"
}
layer {
  name: "inception_b3_7x1_3"
  type: "Convolution"
  bottom: "inception_b3_1x7_2"
  top: "inception_b3_7x1_3"
  param {
    lr_mult: 1
    decay_mult: 1
  }
  convolution_param {
    bias_term: false
    num_output: 224
    stride: 1
    pad_h: 3
    pad_w: 0
    kernel_h: 7
    kernel_w: 1
  }
}
layer {
  name: "inception_b3_7x1_3_scale"
  type: "Scale"
  bottom: "inception_b3_7x1_3"
  top: "inception_b3_7x1_3"
  scale_param {
    bias_term: true
  }
  param {
    lr_mult: 0.0
    decay_mult: 0.0
  }
  param {
    lr_mult: 0.0
    decay_mult: 0.0
  }
}
layer {
  name: "inception_b3_7x1_3_relu"
  type: "ReLU"
  bottom: "inception_b3_7x1_3"
  top: "inception_b3_7x1_3"
}
layer {
  name: "inception_b3_1x7_3"
  type: "Convolution"
  bottom: "inception_b3_7x1_3"
  top: "inception_b3_1x7_3"
  param {
    lr_mult: 1
    decay_mult: 1
  }
  convolution_param {
    bias_term: false
    num_output: 256
    stride: 1
    pad_h: 0
    pad_w: 3
    kernel_h: 1
    kernel_w: 7
  }
}
layer {
  name: "inception_b3_1x7_3_scale"
  type: "Scale"
  bottom: "inception_b3_1x7_3"
  top: "inception_b3_1x7_3"
  scale_param {
    bias_term: true
  }
  param {
    lr_mult: 0.0
    decay_mult: 0.0
  }
  param {
    lr_mult: 0.0
    decay_mult: 0.0
  }
}
layer {
  name: "inception_b3_1x7_3_relu"
  type: "ReLU"
  bottom: "inception_b3_1x7_3"
  top: "inception_b3_1x7_3"
}
layer {
  name: "inception_b3_pool_ave"
  type: "Pooling"
  bottom: "inception_b2_concat"
  top: "inception_b3_pool_ave"
  pooling_param {
    pool: AVE
    kernel_size: 3
    stride: 1
    pad: 1
  }
}
layer {
  name: "inception_b3_1x1"
  type: "Convolution"
  bottom: "inception_b3_pool_ave"
  top: "inception_b3_1x1"
  param {
    lr_mult: 1
    decay_mult: 1
  }
  convolution_param {
    bias_term: false
    num_output: 128
    pad: 0
    kernel_size: 1
    stride: 1
  }
}
layer {
  name: "inception_b3_1x1_scale"
  type: "Scale"
  bottom: "inception_b3_1x1"
  top: "inception_b3_1x1"
  scale_param {
    bias_term: true
  }
  param {
    lr_mult: 0.0
    decay_mult: 0.0
  }
  param {
    lr_mult: 0.0
    decay_mult: 0.0
  }
}
layer {
  name: "inception_b3_1x1_relu"
  type: "ReLU"
  bottom: "inception_b3_1x1"
  top: "inception_b3_1x1"
}
layer {
  name: "inception_b3_concat"
  type: "Concat"
  bottom: "inception_b3_1x1_2"
  bottom: "inception_b3_7x1"
  bottom: "inception_b3_1x7_3"
  bottom: "inception_b3_1x1"
  top: "inception_b3_concat"
}
layer {
  name: "inception_b4_1x1_2"
  type: "Convolution"
  bottom: "inception_b3_concat"
  top: "inception_b4_1x1_2"
  param {
    lr_mult: 1
    decay_mult: 1
  }
  convolution_param {
    bias_term: false
    num_output: 384
    pad: 0
    kernel_size: 1
    stride: 1
  }
}
layer {
  name: "inception_b4_1x1_2_scale"
  type: "Scale"
  bottom: "inception_b4_1x1_2"
  top: "inception_b4_1x1_2"
  scale_param {
    bias_term: true
  }
  param {
    lr_mult: 0.0
    decay_mult: 0.0
  }
  param {
    lr_mult: 0.0
    decay_mult: 0.0
  }
}
layer {
  name: "inception_b4_1x1_2_relu"
  type: "ReLU"
  bottom: "inception_b4_1x1_2"
  top: "inception_b4_1x1_2"
}
layer {
  name: "inception_b4_1x7_reduce"
  type: "Convolution"
  bottom: "inception_b3_concat"
  top: "inception_b4_1x7_reduce"
  param {
    lr_mult: 1
    decay_mult: 1
  }
  convolution_param {
    bias_term: false
    num_output: 192
    pad: 0
    kernel_size: 1
    stride: 1
  }
}
layer {
  name: "inception_b4_1x7_reduce_scale"
  type: "Scale"
  bottom: "inception_b4_1x7_reduce"
  top: "inception_b4_1x7_reduce"
  scale_param {
    bias_term: true
  }
  param {
    lr_mult: 0.0
    decay_mult: 0.0
  }
  param {
    lr_mult: 0.0
    decay_mult: 0.0
  }
}
layer {
  name: "inception_b4_1x7_reduce_relu"
  type: "ReLU"
  bottom: "inception_b4_1x7_reduce"
  top: "inception_b4_1x7_reduce"
}
layer {
  name: "inception_b4_1x7"
  type: "Convolution"
  bottom: "inception_b4_1x7_reduce"
  top: "inception_b4_1x7"
  param {
    lr_mult: 1
    decay_mult: 1
  }
  convolution_param {
    bias_term: false
    num_output: 224
    stride: 1
    pad_h: 0
    pad_w: 3
    kernel_h: 1
    kernel_w: 7
  }
}
layer {
  name: "inception_b4_1x7_scale"
  type: "Scale"
  bottom: "inception_b4_1x7"
  top: "inception_b4_1x7"
  scale_param {
    bias_term: true
  }
  param {
    lr_mult: 0.0
    decay_mult: 0.0
  }
  param {
    lr_mult: 0.0
    decay_mult: 0.0
  }
}
layer {
  name: "inception_b4_1x7_relu"
  type: "ReLU"
  bottom: "inception_b4_1x7"
  top: "inception_b4_1x7"
}
layer {
  name: "inception_b4_7x1"
  type: "Convolution"
  bottom: "inception_b4_1x7"
  top: "inception_b4_7x1"
  param {
    lr_mult: 1
    decay_mult: 1
  }
  convolution_param {
    bias_term: false
    num_output: 256
    stride: 1
    pad_h: 3
    pad_w: 0
    kernel_h: 7
    kernel_w: 1
  }
}
layer {
  name: "inception_b4_7x1_scale"
  type: "Scale"
  bottom: "inception_b4_7x1"
  top: "inception_b4_7x1"
  scale_param {
    bias_term: true
  }
  param {
    lr_mult: 0.0
    decay_mult: 0.0
  }
  param {
    lr_mult: 0.0
    decay_mult: 0.0
  }
}
layer {
  name: "inception_b4_7x1_relu"
  type: "ReLU"
  bottom: "inception_b4_7x1"
  top: "inception_b4_7x1"
}
layer {
  name: "inception_b4_7x1_2_reduce"
  type: "Convolution"
  bottom: "inception_b3_concat"
  top: "inception_b4_7x1_2_reduce"
  param {
    lr_mult: 1
    decay_mult: 1
  }
  convolution_param {
    bias_term: false
    num_output: 192
    pad: 0
    kernel_size: 1
    stride: 1
  }
}
layer {
  name: "inception_b4_7x1_2_reduce_scale"
  type: "Scale"
  bottom: "inception_b4_7x1_2_reduce"
  top: "inception_b4_7x1_2_reduce"
  scale_param {
    bias_term: true
  }
  param {
    lr_mult: 0.0
    decay_mult: 0.0
  }
  param {
    lr_mult: 0.0
    decay_mult: 0.0
  }
}
layer {
  name: "inception_b4_7x1_2_reduce_relu"
  type: "ReLU"
  bottom: "inception_b4_7x1_2_reduce"
  top: "inception_b4_7x1_2_reduce"
}
layer {
  name: "inception_b4_7x1_2"
  type: "Convolution"
  bottom: "inception_b4_7x1_2_reduce"
  top: "inception_b4_7x1_2"
  param {
    lr_mult: 1
    decay_mult: 1
  }
  convolution_param {
    bias_term: false
    num_output: 192
    stride: 1
    pad_h: 3
    pad_w: 0
    kernel_h: 7
    kernel_w: 1
  }
}
layer {
  name: "inception_b4_7x1_2_scale"
  type: "Scale"
  bottom: "inception_b4_7x1_2"
  top: "inception_b4_7x1_2"
  scale_param {
    bias_term: true
  }
  param {
    lr_mult: 0.0
    decay_mult: 0.0
  }
  param {
    lr_mult: 0.0
    decay_mult: 0.0
  }
}
layer {
  name: "inception_b4_7x1_2_relu"
  type: "ReLU"
  bottom: "inception_b4_7x1_2"
  top: "inception_b4_7x1_2"
}
layer {
  name: "inception_b4_1x7_2"
  type: "Convolution"
  bottom: "inception_b4_7x1_2"
  top: "inception_b4_1x7_2"
  param {
    lr_mult: 1
    decay_mult: 1
  }
  convolution_param {
    bias_term: false
    num_output: 224
    stride: 1
    pad_h: 0
    pad_w: 3
    kernel_h: 1
    kernel_w: 7
  }
}
layer {
  name: "inception_b4_1x7_2_scale"
  type: "Scale"
  bottom: "inception_b4_1x7_2"
  top: "inception_b4_1x7_2"
  scale_param {
    bias_term: true
  }
  param {
    lr_mult: 0.0
    decay_mult: 0.0
  }
  param {
    lr_mult: 0.0
    decay_mult: 0.0
  }
}
layer {
  name: "inception_b4_1x7_2_relu"
  type: "ReLU"
  bottom: "inception_b4_1x7_2"
  top: "inception_b4_1x7_2"
}
layer {
  name: "inception_b4_7x1_3"
  type: "Convolution"
  bottom: "inception_b4_1x7_2"
  top: "inception_b4_7x1_3"
  param {
    lr_mult: 1
    decay_mult: 1
  }
  convolution_param {
    bias_term: false
    num_output: 224
    stride: 1
    pad_h: 3
    pad_w: 0
    kernel_h: 7
    kernel_w: 1
  }
}
layer {
  name: "inception_b4_7x1_3_scale"
  type: "Scale"
  bottom: "inception_b4_7x1_3"
  top: "inception_b4_7x1_3"
  scale_param {
    bias_term: true
  }
  param {
    lr_mult: 0.0
    decay_mult: 0.0
  }
  param {
    lr_mult: 0.0
    decay_mult: 0.0
  }
}
layer {
  name: "inception_b4_7x1_3_relu"
  type: "ReLU"
  bottom: "inception_b4_7x1_3"
  top: "inception_b4_7x1_3"
}
layer {
  name: "inception_b4_1x7_3"
  type: "Convolution"
  bottom: "inception_b4_7x1_3"
  top: "inception_b4_1x7_3"
  param {
    lr_mult: 1
    decay_mult: 1
  }
  convolution_param {
    bias_term: false
    num_output: 256
    stride: 1
    pad_h: 0
    pad_w: 3
    kernel_h: 1
    kernel_w: 7
  }
}
layer {
  name: "inception_b4_1x7_3_scale"
  type: "Scale"
  bottom: "inception_b4_1x7_3"
  top: "inception_b4_1x7_3"
  scale_param {
    bias_term: true
  }
  param {
    lr_mult: 0.0
    decay_mult: 0.0
  }
  param {
    lr_mult: 0.0
    decay_mult: 0.0
  }
}
layer {
  name: "inception_b4_1x7_3_relu"
  type: "ReLU"
  bottom: "inception_b4_1x7_3"
  top: "inception_b4_1x7_3"
}
layer {
  name: "inception_b4_pool_ave"
  type: "Pooling"
  bottom: "inception_b3_concat"
  top: "inception_b4_pool_ave"
  pooling_param {
    pool: AVE
    kernel_size: 3
    stride: 1
    pad: 1
  }
}
layer {
  name: "inception_b4_1x1"
  type: "Convolution"
  bottom: "inception_b4_pool_ave"
  top: "inception_b4_1x1"
  param {
    lr_mult: 1
    decay_mult: 1
  }
  convolution_param {
    bias_term: false
    num_output: 128
    pad: 0
    kernel_size: 1
    stride: 1
  }
}
layer {
  name: "inception_b4_1x1_scale"
  type: "Scale"
  bottom: "inception_b4_1x1"
  top: "inception_b4_1x1"
  scale_param {
    bias_term: true
  }
  param {
    lr_mult: 0.0
    decay_mult: 0.0
  }
  param {
    lr_mult: 0.0
    decay_mult: 0.0
  }
}
layer {
  name: "inception_b4_1x1_relu"
  type: "ReLU"
  bottom: "inception_b4_1x1"
  top: "inception_b4_1x1"
}
layer {
  name: "inception_b4_concat"
  type: "Concat"
  bottom: "inception_b4_1x1_2"
  bottom: "inception_b4_7x1"
  bottom: "inception_b4_1x7_3"
  bottom: "inception_b4_1x1"
  top: "inception_b4_concat"
}
layer {
  name: "inception_b5_1x1_2"
  type: "Convolution"
  bottom: "inception_b4_concat"
  top: "inception_b5_1x1_2"
  param {
    lr_mult: 1
    decay_mult: 1
  }
  convolution_param {
    bias_term: false
    num_output: 384
    pad: 0
    kernel_size: 1
    stride: 1
  }
}
layer {
  name: "inception_b5_1x1_2_scale"
  type: "Scale"
  bottom: "inception_b5_1x1_2"
  top: "inception_b5_1x1_2"
  scale_param {
    bias_term: true
  }
  param {
    lr_mult: 0.0
    decay_mult: 0.0
  }
  param {
    lr_mult: 0.0
    decay_mult: 0.0
  }
}
layer {
  name: "inception_b5_1x1_2_relu"
  type: "ReLU"
  bottom: "inception_b5_1x1_2"
  top: "inception_b5_1x1_2"
}
layer {
  name: "inception_b5_1x7_reduce"
  type: "Convolution"
  bottom: "inception_b4_concat"
  top: "inception_b5_1x7_reduce"
  param {
    lr_mult: 1
    decay_mult: 1
  }
  convolution_param {
    bias_term: false
    num_output: 192
    pad: 0
    kernel_size: 1
    stride: 1
  }
}
layer {
  name: "inception_b5_1x7_reduce_scale"
  type: "Scale"
  bottom: "inception_b5_1x7_reduce"
  top: "inception_b5_1x7_reduce"
  scale_param {
    bias_term: true
  }
  param {
    lr_mult: 0.0
    decay_mult: 0.0
  }
  param {
    lr_mult: 0.0
    decay_mult: 0.0
  }
}
layer {
  name: "inception_b5_1x7_reduce_relu"
  type: "ReLU"
  bottom: "inception_b5_1x7_reduce"
  top: "inception_b5_1x7_reduce"
}
layer {
  name: "inception_b5_1x7"
  type: "Convolution"
  bottom: "inception_b5_1x7_reduce"
  top: "inception_b5_1x7"
  param {
    lr_mult: 1
    decay_mult: 1
  }
  convolution_param {
    bias_term: false
    num_output: 224
    stride: 1
    pad_h: 0
    pad_w: 3
    kernel_h: 1
    kernel_w: 7
  }
}
layer {
  name: "inception_b5_1x7_scale"
  type: "Scale"
  bottom: "inception_b5_1x7"
  top: "inception_b5_1x7"
  scale_param {
    bias_term: true
  }
  param {
    lr_mult: 0.0
    decay_mult: 0.0
  }
  param {
    lr_mult: 0.0
    decay_mult: 0.0
  }
}
layer {
  name: "inception_b5_1x7_relu"
  type: "ReLU"
  bottom: "inception_b5_1x7"
  top: "inception_b5_1x7"
}
layer {
  name: "inception_b5_7x1"
  type: "Convolution"
  bottom: "inception_b5_1x7"
  top: "inception_b5_7x1"
  param {
    lr_mult: 1
    decay_mult: 1
  }
  convolution_param {
    bias_term: false
    num_output: 256
    stride: 1
    pad_h: 3
    pad_w: 0
    kernel_h: 7
    kernel_w: 1
  }
}
layer {
  name: "inception_b5_7x1_scale"
  type: "Scale"
  bottom: "inception_b5_7x1"
  top: "inception_b5_7x1"
  scale_param {
    bias_term: true
  }
  param {
    lr_mult: 0.0
    decay_mult: 0.0
  }
  param {
    lr_mult: 0.0
    decay_mult: 0.0
  }
}
layer {
  name: "inception_b5_7x1_relu"
  type: "ReLU"
  bottom: "inception_b5_7x1"
  top: "inception_b5_7x1"
}
layer {
  name: "inception_b5_7x1_2_reduce"
  type: "Convolution"
  bottom: "inception_b4_concat"
  top: "inception_b5_7x1_2_reduce"
  param {
    lr_mult: 1
    decay_mult: 1
  }
  convolution_param {
    bias_term: false
    num_output: 192
    pad: 0
    kernel_size: 1
    stride: 1
  }
}
layer {
  name: "inception_b5_7x1_2_reduce_scale"
  type: "Scale"
  bottom: "inception_b5_7x1_2_reduce"
  top: "inception_b5_7x1_2_reduce"
  scale_param {
    bias_term: true
  }
  param {
    lr_mult: 0.0
    decay_mult: 0.0
  }
  param {
    lr_mult: 0.0
    decay_mult: 0.0
  }
}
layer {
  name: "inception_b5_7x1_2_reduce_relu"
  type: "ReLU"
  bottom: "inception_b5_7x1_2_reduce"
  top: "inception_b5_7x1_2_reduce"
}
layer {
  name: "inception_b5_7x1_2"
  type: "Convolution"
  bottom: "inception_b5_7x1_2_reduce"
  top: "inception_b5_7x1_2"
  param {
    lr_mult: 1
    decay_mult: 1
  }
  convolution_param {
    bias_term: false
    num_output: 192
    stride: 1
    pad_h: 3
    pad_w: 0
    kernel_h: 7
    kernel_w: 1
  }
}
layer {
  name: "inception_b5_7x1_2_scale"
  type: "Scale"
  bottom: "inception_b5_7x1_2"
  top: "inception_b5_7x1_2"
  scale_param {
    bias_term: true
  }
  param {
    lr_mult: 0.0
    decay_mult: 0.0
  }
  param {
    lr_mult: 0.0
    decay_mult: 0.0
  }
}
layer {
  name: "inception_b5_7x1_2_relu"
  type: "ReLU"
  bottom: "inception_b5_7x1_2"
  top: "inception_b5_7x1_2"
}
layer {
  name: "inception_b5_1x7_2"
  type: "Convolution"
  bottom: "inception_b5_7x1_2"
  top: "inception_b5_1x7_2"
  param {
    lr_mult: 1
    decay_mult: 1
  }
  convolution_param {
    bias_term: false
    num_output: 224
    stride: 1
    pad_h: 0
    pad_w: 3
    kernel_h: 1
    kernel_w: 7
  }
}
layer {
  name: "inception_b5_1x7_2_scale"
  type: "Scale"
  bottom: "inception_b5_1x7_2"
  top: "inception_b5_1x7_2"
  scale_param {
    bias_term: true
  }
  param {
    lr_mult: 0.0
    decay_mult: 0.0
  }
  param {
    lr_mult: 0.0
    decay_mult: 0.0
  }
}
layer {
  name: "inception_b5_1x7_2_relu"
  type: "ReLU"
  bottom: "inception_b5_1x7_2"
  top: "inception_b5_1x7_2"
}
layer {
  name: "inception_b5_7x1_3"
  type: "Convolution"
  bottom: "inception_b5_1x7_2"
  top: "inception_b5_7x1_3"
  param {
    lr_mult: 1
    decay_mult: 1
  }
  convolution_param {
    bias_term: false
    num_output: 224
    stride: 1
    pad_h: 3
    pad_w: 0
    kernel_h: 7
    kernel_w: 1
  }
}
layer {
  name: "inception_b5_7x1_3_scale"
  type: "Scale"
  bottom: "inception_b5_7x1_3"
  top: "inception_b5_7x1_3"
  scale_param {
    bias_term: true
  }
  param {
    lr_mult: 0.0
    decay_mult: 0.0
  }
  param {
    lr_mult: 0.0
    decay_mult: 0.0
  }
}
layer {
  name: "inception_b5_7x1_3_relu"
  type: "ReLU"
  bottom: "inception_b5_7x1_3"
  top: "inception_b5_7x1_3"
}
layer {
  name: "inception_b5_1x7_3"
  type: "Convolution"
  bottom: "inception_b5_7x1_3"
  top: "inception_b5_1x7_3"
  param {
    lr_mult: 1
    decay_mult: 1
  }
  convolution_param {
    bias_term: false
    num_output: 256
    stride: 1
    pad_h: 0
    pad_w: 3
    kernel_h: 1
    kernel_w: 7
  }
}
layer {
  name: "inception_b5_1x7_3_scale"
  type: "Scale"
  bottom: "inception_b5_1x7_3"
  top: "inception_b5_1x7_3"
  scale_param {
    bias_term: true
  }
  param {
    lr_mult: 0.0
    decay_mult: 0.0
  }
  param {
    lr_mult: 0.0
    decay_mult: 0.0
  }
}
layer {
  name: "inception_b5_1x7_3_relu"
  type: "ReLU"
  bottom: "inception_b5_1x7_3"
  top: "inception_b5_1x7_3"
}
layer {
  name: "inception_b5_pool_ave"
  type: "Pooling"
  bottom: "inception_b4_concat"
  top: "inception_b5_pool_ave"
  pooling_param {
    pool: AVE
    kernel_size: 3
    stride: 1
    pad: 1
  }
}
layer {
  name: "inception_b5_1x1"
  type: "Convolution"
  bottom: "inception_b5_pool_ave"
  top: "inception_b5_1x1"
  param {
    lr_mult: 1
    decay_mult: 1
  }
  convolution_param {
    bias_term: false
    num_output: 128
    pad: 0
    kernel_size: 1
    stride: 1
  }
}
layer {
  name: "inception_b5_1x1_scale"
  type: "Scale"
  bottom: "inception_b5_1x1"
  top: "inception_b5_1x1"
  scale_param {
    bias_term: true
  }
  param {
    lr_mult: 0.0
    decay_mult: 0.0
  }
  param {
    lr_mult: 0.0
    decay_mult: 0.0
  }
}
layer {
  name: "inception_b5_1x1_relu"
  type: "ReLU"
  bottom: "inception_b5_1x1"
  top: "inception_b5_1x1"
}
layer {
  name: "inception_b5_concat"
  type: "Concat"
  bottom: "inception_b5_1x1_2"
  bottom: "inception_b5_7x1"
  bottom: "inception_b5_1x7_3"
  bottom: "inception_b5_1x1"
  top: "inception_b5_concat"
}
layer {
  name: "inception_b6_1x1_2"
  type: "Convolution"
  bottom: "inception_b5_concat"
  top: "inception_b6_1x1_2"
  param {
    lr_mult: 1
    decay_mult: 1
  }
  convolution_param {
    bias_term: false
    num_output: 384
    pad: 0
    kernel_size: 1
    stride: 1
  }
}
layer {
  name: "inception_b6_1x1_2_scale"
  type: "Scale"
  bottom: "inception_b6_1x1_2"
  top: "inception_b6_1x1_2"
  scale_param {
    bias_term: true
  }
  param {
    lr_mult: 0.0
    decay_mult: 0.0
  }
  param {
    lr_mult: 0.0
    decay_mult: 0.0
  }
}
layer {
  name: "inception_b6_1x1_2_relu"
  type: "ReLU"
  bottom: "inception_b6_1x1_2"
  top: "inception_b6_1x1_2"
}
layer {
  name: "inception_b6_1x7_reduce"
  type: "Convolution"
  bottom: "inception_b5_concat"
  top: "inception_b6_1x7_reduce"
  param {
    lr_mult: 1
    decay_mult: 1
  }
  convolution_param {
    bias_term: false
    num_output: 192
    pad: 0
    kernel_size: 1
    stride: 1
  }
}
layer {
  name: "inception_b6_1x7_reduce_scale"
  type: "Scale"
  bottom: "inception_b6_1x7_reduce"
  top: "inception_b6_1x7_reduce"
  scale_param {
    bias_term: true
  }
  param {
    lr_mult: 0.0
    decay_mult: 0.0
  }
  param {
    lr_mult: 0.0
    decay_mult: 0.0
  }
}
layer {
  name: "inception_b6_1x7_reduce_relu"
  type: "ReLU"
  bottom: "inception_b6_1x7_reduce"
  top: "inception_b6_1x7_reduce"
}
layer {
  name: "inception_b6_1x7"
  type: "Convolution"
  bottom: "inception_b6_1x7_reduce"
  top: "inception_b6_1x7"
  param {
    lr_mult: 1
    decay_mult: 1
  }
  convolution_param {
    bias_term: false
    num_output: 224
    stride: 1
    pad_h: 0
    pad_w: 3
    kernel_h: 1
    kernel_w: 7
  }
}
layer {
  name: "inception_b6_1x7_scale"
  type: "Scale"
  bottom: "inception_b6_1x7"
  top: "inception_b6_1x7"
  scale_param {
    bias_term: true
  }
  param {
    lr_mult: 0.0
    decay_mult: 0.0
  }
  param {
    lr_mult: 0.0
    decay_mult: 0.0
  }
}
layer {
  name: "inception_b6_1x7_relu"
  type: "ReLU"
  bottom: "inception_b6_1x7"
  top: "inception_b6_1x7"
}
layer {
  name: "inception_b6_7x1"
  type: "Convolution"
  bottom: "inception_b6_1x7"
  top: "inception_b6_7x1"
  param {
    lr_mult: 1
    decay_mult: 1
  }
  convolution_param {
    bias_term: false
    num_output: 256
    stride: 1
    pad_h: 3
    pad_w: 0
    kernel_h: 7
    kernel_w: 1
  }
}
layer {
  name: "inception_b6_7x1_scale"
  type: "Scale"
  bottom: "inception_b6_7x1"
  top: "inception_b6_7x1"
  scale_param {
    bias_term: true
  }
  param {
    lr_mult: 0.0
    decay_mult: 0.0
  }
  param {
    lr_mult: 0.0
    decay_mult: 0.0
  }
}
layer {
  name: "inception_b6_7x1_relu"
  type: "ReLU"
  bottom: "inception_b6_7x1"
  top: "inception_b6_7x1"
}
layer {
  name: "inception_b6_7x1_2_reduce"
  type: "Convolution"
  bottom: "inception_b5_concat"
  top: "inception_b6_7x1_2_reduce"
  param {
    lr_mult: 1
    decay_mult: 1
  }
  convolution_param {
    bias_term: false
    num_output: 192
    pad: 0
    kernel_size: 1
    stride: 1
  }
}
layer {
  name: "inception_b6_7x1_2_reduce_scale"
  type: "Scale"
  bottom: "inception_b6_7x1_2_reduce"
  top: "inception_b6_7x1_2_reduce"
  scale_param {
    bias_term: true
  }
  param {
    lr_mult: 0.0
    decay_mult: 0.0
  }
  param {
    lr_mult: 0.0
    decay_mult: 0.0
  }
}
layer {
  name: "inception_b6_7x1_2_reduce_relu"
  type: "ReLU"
  bottom: "inception_b6_7x1_2_reduce"
  top: "inception_b6_7x1_2_reduce"
}
layer {
  name: "inception_b6_7x1_2"
  type: "Convolution"
  bottom: "inception_b6_7x1_2_reduce"
  top: "inception_b6_7x1_2"
  param {
    lr_mult: 1
    decay_mult: 1
  }
  convolution_param {
    bias_term: false
    num_output: 192
    stride: 1
    pad_h: 3
    pad_w: 0
    kernel_h: 7
    kernel_w: 1
  }
}
layer {
  name: "inception_b6_7x1_2_scale"
  type: "Scale"
  bottom: "inception_b6_7x1_2"
  top: "inception_b6_7x1_2"
  scale_param {
    bias_term: true
  }
  param {
    lr_mult: 0.0
    decay_mult: 0.0
  }
  param {
    lr_mult: 0.0
    decay_mult: 0.0
  }
}
layer {
  name: "inception_b6_7x1_2_relu"
  type: "ReLU"
  bottom: "inception_b6_7x1_2"
  top: "inception_b6_7x1_2"
}
layer {
  name: "inception_b6_1x7_2"
  type: "Convolution"
  bottom: "inception_b6_7x1_2"
  top: "inception_b6_1x7_2"
  param {
    lr_mult: 1
    decay_mult: 1
  }
  convolution_param {
    bias_term: false
    num_output: 224
    stride: 1
    pad_h: 0
    pad_w: 3
    kernel_h: 1
    kernel_w: 7
  }
}
layer {
  name: "inception_b6_1x7_2_scale"
  type: "Scale"
  bottom: "inception_b6_1x7_2"
  top: "inception_b6_1x7_2"
  scale_param {
    bias_term: true
  }
  param {
    lr_mult: 0.0
    decay_mult: 0.0
  }
  param {
    lr_mult: 0.0
    decay_mult: 0.0
  }
}
layer {
  name: "inception_b6_1x7_2_relu"
  type: "ReLU"
  bottom: "inception_b6_1x7_2"
  top: "inception_b6_1x7_2"
}
layer {
  name: "inception_b6_7x1_3"
  type: "Convolution"
  bottom: "inception_b6_1x7_2"
  top: "inception_b6_7x1_3"
  param {
    lr_mult: 1
    decay_mult: 1
  }
  convolution_param {
    bias_term: false
    num_output: 224
    stride: 1
    pad_h: 3
    pad_w: 0
    kernel_h: 7
    kernel_w: 1
  }
}
layer {
  name: "inception_b6_7x1_3_scale"
  type: "Scale"
  bottom: "inception_b6_7x1_3"
  top: "inception_b6_7x1_3"
  scale_param {
    bias_term: true
  }
  param {
    lr_mult: 0.0
    decay_mult: 0.0
  }
  param {
    lr_mult: 0.0
    decay_mult: 0.0
  }
}
layer {
  name: "inception_b6_7x1_3_relu"
  type: "ReLU"
  bottom: "inception_b6_7x1_3"
  top: "inception_b6_7x1_3"
}
layer {
  name: "inception_b6_1x7_3"
  type: "Convolution"
  bottom: "inception_b6_7x1_3"
  top: "inception_b6_1x7_3"
  param {
    lr_mult: 1
    decay_mult: 1
  }
  convolution_param {
    bias_term: false
    num_output: 256
    stride: 1
    pad_h: 0
    pad_w: 3
    kernel_h: 1
    kernel_w: 7
  }
}
layer {
  name: "inception_b6_1x7_3_scale"
  type: "Scale"
  bottom: "inception_b6_1x7_3"
  top: "inception_b6_1x7_3"
  scale_param {
    bias_term: true
  }
  param {
    lr_mult: 0.0
    decay_mult: 0.0
  }
  param {
    lr_mult: 0.0
    decay_mult: 0.0
  }
}
layer {
  name: "inception_b6_1x7_3_relu"
  type: "ReLU"
  bottom: "inception_b6_1x7_3"
  top: "inception_b6_1x7_3"
}
layer {
  name: "inception_b6_pool_ave"
  type: "Pooling"
  bottom: "inception_b5_concat"
  top: "inception_b6_pool_ave"
  pooling_param {
    pool: AVE
    kernel_size: 3
    stride: 1
    pad: 1
  }
}
layer {
  name: "inception_b6_1x1"
  type: "Convolution"
  bottom: "inception_b6_pool_ave"
  top: "inception_b6_1x1"
  param {
    lr_mult: 1
    decay_mult: 1
  }
  convolution_param {
    bias_term: false
    num_output: 128
    pad: 0
    kernel_size: 1
    stride: 1
  }
}
layer {
  name: "inception_b6_1x1_scale"
  type: "Scale"
  bottom: "inception_b6_1x1"
  top: "inception_b6_1x1"
  scale_param {
    bias_term: true
  }
  param {
    lr_mult: 0.0
    decay_mult: 0.0
  }
  param {
    lr_mult: 0.0
    decay_mult: 0.0
  }
}
layer {
  name: "inception_b6_1x1_relu"
  type: "ReLU"
  bottom: "inception_b6_1x1"
  top: "inception_b6_1x1"
}
layer {
  name: "inception_b6_concat"
  type: "Concat"
  bottom: "inception_b6_1x1_2"
  bottom: "inception_b6_7x1"
  bottom: "inception_b6_1x7_3"
  bottom: "inception_b6_1x1"
  top: "inception_b6_concat"
}
layer {
  name: "inception_b7_1x1_2"
  type: "Convolution"
  bottom: "inception_b6_concat"
  top: "inception_b7_1x1_2"
  param {
    lr_mult: 1
    decay_mult: 1
  }
  convolution_param {
    bias_term: false
    num_output: 384
    pad: 0
    kernel_size: 1
    stride: 1
  }
}
layer {
  name: "inception_b7_1x1_2_scale"
  type: "Scale"
  bottom: "inception_b7_1x1_2"
  top: "inception_b7_1x1_2"
  scale_param {
    bias_term: true
  }
  param {
    lr_mult: 0.0
    decay_mult: 0.0
  }
  param {
    lr_mult: 0.0
    decay_mult: 0.0
  }
}
layer {
  name: "inception_b7_1x1_2_relu"
  type: "ReLU"
  bottom: "inception_b7_1x1_2"
  top: "inception_b7_1x1_2"
}
layer {
  name: "inception_b7_1x7_reduce"
  type: "Convolution"
  bottom: "inception_b6_concat"
  top: "inception_b7_1x7_reduce"
  param {
    lr_mult: 1
    decay_mult: 1
  }
  convolution_param {
    bias_term: false
    num_output: 192
    pad: 0
    kernel_size: 1
    stride: 1
  }
}
layer {
  name: "inception_b7_1x7_reduce_scale"
  type: "Scale"
  bottom: "inception_b7_1x7_reduce"
  top: "inception_b7_1x7_reduce"
  scale_param {
    bias_term: true
  }
  param {
    lr_mult: 0.0
    decay_mult: 0.0
  }
  param {
    lr_mult: 0.0
    decay_mult: 0.0
  }
}
layer {
  name: "inception_b7_1x7_reduce_relu"
  type: "ReLU"
  bottom: "inception_b7_1x7_reduce"
  top: "inception_b7_1x7_reduce"
}
layer {
  name: "inception_b7_1x7"
  type: "Convolution"
  bottom: "inception_b7_1x7_reduce"
  top: "inception_b7_1x7"
  param {
    lr_mult: 1
    decay_mult: 1
  }
  convolution_param {
    bias_term: false
    num_output: 224
    stride: 1
    pad_h: 0
    pad_w: 3
    kernel_h: 1
    kernel_w: 7
  }
}
layer {
  name: "inception_b7_1x7_scale"
  type: "Scale"
  bottom: "inception_b7_1x7"
  top: "inception_b7_1x7"
  scale_param {
    bias_term: true
  }
  param {
    lr_mult: 0.0
    decay_mult: 0.0
  }
  param {
    lr_mult: 0.0
    decay_mult: 0.0
  }
}
layer {
  name: "inception_b7_1x7_relu"
  type: "ReLU"
  bottom: "inception_b7_1x7"
  top: "inception_b7_1x7"
}
layer {
  name: "inception_b7_7x1"
  type: "Convolution"
  bottom: "inception_b7_1x7"
  top: "inception_b7_7x1"
  param {
    lr_mult: 1
    decay_mult: 1
  }
  convolution_param {
    bias_term: false
    num_output: 256
    stride: 1
    pad_h: 3
    pad_w: 0
    kernel_h: 7
    kernel_w: 1
  }
}
layer {
  name: "inception_b7_7x1_scale"
  type: "Scale"
  bottom: "inception_b7_7x1"
  top: "inception_b7_7x1"
  scale_param {
    bias_term: true
  }
  param {
    lr_mult: 0.0
    decay_mult: 0.0
  }
  param {
    lr_mult: 0.0
    decay_mult: 0.0
  }
}
layer {
  name: "inception_b7_7x1_relu"
  type: "ReLU"
  bottom: "inception_b7_7x1"
  top: "inception_b7_7x1"
}
layer {
  name: "inception_b7_7x1_2_reduce"
  type: "Convolution"
  bottom: "inception_b6_concat"
  top: "inception_b7_7x1_2_reduce"
  param {
    lr_mult: 1
    decay_mult: 1
  }
  convolution_param {
    bias_term: false
    num_output: 192
    pad: 0
    kernel_size: 1
    stride: 1
  }
}
layer {
  name: "inception_b7_7x1_2_reduce_scale"
  type: "Scale"
  bottom: "inception_b7_7x1_2_reduce"
  top: "inception_b7_7x1_2_reduce"
  scale_param {
    bias_term: true
  }
  param {
    lr_mult: 0.0
    decay_mult: 0.0
  }
  param {
    lr_mult: 0.0
    decay_mult: 0.0
  }
}
layer {
  name: "inception_b7_7x1_2_reduce_relu"
  type: "ReLU"
  bottom: "inception_b7_7x1_2_reduce"
  top: "inception_b7_7x1_2_reduce"
}
layer {
  name: "inception_b7_7x1_2"
  type: "Convolution"
  bottom: "inception_b7_7x1_2_reduce"
  top: "inception_b7_7x1_2"
  param {
    lr_mult: 1
    decay_mult: 1
  }
  convolution_param {
    bias_term: false
    num_output: 192
    stride: 1
    pad_h: 3
    pad_w: 0
    kernel_h: 7
    kernel_w: 1
  }
}
layer {
  name: "inception_b7_7x1_2_scale"
  type: "Scale"
  bottom: "inception_b7_7x1_2"
  top: "inception_b7_7x1_2"
  scale_param {
    bias_term: true
  }
  param {
    lr_mult: 0.0
    decay_mult: 0.0
  }
  param {
    lr_mult: 0.0
    decay_mult: 0.0
  }
}
layer {
  name: "inception_b7_7x1_2_relu"
  type: "ReLU"
  bottom: "inception_b7_7x1_2"
  top: "inception_b7_7x1_2"
}
layer {
  name: "inception_b7_1x7_2"
  type: "Convolution"
  bottom: "inception_b7_7x1_2"
  top: "inception_b7_1x7_2"
  param {
    lr_mult: 1
    decay_mult: 1
  }
  convolution_param {
    bias_term: false
    num_output: 224
    stride: 1
    pad_h: 0
    pad_w: 3
    kernel_h: 1
    kernel_w: 7
  }
}
layer {
  name: "inception_b7_1x7_2_scale"
  type: "Scale"
  bottom: "inception_b7_1x7_2"
  top: "inception_b7_1x7_2"
  scale_param {
    bias_term: true
  }
  param {
    lr_mult: 0.0
    decay_mult: 0.0
  }
  param {
    lr_mult: 0.0
    decay_mult: 0.0
  }
}
layer {
  name: "inception_b7_1x7_2_relu"
  type: "ReLU"
  bottom: "inception_b7_1x7_2"
  top: "inception_b7_1x7_2"
}
layer {
  name: "inception_b7_7x1_3"
  type: "Convolution"
  bottom: "inception_b7_1x7_2"
  top: "inception_b7_7x1_3"
  param {
    lr_mult: 1
    decay_mult: 1
  }
  convolution_param {
    bias_term: false
    num_output: 224
    stride: 1
    pad_h: 3
    pad_w: 0
    kernel_h: 7
    kernel_w: 1
  }
}
layer {
  name: "inception_b7_7x1_3_scale"
  type: "Scale"
  bottom: "inception_b7_7x1_3"
  top: "inception_b7_7x1_3"
  scale_param {
    bias_term: true
  }
  param {
    lr_mult: 0.0
    decay_mult: 0.0
  }
  param {
    lr_mult: 0.0
    decay_mult: 0.0
  }
}
layer {
  name: "inception_b7_7x1_3_relu"
  type: "ReLU"
  bottom: "inception_b7_7x1_3"
  top: "inception_b7_7x1_3"
}
layer {
  name: "inception_b7_1x7_3"
  type: "Convolution"
  bottom: "inception_b7_7x1_3"
  top: "inception_b7_1x7_3"
  param {
    lr_mult: 1
    decay_mult: 1
  }
  convolution_param {
    bias_term: false
    num_output: 256
    stride: 1
    pad_h: 0
    pad_w: 3
    kernel_h: 1
    kernel_w: 7
  }
}
layer {
  name: "inception_b7_1x7_3_scale"
  type: "Scale"
  bottom: "inception_b7_1x7_3"
  top: "inception_b7_1x7_3"
  scale_param {
    bias_term: true
  }
  param {
    lr_mult: 0.0
    decay_mult: 0.0
  }
  param {
    lr_mult: 0.0
    decay_mult: 0.0
  }
}
layer {
  name: "inception_b7_1x7_3_relu"
  type: "ReLU"
  bottom: "inception_b7_1x7_3"
  top: "inception_b7_1x7_3"
}
layer {
  name: "inception_b7_pool_ave"
  type: "Pooling"
  bottom: "inception_b6_concat"
  top: "inception_b7_pool_ave"
  pooling_param {
    pool: AVE
    kernel_size: 3
    stride: 1
    pad: 1
  }
}
layer {
  name: "inception_b7_1x1"
  type: "Convolution"
  bottom: "inception_b7_pool_ave"
  top: "inception_b7_1x1"
  param {
    lr_mult: 1
    decay_mult: 1
  }
  convolution_param {
    bias_term: false
    num_output: 128
    pad: 0
    kernel_size: 1
    stride: 1
  }
}
layer {
  name: "inception_b7_1x1_scale"
  type: "Scale"
  bottom: "inception_b7_1x1"
  top: "inception_b7_1x1"
  scale_param {
    bias_term: true
  }
  param {
    lr_mult: 0.0
    decay_mult: 0.0
  }
  param {
    lr_mult: 0.0
    decay_mult: 0.0
  }
}
layer {
  name: "inception_b7_1x1_relu"
  type: "ReLU"
  bottom: "inception_b7_1x1"
  top: "inception_b7_1x1"
}
layer {
  name: "inception_b7_concat"
  type: "Concat"
  bottom: "inception_b7_1x1_2"
  bottom: "inception_b7_7x1"
  bottom: "inception_b7_1x7_3"
  bottom: "inception_b7_1x1"
  top: "inception_b7_concat"
}
layer {
  name: "reduction_b_3x3_reduce"
  type: "Convolution"
  bottom: "inception_b7_concat"
  top: "reduction_b_3x3_reduce"
  param {
    lr_mult: 1
    decay_mult: 1
  }
  convolution_param {
    bias_term: false
    num_output: 192
    pad: 0
    kernel_size: 1
    stride: 1
  }
}
layer {
  name: "reduction_b_3x3_reduce_scale"
  type: "Scale"
  bottom: "reduction_b_3x3_reduce"
  top: "reduction_b_3x3_reduce"
  scale_param {
    bias_term: true
  }
  param {
    lr_mult: 0.0
    decay_mult: 0.0
  }
  param {
    lr_mult: 0.0
    decay_mult: 0.0
  }
}
layer {
  name: "reduction_b_3x3_reduce_relu"
  type: "ReLU"
  bottom: "reduction_b_3x3_reduce"
  top: "reduction_b_3x3_reduce"
}
layer {
  name: "reduction_b_3x3"
  type: "Convolution"
  bottom: "reduction_b_3x3_reduce"
  top: "reduction_b_3x3"
  param {
    lr_mult: 1
    decay_mult: 1
  }
  convolution_param {
    bias_term: false
    num_output: 192
    pad: 4
    dilation: 4
    kernel_size: 3
    stride: 1
  }
}
layer {
  name: "reduction_b_3x3_scale"
  type: "Scale"
  bottom: "reduction_b_3x3"
  top: "reduction_b_3x3"
  scale_param {
    bias_term: true
  }
  param {
    lr_mult: 0.0
    decay_mult: 0.0
  }
  param {
    lr_mult: 0.0
    decay_mult: 0.0
  }
}
layer {
  name: "reduction_b_3x3_relu"
  type: "ReLU"
  bottom: "reduction_b_3x3"
  top: "reduction_b_3x3"
}
layer {
  name: "reduction_b_1x7_reduce"
  type: "Convolution"
  bottom: "inception_b7_concat"
  top: "reduction_b_1x7_reduce"
  param {
    lr_mult: 1
    decay_mult: 1
  }
  convolution_param {
    bias_term: false
    num_output: 256
    pad: 0
    kernel_size: 1
    stride: 1
  }
}
layer {
  name: "reduction_b_1x7_reduce_scale"
  type: "Scale"
  bottom: "reduction_b_1x7_reduce"
  top: "reduction_b_1x7_reduce"
  scale_param {
    bias_term: true
  }
  param {
    lr_mult: 0.0
    decay_mult: 0.0
  }
  param {
    lr_mult: 0.0
    decay_mult: 0.0
  }
}
layer {
  name: "reduction_b_1x7_reduce_relu"
  type: "ReLU"
  bottom: "reduction_b_1x7_reduce"
  top: "reduction_b_1x7_reduce"
}
layer {
  name: "reduction_b_1x7"
  type: "Convolution"
  bottom: "reduction_b_1x7_reduce"
  top: "reduction_b_1x7"
  param {
    lr_mult: 1
    decay_mult: 1
  }
  convolution_param {
    bias_term: false
    num_output: 256
    stride: 1
    pad_h: 0
    pad_w: 3
    kernel_h: 1
    kernel_w: 7
  }
}
layer {
  name: "reduction_b_1x7_scale"
  type: "Scale"
  bottom: "reduction_b_1x7"
  top: "reduction_b_1x7"
  scale_param {
    bias_term: true
  }
  param {
    lr_mult: 0.0
    decay_mult: 0.0
  }
  param {
    lr_mult: 0.0
    decay_mult: 0.0
  }
}
layer {
  name: "reduction_b_1x7_relu"
  type: "ReLU"
  bottom: "reduction_b_1x7"
  top: "reduction_b_1x7"
}
layer {
  name: "reduction_b_7x1"
  type: "Convolution"
  bottom: "reduction_b_1x7"
  top: "reduction_b_7x1"
  param {
    lr_mult: 1
    decay_mult: 1
  }
  convolution_param {
    bias_term: false
    num_output: 320
    stride: 1
    pad_h: 3
    pad_w: 0
    kernel_h: 7
    kernel_w: 1
  }
}
layer {
  name: "reduction_b_7x1_scale"
  type: "Scale"
  bottom: "reduction_b_7x1"
  top: "reduction_b_7x1"
  scale_param {
    bias_term: true
  }
  param {
    lr_mult: 0.0
    decay_mult: 0.0
  }
  param {
    lr_mult: 0.0
    decay_mult: 0.0
  }
}
layer {
  name: "reduction_b_7x1_relu"
  type: "ReLU"
  bottom: "reduction_b_7x1"
  top: "reduction_b_7x1"
}
layer {
  name: "reduction_b_3x3_2"
  type: "Convolution"
  bottom: "reduction_b_7x1"
  top: "reduction_b_3x3_2"
  param {
    lr_mult: 1
    decay_mult: 1
  }
  convolution_param {
    bias_term: false
    num_output: 320
    pad: 4
    dilation: 4
    kernel_size: 3
    stride: 1
  }
}
layer {
  name: "reduction_b_3x3_2_scale"
  type: "Scale"
  bottom: "reduction_b_3x3_2"
  top: "reduction_b_3x3_2"
  scale_param {
    bias_term: true
  }
  param {
    lr_mult: 0.0
    decay_mult: 0.0
  }
  param {
    lr_mult: 0.0
    decay_mult: 0.0
  }
}
layer {
  name: "reduction_b_3x3_2_relu"
  type: "ReLU"
  bottom: "reduction_b_3x3_2"
  top: "reduction_b_3x3_2"
}
layer {
  name: "reduction_b_pool"
  type: "Pooling"
  bottom: "inception_b7_concat"
  top: "reduction_b_pool"
  pooling_param {
    pool: MAX
    kernel_size: 3
    stride: 1
    pad: 1
    ceil_mode:false
  }
}
layer {
  name: "reduction_b_concat"
  type: "Concat"
  bottom: "reduction_b_3x3"
  bottom: "reduction_b_3x3_2"
  bottom: "reduction_b_pool"
  top: "reduction_b_concat"
}
layer {
  name: "inception_c1_1x1_2"
  type: "Convolution"
  bottom: "reduction_b_concat"
  top: "inception_c1_1x1_2"
  param {
    lr_mult: 1
    decay_mult: 1
  }
  convolution_param {
    bias_term: false
    num_output: 256
    pad: 0
    kernel_size: 1
    stride: 1
  }
}
layer {
  name: "inception_c1_1x1_2_scale"
  type: "Scale"
  bottom: "inception_c1_1x1_2"
  top: "inception_c1_1x1_2"
  scale_param {
    bias_term: true
  }
  param {
    lr_mult: 0.0
    decay_mult: 0.0
  }
  param {
    lr_mult: 0.0
    decay_mult: 0.0
  }
}
layer {
  name: "inception_c1_1x1_2_relu"
  type: "ReLU"
  bottom: "inception_c1_1x1_2"
  top: "inception_c1_1x1_2"
}
layer {
  name: "inception_c1_1x1_3"
  type: "Convolution"
  bottom: "reduction_b_concat"
  top: "inception_c1_1x1_3"
  param {
    lr_mult: 1
    decay_mult: 1
  }
  convolution_param {
    bias_term: false
    num_output: 384
    pad: 0
    kernel_size: 1
    stride: 1
  }
}
layer {
  name: "inception_c1_1x1_3_scale"
  type: "Scale"
  bottom: "inception_c1_1x1_3"
  top: "inception_c1_1x1_3"
  scale_param {
    bias_term: true
  }
  param {
    lr_mult: 0.0
    decay_mult: 0.0
  }
  param {
    lr_mult: 0.0
    decay_mult: 0.0
  }
}
layer {
  name: "inception_c1_1x1_3_relu"
  type: "ReLU"
  bottom: "inception_c1_1x1_3"
  top: "inception_c1_1x1_3"
}
layer {
  name: "inception_c1_1x3"
  type: "Convolution"
  bottom: "inception_c1_1x1_3"
  top: "inception_c1_1x3"
  param {
    lr_mult: 1
    decay_mult: 1
  }
  convolution_param {
    bias_term: false
    num_output: 256
    stride: 1
    pad_h: 0
    pad_w: 1
    kernel_h: 1
    kernel_w: 3
  }
}
layer {
  name: "inception_c1_1x3_scale"
  type: "Scale"
  bottom: "inception_c1_1x3"
  top: "inception_c1_1x3"
  scale_param {
    bias_term: true
  }
  param {
    lr_mult: 0.0
    decay_mult: 0.0
  }
  param {
    lr_mult: 0.0
    decay_mult: 0.0
  }
}
layer {
  name: "inception_c1_1x3_relu"
  type: "ReLU"
  bottom: "inception_c1_1x3"
  top: "inception_c1_1x3"
}
layer {
  name: "inception_c1_3x1"
  type: "Convolution"
  bottom: "inception_c1_1x1_3"
  top: "inception_c1_3x1"
  param {
    lr_mult: 1
    decay_mult: 1
  }
  convolution_param {
    bias_term: false
    num_output: 256
    stride: 1
    pad_h: 1
    pad_w: 0
    kernel_h: 3
    kernel_w: 1
  }
}
layer {
  name: "inception_c1_3x1_scale"
  type: "Scale"
  bottom: "inception_c1_3x1"
  top: "inception_c1_3x1"
  scale_param {
    bias_term: true
  }
  param {
    lr_mult: 0.0
    decay_mult: 0.0
  }
  param {
    lr_mult: 0.0
    decay_mult: 0.0
  }
}
layer {
  name: "inception_c1_3x1_relu"
  type: "ReLU"
  bottom: "inception_c1_3x1"
  top: "inception_c1_3x1"
}
layer {
  name: "inception_c1_1x1_4"
  type: "Convolution"
  bottom: "reduction_b_concat"
  top: "inception_c1_1x1_4"
  param {
    lr_mult: 1
    decay_mult: 1
  }
  convolution_param {
    bias_term: false
    num_output: 384
    pad: 0
    kernel_size: 1
    stride: 1
  }
}
layer {
  name: "inception_c1_1x1_4_scale"
  type: "Scale"
  bottom: "inception_c1_1x1_4"
  top: "inception_c1_1x1_4"
  scale_param {
    bias_term: true
  }
  param {
    lr_mult: 0.0
    decay_mult: 0.0
  }
  param {
    lr_mult: 0.0
    decay_mult: 0.0
  }
}
layer {
  name: "inception_c1_1x1_4_relu"
  type: "ReLU"
  bottom: "inception_c1_1x1_4"
  top: "inception_c1_1x1_4"
}
layer {
  name: "inception_c1_3x1_2"
  type: "Convolution"
  bottom: "inception_c1_1x1_4"
  top: "inception_c1_3x1_2"
  param {
    lr_mult: 1
    decay_mult: 1
  }
  convolution_param {
    bias_term: false
    num_output: 448
    stride: 1
    pad_h: 1
    pad_w: 0
    kernel_h: 3
    kernel_w: 1
  }
}
layer {
  name: "inception_c1_3x1_2_scale"
  type: "Scale"
  bottom: "inception_c1_3x1_2"
  top: "inception_c1_3x1_2"
  scale_param {
    bias_term: true
  }
  param {
    lr_mult: 0.0
    decay_mult: 0.0
  }
  param {
    lr_mult: 0.0
    decay_mult: 0.0
  }
}
layer {
  name: "inception_c1_3x1_2_relu"
  type: "ReLU"
  bottom: "inception_c1_3x1_2"
  top: "inception_c1_3x1_2"
}
layer {
  name: "inception_c1_1x3_2"
  type: "Convolution"
  bottom: "inception_c1_3x1_2"
  top: "inception_c1_1x3_2"
  param {
    lr_mult: 1
    decay_mult: 1
  }
  convolution_param {
    bias_term: false
    num_output: 512
    stride: 1
    pad_h: 0
    pad_w: 1
    kernel_h: 1
    kernel_w: 3
  }
}
layer {
  name: "inception_c1_1x3_2_scale"
  type: "Scale"
  bottom: "inception_c1_1x3_2"
  top: "inception_c1_1x3_2"
  scale_param {
    bias_term: true
  }
  param {
    lr_mult: 0.0
    decay_mult: 0.0
  }
  param {
    lr_mult: 0.0
    decay_mult: 0.0
  }
}
layer {
  name: "inception_c1_1x3_2_relu"
  type: "ReLU"
  bottom: "inception_c1_1x3_2"
  top: "inception_c1_1x3_2"
}
layer {
  name: "inception_c1_1x3_3"
  type: "Convolution"
  bottom: "inception_c1_1x3_2"
  top: "inception_c1_1x3_3"
  param {
    lr_mult: 1
    decay_mult: 1
  }
  convolution_param {
    bias_term: false
    num_output: 256
    stride: 1
    pad_h: 0
    pad_w: 1
    kernel_h: 1
    kernel_w: 3
  }
}
layer {
  name: "inception_c1_1x3_3_scale"
  type: "Scale"
  bottom: "inception_c1_1x3_3"
  top: "inception_c1_1x3_3"
  scale_param {
    bias_term: true
  }
  param {
    lr_mult: 0.0
    decay_mult: 0.0
  }
  param {
    lr_mult: 0.0
    decay_mult: 0.0
  }
}
layer {
  name: "inception_c1_1x3_3_relu"
  type: "ReLU"
  bottom: "inception_c1_1x3_3"
  top: "inception_c1_1x3_3"
}
layer {
  name: "inception_c1_3x1_3"
  type: "Convolution"
  bottom: "inception_c1_1x3_2"
  top: "inception_c1_3x1_3"
  param {
    lr_mult: 1
    decay_mult: 1
  }
  convolution_param {
    bias_term: false
    num_output: 256
    stride: 1
    pad_h: 1
    pad_w: 0
    kernel_h: 3
    kernel_w: 1
  }
}
layer {
  name: "inception_c1_3x1_3_scale"
  type: "Scale"
  bottom: "inception_c1_3x1_3"
  top: "inception_c1_3x1_3"
  scale_param {
    bias_term: true
  }
  param {
    lr_mult: 0.0
    decay_mult: 0.0
  }
  param {
    lr_mult: 0.0
    decay_mult: 0.0
  }
}
layer {
  name: "inception_c1_3x1_3_relu"
  type: "ReLU"
  bottom: "inception_c1_3x1_3"
  top: "inception_c1_3x1_3"
}
layer {
  name: "inception_c1_pool_ave"
  type: "Pooling"
  bottom: "reduction_b_concat"
  top: "inception_c1_pool_ave"
  pooling_param {
    pool: AVE
    kernel_size: 3
    stride: 1
    pad: 1
  }
}
layer {
  name: "inception_c1_1x1"
  type: "Convolution"
  bottom: "inception_c1_pool_ave"
  top: "inception_c1_1x1"
  param {
    lr_mult: 1
    decay_mult: 1
  }
  convolution_param {
    bias_term: false
    num_output: 256
    pad: 0
    kernel_size: 1
    stride: 1
  }
}
layer {
  name: "inception_c1_1x1_scale"
  type: "Scale"
  bottom: "inception_c1_1x1"
  top: "inception_c1_1x1"
  scale_param {
    bias_term: true
  }
  param {
    lr_mult: 0.0
    decay_mult: 0.0
  }
  param {
    lr_mult: 0.0
    decay_mult: 0.0
  }
}
layer {
  name: "inception_c1_1x1_relu"
  type: "ReLU"
  bottom: "inception_c1_1x1"
  top: "inception_c1_1x1"
}
layer {
  name: "inception_c1_concat"
  type: "Concat"
  bottom: "inception_c1_1x1_2"
  bottom: "inception_c1_1x3"
  bottom: "inception_c1_3x1"
  bottom: "inception_c1_1x3_3"
  bottom: "inception_c1_3x1_3"
  bottom: "inception_c1_1x1"
  top: "inception_c1_concat"
}
layer {
  name: "inception_c2_1x1_2"
  type: "Convolution"
  bottom: "inception_c1_concat"
  top: "inception_c2_1x1_2"
  param {
    lr_mult: 1
    decay_mult: 1
  }
  convolution_param {
    bias_term: false
    num_output: 256
    pad: 0
    kernel_size: 1
    stride: 1
  }
}
layer {
  name: "inception_c2_1x1_2_scale"
  type: "Scale"
  bottom: "inception_c2_1x1_2"
  top: "inception_c2_1x1_2"
  scale_param {
    bias_term: true
  }
  param {
    lr_mult: 0.0
    decay_mult: 0.0
  }
  param {
    lr_mult: 0.0
    decay_mult: 0.0
  }
}
layer {
  name: "inception_c2_1x1_2_relu"
  type: "ReLU"
  bottom: "inception_c2_1x1_2"
  top: "inception_c2_1x1_2"
}
layer {
  name: "inception_c2_1x1_3"
  type: "Convolution"
  bottom: "inception_c1_concat"
  top: "inception_c2_1x1_3"
  param {
    lr_mult: 1
    decay_mult: 1
  }
  convolution_param {
    bias_term: false
    num_output: 384
    pad: 0
    kernel_size: 1
    stride: 1
  }
}
layer {
  name: "inception_c2_1x1_3_scale"
  type: "Scale"
  bottom: "inception_c2_1x1_3"
  top: "inception_c2_1x1_3"
  scale_param {
    bias_term: true
  }
  param {
    lr_mult: 0.0
    decay_mult: 0.0
  }
  param {
    lr_mult: 0.0
    decay_mult: 0.0
  }
}
layer {
  name: "inception_c2_1x1_3_relu"
  type: "ReLU"
  bottom: "inception_c2_1x1_3"
  top: "inception_c2_1x1_3"
}
layer {
  name: "inception_c2_1x3"
  type: "Convolution"
  bottom: "inception_c2_1x1_3"
  top: "inception_c2_1x3"
  param {
    lr_mult: 1
    decay_mult: 1
  }
  convolution_param {
    bias_term: false
    num_output: 256
    stride: 1
    pad_h: 0
    pad_w: 1
    kernel_h: 1
    kernel_w: 3
  }
}
layer {
  name: "inception_c2_1x3_scale"
  type: "Scale"
  bottom: "inception_c2_1x3"
  top: "inception_c2_1x3"
  scale_param {
    bias_term: true
  }
  param {
    lr_mult: 0.0
    decay_mult: 0.0
  }
  param {
    lr_mult: 0.0
    decay_mult: 0.0
  }
}
layer {
  name: "inception_c2_1x3_relu"
  type: "ReLU"
  bottom: "inception_c2_1x3"
  top: "inception_c2_1x3"
}
layer {
  name: "inception_c2_3x1"
  type: "Convolution"
  bottom: "inception_c2_1x1_3"
  top: "inception_c2_3x1"
  param {
    lr_mult: 1
    decay_mult: 1
  }
  convolution_param {
    bias_term: false
    num_output: 256
    stride: 1
    pad_h: 1
    pad_w: 0
    kernel_h: 3
    kernel_w: 1
  }
}
layer {
  name: "inception_c2_3x1_scale"
  type: "Scale"
  bottom: "inception_c2_3x1"
  top: "inception_c2_3x1"
  scale_param {
    bias_term: true
  }
  param {
    lr_mult: 0.0
    decay_mult: 0.0
  }
  param {
    lr_mult: 0.0
    decay_mult: 0.0
  }
}
layer {
  name: "inception_c2_3x1_relu"
  type: "ReLU"
  bottom: "inception_c2_3x1"
  top: "inception_c2_3x1"
}
layer {
  name: "inception_c2_1x1_4"
  type: "Convolution"
  bottom: "inception_c1_concat"
  top: "inception_c2_1x1_4"
  param {
    lr_mult: 1
    decay_mult: 1
  }
  convolution_param {
    bias_term: false
    num_output: 384
    pad: 0
    kernel_size: 1
    stride: 1
  }
}
layer {
  name: "inception_c2_1x1_4_scale"
  type: "Scale"
  bottom: "inception_c2_1x1_4"
  top: "inception_c2_1x1_4"
  scale_param {
    bias_term: true
  }
  param {
    lr_mult: 0.0
    decay_mult: 0.0
  }
  param {
    lr_mult: 0.0
    decay_mult: 0.0
  }
}
layer {
  name: "inception_c2_1x1_4_relu"
  type: "ReLU"
  bottom: "inception_c2_1x1_4"
  top: "inception_c2_1x1_4"
}
layer {
  name: "inception_c2_3x1_2"
  type: "Convolution"
  bottom: "inception_c2_1x1_4"
  top: "inception_c2_3x1_2"
  param {
    lr_mult: 1
    decay_mult: 1
  }
  convolution_param {
    bias_term: false
    num_output: 448
    stride: 1
    pad_h: 1
    pad_w: 0
    kernel_h: 3
    kernel_w: 1
  }
}
layer {
  name: "inception_c2_3x1_2_scale"
  type: "Scale"
  bottom: "inception_c2_3x1_2"
  top: "inception_c2_3x1_2"
  scale_param {
    bias_term: true
  }
  param {
    lr_mult: 0.0
    decay_mult: 0.0
  }
  param {
    lr_mult: 0.0
    decay_mult: 0.0
  }
}
layer {
  name: "inception_c2_3x1_2_relu"
  type: "ReLU"
  bottom: "inception_c2_3x1_2"
  top: "inception_c2_3x1_2"
}
layer {
  name: "inception_c2_1x3_2"
  type: "Convolution"
  bottom: "inception_c2_3x1_2"
  top: "inception_c2_1x3_2"
  param {
    lr_mult: 1
    decay_mult: 1
  }
  convolution_param {
    bias_term: false
    num_output: 512
    stride: 1
    pad_h: 0
    pad_w: 1
    kernel_h: 1
    kernel_w: 3
  }
}
layer {
  name: "inception_c2_1x3_2_scale"
  type: "Scale"
  bottom: "inception_c2_1x3_2"
  top: "inception_c2_1x3_2"
  scale_param {
    bias_term: true
  }
  param {
    lr_mult: 0.0
    decay_mult: 0.0
  }
  param {
    lr_mult: 0.0
    decay_mult: 0.0
  }
}
layer {
  name: "inception_c2_1x3_2_relu"
  type: "ReLU"
  bottom: "inception_c2_1x3_2"
  top: "inception_c2_1x3_2"
}
layer {
  name: "inception_c2_1x3_3"
  type: "Convolution"
  bottom: "inception_c2_1x3_2"
  top: "inception_c2_1x3_3"
  param {
    lr_mult: 1
    decay_mult: 1
  }
  convolution_param {
    bias_term: false
    num_output: 256
    stride: 1
    pad_h: 0
    pad_w: 1
    kernel_h: 1
    kernel_w: 3
  }
}
layer {
  name: "inception_c2_1x3_3_scale"
  type: "Scale"
  bottom: "inception_c2_1x3_3"
  top: "inception_c2_1x3_3"
  scale_param {
    bias_term: true
  }
  param {
    lr_mult: 0.0
    decay_mult: 0.0
  }
  param {
    lr_mult: 0.0
    decay_mult: 0.0
  }
}
layer {
  name: "inception_c2_1x3_3_relu"
  type: "ReLU"
  bottom: "inception_c2_1x3_3"
  top: "inception_c2_1x3_3"
}
layer {
  name: "inception_c2_3x1_3"
  type: "Convolution"
  bottom: "inception_c2_1x3_2"
  top: "inception_c2_3x1_3"
  param {
    lr_mult: 1
    decay_mult: 1
  }
  convolution_param {
    bias_term: false
    num_output: 256
    stride: 1
    pad_h: 1
    pad_w: 0
    kernel_h: 3
    kernel_w: 1
  }
}
layer {
  name: "inception_c2_3x1_3_scale"
  type: "Scale"
  bottom: "inception_c2_3x1_3"
  top: "inception_c2_3x1_3"
  scale_param {
    bias_term: true
  }
  param {
    lr_mult: 0.0
    decay_mult: 0.0
  }
  param {
    lr_mult: 0.0
    decay_mult: 0.0
  }
}
layer {
  name: "inception_c2_3x1_3_relu"
  type: "ReLU"
  bottom: "inception_c2_3x1_3"
  top: "inception_c2_3x1_3"
}
layer {
  name: "inception_c2_pool_ave"
  type: "Pooling"
  bottom: "inception_c1_concat"
  top: "inception_c2_pool_ave"
  pooling_param {
    pool: AVE
    kernel_size: 3
    stride: 1
    pad: 1
  }
}
layer {
  name: "inception_c2_1x1"
  type: "Convolution"
  bottom: "inception_c2_pool_ave"
  top: "inception_c2_1x1"
  param {
    lr_mult: 1
    decay_mult: 1
  }
  convolution_param {
    bias_term: false
    num_output: 256
    pad: 0
    kernel_size: 1
    stride: 1
  }
}
layer {
  name: "inception_c2_1x1_scale"
  type: "Scale"
  bottom: "inception_c2_1x1"
  top: "inception_c2_1x1"
  scale_param {
    bias_term: true
  }
  param {
    lr_mult: 0.0
    decay_mult: 0.0
  }
  param {
    lr_mult: 0.0
    decay_mult: 0.0
  }
}
layer {
  name: "inception_c2_1x1_relu"
  type: "ReLU"
  bottom: "inception_c2_1x1"
  top: "inception_c2_1x1"
}
layer {
  name: "inception_c2_concat"
  type: "Concat"
  bottom: "inception_c2_1x1_2"
  bottom: "inception_c2_1x3"
  bottom: "inception_c2_3x1"
  bottom: "inception_c2_1x3_3"
  bottom: "inception_c2_3x1_3"
  bottom: "inception_c2_1x1"
  top: "inception_c2_concat"
}
layer {
  name: "inception_c3_1x1_2"
  type: "Convolution"
  bottom: "inception_c2_concat"
  top: "inception_c3_1x1_2"
  param {
    lr_mult: 1
    decay_mult: 1
  }
  convolution_param {
    bias_term: false
    num_output: 256
    pad: 0
    kernel_size: 1
    stride: 1
  }
}
layer {
  name: "inception_c3_1x1_2_scale"
  type: "Scale"
  bottom: "inception_c3_1x1_2"
  top: "inception_c3_1x1_2"
  scale_param {
    bias_term: true
  }
  param {
    lr_mult: 0.0
    decay_mult: 0.0
  }
  param {
    lr_mult: 0.0
    decay_mult: 0.0
  }
}
layer {
  name: "inception_c3_1x1_2_relu"
  type: "ReLU"
  bottom: "inception_c3_1x1_2"
  top: "inception_c3_1x1_2"
}
layer {
  name: "inception_c3_1x1_3"
  type: "Convolution"
  bottom: "inception_c2_concat"
  top: "inception_c3_1x1_3"
  param {
    lr_mult: 1
    decay_mult: 1
  }
  convolution_param {
    bias_term: false
    num_output: 384
    pad: 0
    kernel_size: 1
    stride: 1
  }
}
layer {
  name: "inception_c3_1x1_3_scale"
  type: "Scale"
  bottom: "inception_c3_1x1_3"
  top: "inception_c3_1x1_3"
  scale_param {
    bias_term: true
  }
  param {
    lr_mult: 0.0
    decay_mult: 0.0
  }
  param {
    lr_mult: 0.0
    decay_mult: 0.0
  }
}
layer {
  name: "inception_c3_1x1_3_relu"
  type: "ReLU"
  bottom: "inception_c3_1x1_3"
  top: "inception_c3_1x1_3"
}
layer {
  name: "inception_c3_1x3"
  type: "Convolution"
  bottom: "inception_c3_1x1_3"
  top: "inception_c3_1x3"
  param {
    lr_mult: 1
    decay_mult: 1
  }
  convolution_param {
    bias_term: false
    num_output: 256
    stride: 1
    pad_h: 0
    pad_w: 1
    kernel_h: 1
    kernel_w: 3
  }
}
layer {
  name: "inception_c3_1x3_scale"
  type: "Scale"
  bottom: "inception_c3_1x3"
  top: "inception_c3_1x3"
  scale_param {
    bias_term: true
  }
  param {
    lr_mult: 0.0
    decay_mult: 0.0
  }
  param {
    lr_mult: 0.0
    decay_mult: 0.0
  }
}
layer {
  name: "inception_c3_1x3_relu"
  type: "ReLU"
  bottom: "inception_c3_1x3"
  top: "inception_c3_1x3"
}
layer {
  name: "inception_c3_3x1"
  type: "Convolution"
  bottom: "inception_c3_1x1_3"
  top: "inception_c3_3x1"
  param {
    lr_mult: 1
    decay_mult: 1
  }
  convolution_param {
    bias_term: false
    num_output: 256
    stride: 1
    pad_h: 1
    pad_w: 0
    kernel_h: 3
    kernel_w: 1
  }
}
layer {
  name: "inception_c3_3x1_scale"
  type: "Scale"
  bottom: "inception_c3_3x1"
  top: "inception_c3_3x1"
  scale_param {
    bias_term: true
  }
  param {
    lr_mult: 0.0
    decay_mult: 0.0
  }
  param {
    lr_mult: 0.0
    decay_mult: 0.0
  }
}
layer {
  name: "inception_c3_3x1_relu"
  type: "ReLU"
  bottom: "inception_c3_3x1"
  top: "inception_c3_3x1"
}
layer {
  name: "inception_c3_1x1_4"
  type: "Convolution"
  bottom: "inception_c2_concat"
  top: "inception_c3_1x1_4"
  param {
    lr_mult: 1
    decay_mult: 1
  }
  convolution_param {
    bias_term: false
    num_output: 384
    pad: 0
    kernel_size: 1
    stride: 1
  }
}
layer {
  name: "inception_c3_1x1_4_scale"
  type: "Scale"
  bottom: "inception_c3_1x1_4"
  top: "inception_c3_1x1_4"
  scale_param {
    bias_term: true
  }
  param {
    lr_mult: 0.0
    decay_mult: 0.0
  }
  param {
    lr_mult: 0.0
    decay_mult: 0.0
  }
}
layer {
  name: "inception_c3_1x1_4_relu"
  type: "ReLU"
  bottom: "inception_c3_1x1_4"
  top: "inception_c3_1x1_4"
}
layer {
  name: "inception_c3_3x1_2"
  type: "Convolution"
  bottom: "inception_c3_1x1_4"
  top: "inception_c3_3x1_2"
  param {
    lr_mult: 1
    decay_mult: 1
  }
  convolution_param {
    bias_term: false
    num_output: 448
    stride: 1
    pad_h: 1
    pad_w: 0
    kernel_h: 3
    kernel_w: 1
  }
}
layer {
  name: "inception_c3_3x1_2_scale"
  type: "Scale"
  bottom: "inception_c3_3x1_2"
  top: "inception_c3_3x1_2"
  scale_param {
    bias_term: true
  }
  param {
    lr_mult: 0.0
    decay_mult: 0.0
  }
  param {
    lr_mult: 0.0
    decay_mult: 0.0
  }
}
layer {
  name: "inception_c3_3x1_2_relu"
  type: "ReLU"
  bottom: "inception_c3_3x1_2"
  top: "inception_c3_3x1_2"
}
layer {
  name: "inception_c3_1x3_2"
  type: "Convolution"
  bottom: "inception_c3_3x1_2"
  top: "inception_c3_1x3_2"
  param {
    lr_mult: 1
    decay_mult: 1
  }
  convolution_param {
    bias_term: false
    num_output: 512
    stride: 1
    pad_h: 0
    pad_w: 1
    kernel_h: 1
    kernel_w: 3
  }
}
layer {
  name: "inception_c3_1x3_2_scale"
  type: "Scale"
  bottom: "inception_c3_1x3_2"
  top: "inception_c3_1x3_2"
  scale_param {
    bias_term: true
  }
  param {
    lr_mult: 0.0
    decay_mult: 0.0
  }
  param {
    lr_mult: 0.0
    decay_mult: 0.0
  }
}
layer {
  name: "inception_c3_1x3_2_relu"
  type: "ReLU"
  bottom: "inception_c3_1x3_2"
  top: "inception_c3_1x3_2"
}
layer {
  name: "inception_c3_1x3_3"
  type: "Convolution"
  bottom: "inception_c3_1x3_2"
  top: "inception_c3_1x3_3"
  param {
    lr_mult: 1
    decay_mult: 1
  }
  convolution_param {
    bias_term: false
    num_output: 256
    stride: 1
    pad_h: 0
    pad_w: 1
    kernel_h: 1
    kernel_w: 3
  }
}
layer {
  name: "inception_c3_1x3_3_scale"
  type: "Scale"
  bottom: "inception_c3_1x3_3"
  top: "inception_c3_1x3_3"
  scale_param {
    bias_term: true
  }
  param {
    lr_mult: 0.0
    decay_mult: 0.0
  }
  param {
    lr_mult: 0.0
    decay_mult: 0.0
  }
}
layer {
  name: "inception_c3_1x3_3_relu"
  type: "ReLU"
  bottom: "inception_c3_1x3_3"
  top: "inception_c3_1x3_3"
}
layer {
  name: "inception_c3_3x1_3"
  type: "Convolution"
  bottom: "inception_c3_1x3_2"
  top: "inception_c3_3x1_3"
  param {
    lr_mult: 1
    decay_mult: 1
  }
  convolution_param {
    bias_term: false
    num_output: 256
    stride: 1
    pad_h: 1
    pad_w: 0
    kernel_h: 3
    kernel_w: 1
  }
}
layer {
  name: "inception_c3_3x1_3_scale"
  type: "Scale"
  bottom: "inception_c3_3x1_3"
  top: "inception_c3_3x1_3"
  scale_param {
    bias_term: true
  }
  param {
    lr_mult: 0.0
    decay_mult: 0.0
  }
  param {
    lr_mult: 0.0
    decay_mult: 0.0
  }
}
layer {
  name: "inception_c3_3x1_3_relu"
  type: "ReLU"
  bottom: "inception_c3_3x1_3"
  top: "inception_c3_3x1_3"
}
layer {
  name: "inception_c3_pool_ave"
  type: "Pooling"
  bottom: "inception_c2_concat"
  top: "inception_c3_pool_ave"
  pooling_param {
    pool: AVE
    kernel_size: 3
    stride: 1
    pad: 1
  }
}
layer {
  name: "inception_c3_1x1"
  type: "Convolution"
  bottom: "inception_c3_pool_ave"
  top: "inception_c3_1x1"
  param {
    lr_mult: 1
    decay_mult: 1
  }
  convolution_param {
    bias_term: false
    num_output: 256
    pad: 0
    kernel_size: 1
    stride: 1
  }
}
layer {
  name: "inception_c3_1x1_scale"
  type: "Scale"
  bottom: "inception_c3_1x1"
  top: "inception_c3_1x1"
  scale_param {
    bias_term: true
  }
  param {
    lr_mult: 0.0
    decay_mult: 0.0
  }
  param {
    lr_mult: 0.0
    decay_mult: 0.0
  }
}
layer {
  name: "inception_c3_1x1_relu"
  type: "ReLU"
  bottom: "inception_c3_1x1"
  top: "inception_c3_1x1"
}
layer {
  name: "inception_c3_concat"
  type: "Concat"
  bottom: "inception_c3_1x1_2"
  bottom: "inception_c3_1x3"
  bottom: "inception_c3_3x1"
  bottom: "inception_c3_1x3_3"
  bottom: "inception_c3_3x1_3"
  bottom: "inception_c3_1x1"
  top: "inception_c3_concat"
}

###################### auxi psp ###################### 
layer {
  name: "auxi_psp_pool1"
  type: "Pooling"
  bottom: "inception_b7_concat"
  top: "auxi_psp_pool1"
  pooling_param {
    pool: AVE
    kernel_size: 64
    stride: 64
  }
}
layer {
  name: "auxi_psp_pool1_conv"
  type: "Convolution"
  bottom: "auxi_psp_pool1"
  top: "auxi_psp_pool1_conv"
  param {
    lr_mult: 10
    decay_mult: 1
  }
  convolution_param {
    num_output: 256
    kernel_size: 1
    stride: 1
    weight_filler {
      type: "msra"
    }
    bias_term: false
  }
}
layer {
  name: "auxi_psp_pool1_conv_relu"
  type: "ReLU"
  bottom: "auxi_psp_pool1_conv"
  top: "auxi_psp_pool1_conv"
}
layer {
  name: "auxi_psp_pool1_interp"
  type: "Interp"
  bottom: "auxi_psp_pool1_conv"
  top: "auxi_psp_pool1_interp"
  interp_param {
    height: 64
    width: 64
  }
}
layer {
  name: "auxi_psp_pool2"
  type: "Pooling"
  bottom: "inception_b7_concat"
  top: "auxi_psp_pool2"
  pooling_param {
    pool: AVE
    kernel_size: 32
    stride: 32
  }
}
layer {
  name: "auxi_psp_pool2_conv"
  type: "Convolution"
  bottom: "auxi_psp_pool2"
  top: "auxi_psp_pool2_conv"
  param {
    lr_mult: 10
    decay_mult: 1
  }
  convolution_param {
    num_output: 256
    kernel_size: 1
    stride: 1
    weight_filler {
      type: "msra"
    }
    bias_term: false
  }
}
layer {
  name: "auxi_psp_pool2_conv_relu"
  type: "ReLU"
  bottom: "auxi_psp_pool2_conv"
  top: "auxi_psp_pool2_conv"
}
layer {
  name: "auxi_psp_pool2_interp"
  type: "Interp"
  bottom: "auxi_psp_pool2_conv"
  top: "auxi_psp_pool2_interp"
  interp_param {
    height: 64
    width: 64
  }
}
layer {
  name: "auxi_psp_pool4"
  type: "Pooling"
  bottom: "inception_b7_concat"
  top: "auxi_psp_pool4"
  pooling_param {
    pool: AVE
    kernel_size: 16
    stride: 16
  }
}
layer {
  name: "auxi_psp_pool4_conv"
  type: "Convolution"
  bottom: "auxi_psp_pool4"
  top: "auxi_psp_pool4_conv"
  param {
    lr_mult: 10
    decay_mult: 1
  }
  convolution_param {
    num_output: 256
    kernel_size: 1
    stride: 1
    weight_filler {
      type: "msra"
    }
    bias_term: false
  }
}
layer {
  name: "auxi_psp_pool4_relu"
  type: "ReLU"
  bottom: "auxi_psp_pool4_conv"
  top: "auxi_psp_pool4_conv"
}
layer {
  name: "auxi_psp_pool4_interp"
  type: "Interp"
  bottom: "auxi_psp_pool4_conv"
  top: "auxi_psp_pool4_interp"
  interp_param {
    height: 64
    width: 64
  }
}
layer {
  name: "auxi_psp_pool8"
  type: "Pooling"
  bottom: "inception_b7_concat"
  top: "auxi_psp_pool8"
  pooling_param {
    pool: AVE
    kernel_size: 8
    stride: 8
  }
}
layer {
  name: "auxi_psp_pool8_conv"
  type: "Convolution"
  bottom: "auxi_psp_pool8"
  top: "auxi_psp_pool8_conv"
  param {
    lr_mult: 10
    decay_mult: 1
  }
  convolution_param {
    num_output: 256
    kernel_size: 1
    stride: 1
    weight_filler {
      type: "msra"
    }
    bias_term: false
  }
}
layer {
  name: "auxi_psp_pool8_relu"
  type: "ReLU"
  bottom: "auxi_psp_pool8_conv"
  top: "auxi_psp_pool8_conv"
}
layer {
  name: "auxi_psp_pool8_interp"
  type: "Interp"
  bottom: "auxi_psp_pool8_conv"
  top: "auxi_psp_pool8_interp"
  interp_param {
    height: 64
    width: 64
  }
}
layer {
  name: "auxi_psp_concat"
  type: "Concat"
  bottom: "inception_b7_concat"
  bottom: "auxi_psp_pool8_interp"
  bottom: "auxi_psp_pool4_interp"
  bottom: "auxi_psp_pool2_interp"
  bottom: "auxi_psp_pool1_interp"
  top: "auxi_psp_concat"
}
layer {
  name: "auxi_feat"
  type: "Convolution"
  bottom: "auxi_psp_concat"
  top: "auxi_feat"
  param {
    lr_mult: 10
    decay_mult: 1
  }
  convolution_param {
    num_output: 256
    kernel_size: 3
    stride: 1
    pad: 1
    weight_filler {
      type: "msra"
    }
    bias_term: false
  }
}
layer {
  name: "auxi_feat_relu"
  type: "ReLU"
  bottom: "auxi_feat"
  top: "auxi_feat"
}
layer {
  name: "auxi_feat_dropout"
  type: "Dropout"
  bottom: "auxi_feat"
  top: "auxi_feat"
  dropout_param {
    dropout_ratio: 0.1
  }
}
layer {
  name: "auxi_score_map"
  type: "Convolution"
  bottom: "auxi_feat"
  top: "auxi_score_map"
  param {
    lr_mult: 10
    decay_mult: 1
  }
  param {
    lr_mult: 20
    decay_mult: 1
  }
  convolution_param {
    num_output: 21
    kernel_size: 1
    stride: 1
    weight_filler {
      type: "msra"
    }
  }
}
layer {
  name: "auxi_score_map_interp"
  type: "Interp"
  bottom: "auxi_score_map"
  top: "auxi_score_map_interp"
  interp_param {
    height: 513
    width: 513
  }
}

###################### psp ###################### 
layer {
  name: "psp_pool1"
  type: "Pooling"
  bottom: "inception_c3_concat"
  top: "psp_pool1"
  pooling_param {
    pool: AVE
    kernel_size: 64
    stride: 64
  }
}
layer {
  name: "psp_pool1_conv"
  type: "Convolution"
  bottom: "psp_pool1"
  top: "psp_pool1_conv"
  param {
    lr_mult: 10
    decay_mult: 1
  }
  convolution_param {
    num_output: 512
    kernel_size: 1
    stride: 1
    weight_filler {
      type: "msra"
    }
    bias_term: false
  }
}
layer {
  name: "psp_pool1_relu"
  type: "ReLU"
  bottom: "psp_pool1_conv"
  top: "psp_pool1_conv"
}
layer {
  name: "psp_pool1_interp"
  type: "Interp"
  bottom: "psp_pool1_conv"
  top: "psp_pool1_interp"
  interp_param {
    height: 64
    width: 64
  }
}
layer {
  name: "psp_pool2"
  type: "Pooling"
  bottom: "inception_c3_concat"
  top: "psp_pool2"
  pooling_param {
    pool: AVE
    kernel_size: 32
    stride: 32
  }
}
layer {
  name: "psp_pool2_conv"
  type: "Convolution"
  bottom: "psp_pool2"
  top: "psp_pool2_conv"
  param {
    lr_mult: 10
    decay_mult: 1
  }
  convolution_param {
    num_output: 512
    kernel_size: 1
    stride: 1
    weight_filler {
      type: "msra"
    }
    bias_term: false
  }
}
layer {
  name: "psp_pool2_relu"
  type: "ReLU"
  bottom: "psp_pool2_conv"
  top: "psp_pool2_conv"
}
layer {
  name: "psp_pool2_interp"
  type: "Interp"
  bottom: "psp_pool2_conv"
  top: "psp_pool2_interp"
  interp_param {
    height: 64
    width: 64
  }
}
layer {
  name: "psp_pool4"
  type: "Pooling"
  bottom: "inception_c3_concat"
  top: "psp_pool4"
  pooling_param {
    pool: AVE
    kernel_size: 16
    stride: 16
  }
}
layer {
  name: "psp_pool4_conv"
  type: "Convolution"
  bottom: "psp_pool4"
  top: "psp_pool4_conv"
  param {
    lr_mult: 10
    decay_mult: 1
  }
  convolution_param {
    num_output: 512
    kernel_size: 1
    stride: 1
    weight_filler {
      type: "msra"
    }
    bias_term: false
  }
}
layer {
  name: "psp_pool4_relu"
  type: "ReLU"
  bottom: "psp_pool4_conv"
  top: "psp_pool4_conv"
}
layer {
  name: "psp_pool4_interp"
  type: "Interp"
  bottom: "psp_pool4_conv"
  top: "psp_pool4_interp"
  interp_param {
    height: 64
    width: 64
  }
}
layer {
  name: "psp_pool8"
  type: "Pooling"
  bottom: "inception_c3_concat"
  top: "psp_pool8"
  pooling_param {
    pool: AVE
    kernel_size: 8
    stride: 8
  }
}
layer {
  name: "psp_pool8_conv"
  type: "Convolution"
  bottom: "psp_pool8"
  top: "psp_pool8_conv"
  param {
    lr_mult: 10
    decay_mult: 1
  }
  convolution_param {
    num_output: 512
    kernel_size: 1
    stride: 1
    weight_filler {
      type: "msra"
    }
    bias_term: false
  }
}
layer {
  name: "psp_pool8_relu"
  type: "ReLU"
  bottom: "psp_pool8_conv"
  top: "psp_pool8_conv"
}
layer {
  name: "psp_pool8_interp"
  type: "Interp"
  bottom: "psp_pool8_conv"
  top: "psp_pool8_interp"
  interp_param {
    height: 64
    width: 64
  }
}
layer {
  name: "psp_concat"
  type: "Concat"
  bottom: "inception_c3_concat"
  bottom: "psp_pool8_interp"
  bottom: "psp_pool4_interp"
  bottom: "psp_pool2_interp"
  bottom: "psp_pool1_interp"
  top: "psp_concat"
}
layer {
  name: "feat"
  type: "Convolution"
  bottom: "psp_concat"
  top: "feat"
  param {
    lr_mult: 10
    decay_mult: 1
  }
  convolution_param {
    num_output: 512
    kernel_size: 3
    stride: 1
    pad: 1
    weight_filler {
      type: "msra"
    }
    bias_term: false
  }
}
layer {
  name: "feat_relu"
  type: "ReLU"
  bottom: "feat"
  top: "feat"
}
layer {
  name: "feat_dropout"
  type: "Dropout"
  bottom: "feat"
  top: "feat"
  dropout_param {
    dropout_ratio: 0.1
  }
}
layer {
  name: "score_map"
  type: "Convolution"
  bottom: "feat"
  top: "score_map"
  param {
    lr_mult: 10
    decay_mult: 1
  }
  param {
    lr_mult: 20
    decay_mult: 1
  }
  convolution_param {
    num_output: 21
    kernel_size: 1
    stride: 1
    weight_filler {
      type: "msra"
    }
  }
}
layer {
  name: "score_map_interp"
  type: "Interp"
  bottom: "score_map"
  top: "score_map_interp"
  interp_param {
    height: 513
    width: 513
  }
}

# #### crf ###
#layer {
#  bottom: "score_map_interp"
#  bottom: "data_dim"
#  bottom: "data"
#  top: "crf_inf"
#  name: "crf"
#  type: "DenseCRF"
#  dense_crf_param { 
#     max_iter: 10
#     pos_w: 4
#     pos_xy_std: 1
#     bi_w: 5
#     bi_xy_std: 21
#     bi_rgb_std: 3
#  }
#}

layer {
  # bottom: "crf_inf"
  bottom: "score_map_interp"
  top: "prob"
  name: "prob"
  type: "Softmax"
}



