input: "data"
input_shape {
  dim: 1
  dim: 3
  dim: 600
  dim: 600
}

input: "im_info"
input_shape {
  dim: 1
  dim: 3
}

################ inception_v4 ################
layer {
  name: "conv1_3x3_s2"
  type: "Convolution"
  bottom: "data"
  top: "conv1_3x3_s2"
  param {
    lr_mult: 0
    decay_mult: 0
  }
  convolution_param {
    bias_term: false
    num_output: 32
    pad: 1
    kernel_size: 3
    stride: 2
  }
}
layer {
  name: "conv1_3x3_s2_scale"
  type: "Scale"
  bottom: "conv1_3x3_s2"
  top: "conv1_3x3_s2"
  scale_param {
    bias_term: true
  }
  param {
    lr_mult: 0.0
    decay_mult: 0.0
  }
  param {
    lr_mult: 0.0
    decay_mult: 0.0
  }
}
layer {
  name: "conv1_3x3_s2_relu"
  type: "ReLU"
  bottom: "conv1_3x3_s2"
  top: "conv1_3x3_s2"
}
layer {
  name: "conv2_3x3_s1"
  type: "Convolution"
  bottom: "conv1_3x3_s2"
  top: "conv2_3x3_s1"
  param {
    lr_mult: 0
    decay_mult: 0
  }
  convolution_param {
    bias_term: false
    num_output: 32
    pad: 1
    kernel_size: 3
    stride: 1
  }
}
layer {
  name: "conv2_3x3_s1_scale"
  type: "Scale"
  bottom: "conv2_3x3_s1"
  top: "conv2_3x3_s1"
  scale_param {
    bias_term: true
  }
  param {
    lr_mult: 0.0
    decay_mult: 0.0
  }
  param {
    lr_mult: 0.0
    decay_mult: 0.0
  }
}
layer {
  name: "conv2_3x3_s1_relu"
  type: "ReLU"
  bottom: "conv2_3x3_s1"
  top: "conv2_3x3_s1"
}
layer {
  name: "conv3_3x3_s1"
  type: "Convolution"
  bottom: "conv2_3x3_s1"
  top: "conv3_3x3_s1"
  param {
    lr_mult: 0
    decay_mult: 0
  }
  convolution_param {
    bias_term: false
    num_output: 64
    pad: 1
    kernel_size: 3
    stride: 1
  }
}
layer {
  name: "conv3_3x3_s1_scale"
  type: "Scale"
  bottom: "conv3_3x3_s1"
  top: "conv3_3x3_s1"
  scale_param {
    bias_term: true
  }
  param {
    lr_mult: 0.0
    decay_mult: 0.0
  }
  param {
    lr_mult: 0.0
    decay_mult: 0.0
  }
}
layer {
  name: "conv3_3x3_s1_relu"
  type: "ReLU"
  bottom: "conv3_3x3_s1"
  top: "conv3_3x3_s1"
}
layer {
  name: "inception_stem1_3x3_s2"
  type: "Convolution"
  bottom: "conv3_3x3_s1"
  top: "inception_stem1_3x3_s2"
  param {
    lr_mult: 1
    decay_mult: 1
  }
  convolution_param {
    bias_term: false
    num_output: 96
    pad: 1
    kernel_size: 3
    stride: 2
  }
}
layer {
  name: "inception_stem1_3x3_s2_scale"
  type: "Scale"
  bottom: "inception_stem1_3x3_s2"
  top: "inception_stem1_3x3_s2"
  scale_param {
    bias_term: true
  }
  param {
    lr_mult: 0.0
    decay_mult: 0.0
  }
  param {
    lr_mult: 0.0
    decay_mult: 0.0
  }
}
layer {
  name: "inception_stem1_3x3_s2_relu"
  type: "ReLU"
  bottom: "inception_stem1_3x3_s2"
  top: "inception_stem1_3x3_s2"
}
layer {
  name: "inception_stem1_pool"
  type: "Pooling"
  bottom: "conv3_3x3_s1"
  top: "inception_stem1_pool"
  pooling_param {
    pool: MAX
    kernel_size: 3
    stride: 2
    pad: 1
    ceil_mode:false
  }
}
layer {
  name: "inception_stem1"
  type: "Concat"
  bottom: "inception_stem1_pool"
  bottom: "inception_stem1_3x3_s2"
  top: "inception_stem1"
}
layer {
  name: "inception_stem2_3x3_reduce"
  type: "Convolution"
  bottom: "inception_stem1"
  top: "inception_stem2_3x3_reduce"
  param {
    lr_mult: 0
    decay_mult: 0
  }
  convolution_param {
    bias_term: false
    num_output: 64
    pad: 0
    kernel_size: 1
    stride: 1
  }
}
layer {
  name: "inception_stem2_3x3_reduce_scale"
  type: "Scale"
  bottom: "inception_stem2_3x3_reduce"
  top: "inception_stem2_3x3_reduce"
  scale_param {
    bias_term: true
  }
  param {
    lr_mult: 0.0
    decay_mult: 0.0
  }
  param {
    lr_mult: 0.0
    decay_mult: 0.0
  }
}
layer {
  name: "inception_stem2_3x3_reduce_relu"
  type: "ReLU"
  bottom: "inception_stem2_3x3_reduce"
  top: "inception_stem2_3x3_reduce"
}
layer {
  name: "inception_stem2_3x3"
  type: "Convolution"
  bottom: "inception_stem2_3x3_reduce"
  top: "inception_stem2_3x3"
  param {
    lr_mult: 0
    decay_mult: 0
  }
  convolution_param {
    bias_term: false
    num_output: 96
    pad: 1
    kernel_size: 3
    stride: 1
  }
}
layer {
  name: "inception_stem2_3x3_scale"
  type: "Scale"
  bottom: "inception_stem2_3x3"
  top: "inception_stem2_3x3"
  scale_param {
    bias_term: true
  }
  param {
    lr_mult: 0.0
    decay_mult: 0.0
  }
  param {
    lr_mult: 0.0
    decay_mult: 0.0
  }
}
layer {
  name: "inception_stem2_3x3_relu"
  type: "ReLU"
  bottom: "inception_stem2_3x3"
  top: "inception_stem2_3x3"
}
layer {
  name: "inception_stem2_1x7_reduce"
  type: "Convolution"
  bottom: "inception_stem1"
  top: "inception_stem2_1x7_reduce"
  param {
    lr_mult: 0
    decay_mult: 0
  }
  convolution_param {
    bias_term: false
    num_output: 64
    pad: 0
    kernel_size: 1
    stride: 1
  }
}
layer {
  name: "inception_stem2_1x7_reduce_scale"
  type: "Scale"
  bottom: "inception_stem2_1x7_reduce"
  top: "inception_stem2_1x7_reduce"
  scale_param {
    bias_term: true
  }
  param {
    lr_mult: 0.0
    decay_mult: 0.0
  }
  param {
    lr_mult: 0.0
    decay_mult: 0.0
  }
}
layer {
  name: "inception_stem2_1x7_reduce_relu"
  type: "ReLU"
  bottom: "inception_stem2_1x7_reduce"
  top: "inception_stem2_1x7_reduce"
}
layer {
  name: "inception_stem2_1x7"
  type: "Convolution"
  bottom: "inception_stem2_1x7_reduce"
  top: "inception_stem2_1x7"
  param {
    lr_mult: 0
    decay_mult: 0
  }
  convolution_param {
    bias_term: false
    num_output: 64
    stride: 1
    pad_h: 0
    pad_w: 3
    kernel_h: 1
    kernel_w: 7
  }
}
layer {
  name: "inception_stem2_1x7_scale"
  type: "Scale"
  bottom: "inception_stem2_1x7"
  top: "inception_stem2_1x7"
  scale_param {
    bias_term: true
  }
  param {
    lr_mult: 0.0
    decay_mult: 0.0
  }
  param {
    lr_mult: 0.0
    decay_mult: 0.0
  }
}
layer {
  name: "inception_stem2_1x7_relu"
  type: "ReLU"
  bottom: "inception_stem2_1x7"
  top: "inception_stem2_1x7"
}
layer {
  name: "inception_stem2_7x1"
  type: "Convolution"
  bottom: "inception_stem2_1x7"
  top: "inception_stem2_7x1"
  param {
    lr_mult: 0
    decay_mult: 0
  }
  convolution_param {
    bias_term: false
    num_output: 64
    stride: 1
    pad_h: 3
    pad_w: 0
    kernel_h: 7
    kernel_w: 1
  }
}
layer {
  name: "inception_stem2_7x1_scale"
  type: "Scale"
  bottom: "inception_stem2_7x1"
  top: "inception_stem2_7x1"
  scale_param {
    bias_term: true
  }
  param {
    lr_mult: 0.0
    decay_mult: 0.0
  }
  param {
    lr_mult: 0.0
    decay_mult: 0.0
  }
}
layer {
  name: "inception_stem2_7x1_relu"
  type: "ReLU"
  bottom: "inception_stem2_7x1"
  top: "inception_stem2_7x1"
}
layer {
  name: "inception_stem2_3x3_2"
  type: "Convolution"
  bottom: "inception_stem2_7x1"
  top: "inception_stem2_3x3_2"
  param {
    lr_mult: 0
    decay_mult: 0
  }
  convolution_param {
    bias_term: false
    num_output: 96
    pad: 1
    kernel_size: 3
    stride: 1
  }
}
layer {
  name: "inception_stem2_3x3_2_scale"
  type: "Scale"
  bottom: "inception_stem2_3x3_2"
  top: "inception_stem2_3x3_2"
  scale_param {
    bias_term: true
  }
  param {
    lr_mult: 0.0
    decay_mult: 0.0
  }
  param {
    lr_mult: 0.0
    decay_mult: 0.0
  }
}
layer {
  name: "inception_stem2_3x3_2_relu"
  type: "ReLU"
  bottom: "inception_stem2_3x3_2"
  top: "inception_stem2_3x3_2"
}
layer {
  name: "inception_stem2"
  type: "Concat"
  bottom: "inception_stem2_3x3"
  bottom: "inception_stem2_3x3_2"
  top: "inception_stem2"
}
layer {
  name: "inception_stem3_3x3_s2"
  type: "Convolution"
  bottom: "inception_stem2"
  top: "inception_stem3_3x3_s2"
  param {
    lr_mult: 1
    decay_mult: 1
  }
  convolution_param {
    bias_term: false
    num_output: 192
    pad: 1
    kernel_size: 3
    stride: 2
  }
}
layer {
  name: "inception_stem3_3x3_s2_scale"
  type: "Scale"
  bottom: "inception_stem3_3x3_s2"
  top: "inception_stem3_3x3_s2"
  scale_param {
    bias_term: true
  }
  param {
    lr_mult: 0.0
    decay_mult: 0.0
  }
  param {
    lr_mult: 0.0
    decay_mult: 0.0
  }
}
layer {
  name: "inception_stem3_3x3_s2_relu"
  type: "ReLU"
  bottom: "inception_stem3_3x3_s2"
  top: "inception_stem3_3x3_s2"
}
layer {
  name: "inception_stem3_pool"
  type: "Pooling"
  bottom: "inception_stem2"
  top: "inception_stem3_pool"
  pooling_param {
    pool: MAX
    kernel_size: 3
    stride: 2
    pad: 1
    ceil_mode:false
  }
}
layer {
  name: "inception_stem3"
  type: "Concat"
  bottom: "inception_stem3_3x3_s2"
  bottom: "inception_stem3_pool"
  top: "inception_stem3"
}
layer {
  name: "inception_a1_1x1_2"
  type: "Convolution"
  bottom: "inception_stem3"
  top: "inception_a1_1x1_2"
  param {
    lr_mult: 1
    decay_mult: 1
  }
  convolution_param {
    bias_term: false
    num_output: 96
    pad: 0
    kernel_size: 1
    stride: 1
  }
}
layer {
  name: "inception_a1_1x1_2_scale"
  type: "Scale"
  bottom: "inception_a1_1x1_2"
  top: "inception_a1_1x1_2"
  scale_param {
    bias_term: true
  }
  param {
    lr_mult: 0.0
    decay_mult: 0.0
  }
  param {
    lr_mult: 0.0
    decay_mult: 0.0
  }
}
layer {
  name: "inception_a1_1x1_2_relu"
  type: "ReLU"
  bottom: "inception_a1_1x1_2"
  top: "inception_a1_1x1_2"
}
layer {
  name: "inception_a1_3x3_reduce"
  type: "Convolution"
  bottom: "inception_stem3"
  top: "inception_a1_3x3_reduce"
  param {
    lr_mult: 1
    decay_mult: 1
  }
  convolution_param {
    bias_term: false
    num_output: 64
    pad: 0
    kernel_size: 1
    stride: 1
  }
}
layer {
  name: "inception_a1_3x3_reduce_scale"
  type: "Scale"
  bottom: "inception_a1_3x3_reduce"
  top: "inception_a1_3x3_reduce"
  scale_param {
    bias_term: true
  }
  param {
    lr_mult: 0.0
    decay_mult: 0.0
  }
  param {
    lr_mult: 0.0
    decay_mult: 0.0
  }
}
layer {
  name: "inception_a1_3x3_reduce_relu"
  type: "ReLU"
  bottom: "inception_a1_3x3_reduce"
  top: "inception_a1_3x3_reduce"
}
layer {
  name: "inception_a1_3x3"
  type: "Convolution"
  bottom: "inception_a1_3x3_reduce"
  top: "inception_a1_3x3"
  param {
    lr_mult: 1
    decay_mult: 1
  }
  convolution_param {
    bias_term: false
    num_output: 96
    pad: 1
    kernel_size: 3
    stride: 1
  }
}
layer {
  name: "inception_a1_3x3_scale"
  type: "Scale"
  bottom: "inception_a1_3x3"
  top: "inception_a1_3x3"
  scale_param {
    bias_term: true
  }
  param {
    lr_mult: 0.0
    decay_mult: 0.0
  }
  param {
    lr_mult: 0.0
    decay_mult: 0.0
  }
}
layer {
  name: "inception_a1_3x3_relu"
  type: "ReLU"
  bottom: "inception_a1_3x3"
  top: "inception_a1_3x3"
}
layer {
  name: "inception_a1_3x3_2_reduce"
  type: "Convolution"
  bottom: "inception_stem3"
  top: "inception_a1_3x3_2_reduce"
  param {
    lr_mult: 1
    decay_mult: 1
  }
  convolution_param {
    bias_term: false
    num_output: 64
    pad: 0
    kernel_size: 1
    stride: 1
  }
}
layer {
  name: "inception_a1_3x3_2_reduce_scale"
  type: "Scale"
  bottom: "inception_a1_3x3_2_reduce"
  top: "inception_a1_3x3_2_reduce"
  scale_param {
    bias_term: true
  }
  param {
    lr_mult: 0.0
    decay_mult: 0.0
  }
  param {
    lr_mult: 0.0
    decay_mult: 0.0
  }
}
layer {
  name: "inception_a1_3x3_2_reduce_relu"
  type: "ReLU"
  bottom: "inception_a1_3x3_2_reduce"
  top: "inception_a1_3x3_2_reduce"
}
layer {
  name: "inception_a1_3x3_2"
  type: "Convolution"
  bottom: "inception_a1_3x3_2_reduce"
  top: "inception_a1_3x3_2"
  param {
    lr_mult: 1
    decay_mult: 1
  }
  convolution_param {
    bias_term: false
    num_output: 96
    pad: 1
    kernel_size: 3
    stride: 1
  }
}
layer {
  name: "inception_a1_3x3_2_scale"
  type: "Scale"
  bottom: "inception_a1_3x3_2"
  top: "inception_a1_3x3_2"
  scale_param {
    bias_term: true
  }
  param {
    lr_mult: 0.0
    decay_mult: 0.0
  }
  param {
    lr_mult: 0.0
    decay_mult: 0.0
  }
}
layer {
  name: "inception_a1_3x3_2_relu"
  type: "ReLU"
  bottom: "inception_a1_3x3_2"
  top: "inception_a1_3x3_2"
}
layer {
  name: "inception_a1_3x3_3"
  type: "Convolution"
  bottom: "inception_a1_3x3_2"
  top: "inception_a1_3x3_3"
  param {
    lr_mult: 1
    decay_mult: 1
  }
  convolution_param {
    bias_term: false
    num_output: 96
    pad: 1
    kernel_size: 3
    stride: 1
  }
}
layer {
  name: "inception_a1_3x3_3_scale"
  type: "Scale"
  bottom: "inception_a1_3x3_3"
  top: "inception_a1_3x3_3"
  scale_param {
    bias_term: true
  }
  param {
    lr_mult: 0.0
    decay_mult: 0.0
  }
  param {
    lr_mult: 0.0
    decay_mult: 0.0
  }
}
layer {
  name: "inception_a1_3x3_3_relu"
  type: "ReLU"
  bottom: "inception_a1_3x3_3"
  top: "inception_a1_3x3_3"
}
layer {
  name: "inception_a1_pool_ave"
  type: "Pooling"
  bottom: "inception_stem3"
  top: "inception_a1_pool_ave"
  pooling_param {
    pool: AVE
    kernel_size: 3
    stride: 1
    pad: 1
  }
}
layer {
  name: "inception_a1_1x1"
  type: "Convolution"
  bottom: "inception_a1_pool_ave"
  top: "inception_a1_1x1"
  param {
    lr_mult: 1
    decay_mult: 1
  }
  convolution_param {
    bias_term: false
    num_output: 96
    pad: 0
    kernel_size: 1
    stride: 1
  }
}
layer {
  name: "inception_a1_1x1_scale"
  type: "Scale"
  bottom: "inception_a1_1x1"
  top: "inception_a1_1x1"
  scale_param {
    bias_term: true
  }
  param {
    lr_mult: 0.0
    decay_mult: 0.0
  }
  param {
    lr_mult: 0.0
    decay_mult: 0.0
  }
}
layer {
  name: "inception_a1_1x1_relu"
  type: "ReLU"
  bottom: "inception_a1_1x1"
  top: "inception_a1_1x1"
}
layer {
  name: "inception_a1_concat"
  type: "Concat"
  bottom: "inception_a1_1x1_2"
  bottom: "inception_a1_3x3"
  bottom: "inception_a1_3x3_3"
  bottom: "inception_a1_1x1"
  top: "inception_a1_concat"
}
layer {
  name: "inception_a2_1x1_2"
  type: "Convolution"
  bottom: "inception_a1_concat"
  top: "inception_a2_1x1_2"
  param {
    lr_mult: 1
    decay_mult: 1
  }
  convolution_param {
    bias_term: false
    num_output: 96
    pad: 0
    kernel_size: 1
    stride: 1
  }
}
layer {
  name: "inception_a2_1x1_2_scale"
  type: "Scale"
  bottom: "inception_a2_1x1_2"
  top: "inception_a2_1x1_2"
  scale_param {
    bias_term: true
  }
  param {
    lr_mult: 0.0
    decay_mult: 0.0
  }
  param {
    lr_mult: 0.0
    decay_mult: 0.0
  }
}
layer {
  name: "inception_a2_1x1_2_relu"
  type: "ReLU"
  bottom: "inception_a2_1x1_2"
  top: "inception_a2_1x1_2"
}
layer {
  name: "inception_a2_3x3_reduce"
  type: "Convolution"
  bottom: "inception_a1_concat"
  top: "inception_a2_3x3_reduce"
  param {
    lr_mult: 1
    decay_mult: 1
  }
  convolution_param {
    bias_term: false
    num_output: 64
    pad: 0
    kernel_size: 1
    stride: 1
  }
}
layer {
  name: "inception_a2_3x3_reduce_scale"
  type: "Scale"
  bottom: "inception_a2_3x3_reduce"
  top: "inception_a2_3x3_reduce"
  scale_param {
    bias_term: true
  }
  param {
    lr_mult: 0.0
    decay_mult: 0.0
  }
  param {
    lr_mult: 0.0
    decay_mult: 0.0
  }
}
layer {
  name: "inception_a2_3x3_reduce_relu"
  type: "ReLU"
  bottom: "inception_a2_3x3_reduce"
  top: "inception_a2_3x3_reduce"
}
layer {
  name: "inception_a2_3x3"
  type: "Convolution"
  bottom: "inception_a2_3x3_reduce"
  top: "inception_a2_3x3"
  param {
    lr_mult: 1
    decay_mult: 1
  }
  convolution_param {
    bias_term: false
    num_output: 96
    pad: 1
    kernel_size: 3
    stride: 1
  }
}
layer {
  name: "inception_a2_3x3_scale"
  type: "Scale"
  bottom: "inception_a2_3x3"
  top: "inception_a2_3x3"
  scale_param {
    bias_term: true
  }
  param {
    lr_mult: 0.0
    decay_mult: 0.0
  }
  param {
    lr_mult: 0.0
    decay_mult: 0.0
  }
}
layer {
  name: "inception_a2_3x3_relu"
  type: "ReLU"
  bottom: "inception_a2_3x3"
  top: "inception_a2_3x3"
}
layer {
  name: "inception_a2_3x3_2_reduce"
  type: "Convolution"
  bottom: "inception_a1_concat"
  top: "inception_a2_3x3_2_reduce"
  param {
    lr_mult: 1
    decay_mult: 1
  }
  convolution_param {
    bias_term: false
    num_output: 64
    pad: 0
    kernel_size: 1
    stride: 1
  }
}
layer {
  name: "inception_a2_3x3_2_reduce_scale"
  type: "Scale"
  bottom: "inception_a2_3x3_2_reduce"
  top: "inception_a2_3x3_2_reduce"
  scale_param {
    bias_term: true
  }
  param {
    lr_mult: 0.0
    decay_mult: 0.0
  }
  param {
    lr_mult: 0.0
    decay_mult: 0.0
  }
}
layer {
  name: "inception_a2_3x3_2_reduce_relu"
  type: "ReLU"
  bottom: "inception_a2_3x3_2_reduce"
  top: "inception_a2_3x3_2_reduce"
}
layer {
  name: "inception_a2_3x3_2"
  type: "Convolution"
  bottom: "inception_a2_3x3_2_reduce"
  top: "inception_a2_3x3_2"
  param {
    lr_mult: 1
    decay_mult: 1
  }
  convolution_param {
    bias_term: false
    num_output: 96
    pad: 1
    kernel_size: 3
    stride: 1
  }
}
layer {
  name: "inception_a2_3x3_2_scale"
  type: "Scale"
  bottom: "inception_a2_3x3_2"
  top: "inception_a2_3x3_2"
  scale_param {
    bias_term: true
  }
  param {
    lr_mult: 0.0
    decay_mult: 0.0
  }
  param {
    lr_mult: 0.0
    decay_mult: 0.0
  }
}
layer {
  name: "inception_a2_3x3_2_relu"
  type: "ReLU"
  bottom: "inception_a2_3x3_2"
  top: "inception_a2_3x3_2"
}
layer {
  name: "inception_a2_3x3_3"
  type: "Convolution"
  bottom: "inception_a2_3x3_2"
  top: "inception_a2_3x3_3"
  param {
    lr_mult: 1
    decay_mult: 1
  }
  convolution_param {
    bias_term: false
    num_output: 96
    pad: 1
    kernel_size: 3
    stride: 1
  }
}
layer {
  name: "inception_a2_3x3_3_scale"
  type: "Scale"
  bottom: "inception_a2_3x3_3"
  top: "inception_a2_3x3_3"
  scale_param {
    bias_term: true
  }
  param {
    lr_mult: 0.0
    decay_mult: 0.0
  }
  param {
    lr_mult: 0.0
    decay_mult: 0.0
  }
}
layer {
  name: "inception_a2_3x3_3_relu"
  type: "ReLU"
  bottom: "inception_a2_3x3_3"
  top: "inception_a2_3x3_3"
}
layer {
  name: "inception_a2_pool_ave"
  type: "Pooling"
  bottom: "inception_a1_concat"
  top: "inception_a2_pool_ave"
  pooling_param {
    pool: AVE
    kernel_size: 3
    stride: 1
    pad: 1
  }
}
layer {
  name: "inception_a2_1x1"
  type: "Convolution"
  bottom: "inception_a2_pool_ave"
  top: "inception_a2_1x1"
  param {
    lr_mult: 1
    decay_mult: 1
  }
  convolution_param {
    bias_term: false
    num_output: 96
    pad: 0
    kernel_size: 1
    stride: 1
  }
}
layer {
  name: "inception_a2_1x1_scale"
  type: "Scale"
  bottom: "inception_a2_1x1"
  top: "inception_a2_1x1"
  scale_param {
    bias_term: true
  }
  param {
    lr_mult: 0.0
    decay_mult: 0.0
  }
  param {
    lr_mult: 0.0
    decay_mult: 0.0
  }
}
layer {
  name: "inception_a2_1x1_relu"
  type: "ReLU"
  bottom: "inception_a2_1x1"
  top: "inception_a2_1x1"
}
layer {
  name: "inception_a2_concat"
  type: "Concat"
  bottom: "inception_a2_1x1_2"
  bottom: "inception_a2_3x3"
  bottom: "inception_a2_3x3_3"
  bottom: "inception_a2_1x1"
  top: "inception_a2_concat"
}
layer {
  name: "inception_a3_1x1_2"
  type: "Convolution"
  bottom: "inception_a2_concat"
  top: "inception_a3_1x1_2"
  param {
    lr_mult: 1
    decay_mult: 1
  }
  convolution_param {
    bias_term: false
    num_output: 96
    pad: 0
    kernel_size: 1
    stride: 1
  }
}
layer {
  name: "inception_a3_1x1_2_scale"
  type: "Scale"
  bottom: "inception_a3_1x1_2"
  top: "inception_a3_1x1_2"
  scale_param {
    bias_term: true
  }
  param {
    lr_mult: 0.0
    decay_mult: 0.0
  }
  param {
    lr_mult: 0.0
    decay_mult: 0.0
  }
}
layer {
  name: "inception_a3_1x1_2_relu"
  type: "ReLU"
  bottom: "inception_a3_1x1_2"
  top: "inception_a3_1x1_2"
}
layer {
  name: "inception_a3_3x3_reduce"
  type: "Convolution"
  bottom: "inception_a2_concat"
  top: "inception_a3_3x3_reduce"
  param {
    lr_mult: 1
    decay_mult: 1
  }
  convolution_param {
    bias_term: false
    num_output: 64
    pad: 0
    kernel_size: 1
    stride: 1
  }
}
layer {
  name: "inception_a3_3x3_reduce_scale"
  type: "Scale"
  bottom: "inception_a3_3x3_reduce"
  top: "inception_a3_3x3_reduce"
  scale_param {
    bias_term: true
  }
  param {
    lr_mult: 0.0
    decay_mult: 0.0
  }
  param {
    lr_mult: 0.0
    decay_mult: 0.0
  }
}
layer {
  name: "inception_a3_3x3_reduce_relu"
  type: "ReLU"
  bottom: "inception_a3_3x3_reduce"
  top: "inception_a3_3x3_reduce"
}
layer {
  name: "inception_a3_3x3"
  type: "Convolution"
  bottom: "inception_a3_3x3_reduce"
  top: "inception_a3_3x3"
  param {
    lr_mult: 1
    decay_mult: 1
  }
  convolution_param {
    bias_term: false
    num_output: 96
    pad: 1
    kernel_size: 3
    stride: 1
  }
}
layer {
  name: "inception_a3_3x3_scale"
  type: "Scale"
  bottom: "inception_a3_3x3"
  top: "inception_a3_3x3"
  scale_param {
    bias_term: true
  }
  param {
    lr_mult: 0.0
    decay_mult: 0.0
  }
  param {
    lr_mult: 0.0
    decay_mult: 0.0
  }
}
layer {
  name: "inception_a3_3x3_relu"
  type: "ReLU"
  bottom: "inception_a3_3x3"
  top: "inception_a3_3x3"
}
layer {
  name: "inception_a3_3x3_2_reduce"
  type: "Convolution"
  bottom: "inception_a2_concat"
  top: "inception_a3_3x3_2_reduce"
  param {
    lr_mult: 1
    decay_mult: 1
  }
  convolution_param {
    bias_term: false
    num_output: 64
    pad: 0
    kernel_size: 1
    stride: 1
  }
}
layer {
  name: "inception_a3_3x3_2_reduce_scale"
  type: "Scale"
  bottom: "inception_a3_3x3_2_reduce"
  top: "inception_a3_3x3_2_reduce"
  scale_param {
    bias_term: true
  }
  param {
    lr_mult: 0.0
    decay_mult: 0.0
  }
  param {
    lr_mult: 0.0
    decay_mult: 0.0
  }
}
layer {
  name: "inception_a3_3x3_2_reduce_relu"
  type: "ReLU"
  bottom: "inception_a3_3x3_2_reduce"
  top: "inception_a3_3x3_2_reduce"
}
layer {
  name: "inception_a3_3x3_2"
  type: "Convolution"
  bottom: "inception_a3_3x3_2_reduce"
  top: "inception_a3_3x3_2"
  param {
    lr_mult: 1
    decay_mult: 1
  }
  convolution_param {
    bias_term: false
    num_output: 96
    pad: 1
    kernel_size: 3
    stride: 1
  }
}
layer {
  name: "inception_a3_3x3_2_scale"
  type: "Scale"
  bottom: "inception_a3_3x3_2"
  top: "inception_a3_3x3_2"
  scale_param {
    bias_term: true
  }
  param {
    lr_mult: 0.0
    decay_mult: 0.0
  }
  param {
    lr_mult: 0.0
    decay_mult: 0.0
  }
}
layer {
  name: "inception_a3_3x3_2_relu"
  type: "ReLU"
  bottom: "inception_a3_3x3_2"
  top: "inception_a3_3x3_2"
}
layer {
  name: "inception_a3_3x3_3"
  type: "Convolution"
  bottom: "inception_a3_3x3_2"
  top: "inception_a3_3x3_3"
  param {
    lr_mult: 1
    decay_mult: 1
  }
  convolution_param {
    bias_term: false
    num_output: 96
    pad: 1
    kernel_size: 3
    stride: 1
  }
}
layer {
  name: "inception_a3_3x3_3_scale"
  type: "Scale"
  bottom: "inception_a3_3x3_3"
  top: "inception_a3_3x3_3"
  scale_param {
    bias_term: true
  }
  param {
    lr_mult: 0.0
    decay_mult: 0.0
  }
  param {
    lr_mult: 0.0
    decay_mult: 0.0
  }
}
layer {
  name: "inception_a3_3x3_3_relu"
  type: "ReLU"
  bottom: "inception_a3_3x3_3"
  top: "inception_a3_3x3_3"
}
layer {
  name: "inception_a3_pool_ave"
  type: "Pooling"
  bottom: "inception_a2_concat"
  top: "inception_a3_pool_ave"
  pooling_param {
    pool: AVE
    kernel_size: 3
    stride: 1
    pad: 1
  }
}
layer {
  name: "inception_a3_1x1"
  type: "Convolution"
  bottom: "inception_a3_pool_ave"
  top: "inception_a3_1x1"
  param {
    lr_mult: 1
    decay_mult: 1
  }
  convolution_param {
    bias_term: false
    num_output: 96
    pad: 0
    kernel_size: 1
    stride: 1
  }
}
layer {
  name: "inception_a3_1x1_scale"
  type: "Scale"
  bottom: "inception_a3_1x1"
  top: "inception_a3_1x1"
  scale_param {
    bias_term: true
  }
  param {
    lr_mult: 0.0
    decay_mult: 0.0
  }
  param {
    lr_mult: 0.0
    decay_mult: 0.0
  }
}
layer {
  name: "inception_a3_1x1_relu"
  type: "ReLU"
  bottom: "inception_a3_1x1"
  top: "inception_a3_1x1"
}
layer {
  name: "inception_a3_concat"
  type: "Concat"
  bottom: "inception_a3_1x1_2"
  bottom: "inception_a3_3x3"
  bottom: "inception_a3_3x3_3"
  bottom: "inception_a3_1x1"
  top: "inception_a3_concat"
}
layer {
  name: "inception_a4_1x1_2"
  type: "Convolution"
  bottom: "inception_a3_concat"
  top: "inception_a4_1x1_2"
  param {
    lr_mult: 1
    decay_mult: 1
  }
  convolution_param {
    bias_term: false
    num_output: 96
    pad: 0
    kernel_size: 1
    stride: 1
  }
}
layer {
  name: "inception_a4_1x1_2_scale"
  type: "Scale"
  bottom: "inception_a4_1x1_2"
  top: "inception_a4_1x1_2"
  scale_param {
    bias_term: true
  }
  param {
    lr_mult: 0.0
    decay_mult: 0.0
  }
  param {
    lr_mult: 0.0
    decay_mult: 0.0
  }
}
layer {
  name: "inception_a4_1x1_2_relu"
  type: "ReLU"
  bottom: "inception_a4_1x1_2"
  top: "inception_a4_1x1_2"
}
layer {
  name: "inception_a4_3x3_reduce"
  type: "Convolution"
  bottom: "inception_a3_concat"
  top: "inception_a4_3x3_reduce"
  param {
    lr_mult: 1
    decay_mult: 1
  }
  convolution_param {
    bias_term: false
    num_output: 64
    pad: 0
    kernel_size: 1
    stride: 1
  }
}
layer {
  name: "inception_a4_3x3_reduce_scale"
  type: "Scale"
  bottom: "inception_a4_3x3_reduce"
  top: "inception_a4_3x3_reduce"
  scale_param {
    bias_term: true
  }
  param {
    lr_mult: 0.0
    decay_mult: 0.0
  }
  param {
    lr_mult: 0.0
    decay_mult: 0.0
  }
}
layer {
  name: "inception_a4_3x3_reduce_relu"
  type: "ReLU"
  bottom: "inception_a4_3x3_reduce"
  top: "inception_a4_3x3_reduce"
}
layer {
  name: "inception_a4_3x3"
  type: "Convolution"
  bottom: "inception_a4_3x3_reduce"
  top: "inception_a4_3x3"
  param {
    lr_mult: 1
    decay_mult: 1
  }
  convolution_param {
    bias_term: false
    num_output: 96
    pad: 1
    kernel_size: 3
    stride: 1
  }
}
layer {
  name: "inception_a4_3x3_scale"
  type: "Scale"
  bottom: "inception_a4_3x3"
  top: "inception_a4_3x3"
  scale_param {
    bias_term: true
  }
  param {
    lr_mult: 0.0
    decay_mult: 0.0
  }
  param {
    lr_mult: 0.0
    decay_mult: 0.0
  }
}
layer {
  name: "inception_a4_3x3_relu"
  type: "ReLU"
  bottom: "inception_a4_3x3"
  top: "inception_a4_3x3"
}
layer {
  name: "inception_a4_3x3_2_reduce"
  type: "Convolution"
  bottom: "inception_a3_concat"
  top: "inception_a4_3x3_2_reduce"
  param {
    lr_mult: 1
    decay_mult: 1
  }
  convolution_param {
    bias_term: false
    num_output: 64
    pad: 0
    kernel_size: 1
    stride: 1
  }
}
layer {
  name: "inception_a4_3x3_2_reduce_scale"
  type: "Scale"
  bottom: "inception_a4_3x3_2_reduce"
  top: "inception_a4_3x3_2_reduce"
  scale_param {
    bias_term: true
  }
  param {
    lr_mult: 0.0
    decay_mult: 0.0
  }
  param {
    lr_mult: 0.0
    decay_mult: 0.0
  }
}
layer {
  name: "inception_a4_3x3_2_reduce_relu"
  type: "ReLU"
  bottom: "inception_a4_3x3_2_reduce"
  top: "inception_a4_3x3_2_reduce"
}
layer {
  name: "inception_a4_3x3_2"
  type: "Convolution"
  bottom: "inception_a4_3x3_2_reduce"
  top: "inception_a4_3x3_2"
  param {
    lr_mult: 1
    decay_mult: 1
  }
  convolution_param {
    bias_term: false
    num_output: 96
    pad: 1
    kernel_size: 3
    stride: 1
  }
}
layer {
  name: "inception_a4_3x3_2_scale"
  type: "Scale"
  bottom: "inception_a4_3x3_2"
  top: "inception_a4_3x3_2"
  scale_param {
    bias_term: true
  }
  param {
    lr_mult: 0.0
    decay_mult: 0.0
  }
  param {
    lr_mult: 0.0
    decay_mult: 0.0
  }
}
layer {
  name: "inception_a4_3x3_2_relu"
  type: "ReLU"
  bottom: "inception_a4_3x3_2"
  top: "inception_a4_3x3_2"
}
layer {
  name: "inception_a4_3x3_3"
  type: "Convolution"
  bottom: "inception_a4_3x3_2"
  top: "inception_a4_3x3_3"
  param {
    lr_mult: 1
    decay_mult: 1
  }
  convolution_param {
    bias_term: false
    num_output: 96
    pad: 1
    kernel_size: 3
    stride: 1
  }
}
layer {
  name: "inception_a4_3x3_3_scale"
  type: "Scale"
  bottom: "inception_a4_3x3_3"
  top: "inception_a4_3x3_3"
  scale_param {
    bias_term: true
  }
  param {
    lr_mult: 0.0
    decay_mult: 0.0
  }
  param {
    lr_mult: 0.0
    decay_mult: 0.0
  }
}
layer {
  name: "inception_a4_3x3_3_relu"
  type: "ReLU"
  bottom: "inception_a4_3x3_3"
  top: "inception_a4_3x3_3"
}
layer {
  name: "inception_a4_pool_ave"
  type: "Pooling"
  bottom: "inception_a3_concat"
  top: "inception_a4_pool_ave"
  pooling_param {
    pool: AVE
    kernel_size: 3
    stride: 1
    pad: 1
  }
}
layer {
  name: "inception_a4_1x1"
  type: "Convolution"
  bottom: "inception_a4_pool_ave"
  top: "inception_a4_1x1"
  param {
    lr_mult: 1
    decay_mult: 1
  }
  convolution_param {
    bias_term: false
    num_output: 96
    pad: 0
    kernel_size: 1
    stride: 1
  }
}
layer {
  name: "inception_a4_1x1_scale"
  type: "Scale"
  bottom: "inception_a4_1x1"
  top: "inception_a4_1x1"
  scale_param {
    bias_term: true
  }
  param {
    lr_mult: 0.0
    decay_mult: 0.0
  }
  param {
    lr_mult: 0.0
    decay_mult: 0.0
  }
}
layer {
  name: "inception_a4_1x1_relu"
  type: "ReLU"
  bottom: "inception_a4_1x1"
  top: "inception_a4_1x1"
}
layer {
  name: "inception_a4_concat"
  type: "Concat"
  bottom: "inception_a4_1x1_2"
  bottom: "inception_a4_3x3"
  bottom: "inception_a4_3x3_3"
  bottom: "inception_a4_1x1"
  top: "inception_a4_concat"
}
layer {
  name: "reduction_a_3x3"
  type: "Convolution"
  bottom: "inception_a4_concat"
  top: "reduction_a_3x3"
  param {
    lr_mult: 1
    decay_mult: 1
  }
  convolution_param {
    bias_term: false
    num_output: 384
    pad: 1
    kernel_size: 3
    stride: 2
  }
}
layer {
  name: "reduction_a_3x3_scale"
  type: "Scale"
  bottom: "reduction_a_3x3"
  top: "reduction_a_3x3"
  scale_param {
    bias_term: true
  }
  param {
    lr_mult: 0.0
    decay_mult: 0.0
  }
  param {
    lr_mult: 0.0
    decay_mult: 0.0
  }
}
layer {
  name: "reduction_a_3x3_relu"
  type: "ReLU"
  bottom: "reduction_a_3x3"
  top: "reduction_a_3x3"
}
layer {
  name: "reduction_a_3x3_2_reduce"
  type: "Convolution"
  bottom: "inception_a4_concat"
  top: "reduction_a_3x3_2_reduce"
  param {
    lr_mult: 1
    decay_mult: 1
  }
  convolution_param {
    bias_term: false
    num_output: 192
    pad: 0
    kernel_size: 1
    stride: 1
  }
}
layer {
  name: "reduction_a_3x3_2_reduce_scale"
  type: "Scale"
  bottom: "reduction_a_3x3_2_reduce"
  top: "reduction_a_3x3_2_reduce"
  scale_param {
    bias_term: true
  }
  param {
    lr_mult: 0.0
    decay_mult: 0.0
  }
  param {
    lr_mult: 0.0
    decay_mult: 0.0
  }
}
layer {
  name: "reduction_a_3x3_2_reduce_relu"
  type: "ReLU"
  bottom: "reduction_a_3x3_2_reduce"
  top: "reduction_a_3x3_2_reduce"
}
layer {
  name: "reduction_a_3x3_2"
  type: "Convolution"
  bottom: "reduction_a_3x3_2_reduce"
  top: "reduction_a_3x3_2"
  param {
    lr_mult: 1
    decay_mult: 1
  }
  convolution_param {
    bias_term: false
    num_output: 224
    pad: 1
    kernel_size: 3
    stride: 1
  }
}
layer {
  name: "reduction_a_3x3_2_scale"
  type: "Scale"
  bottom: "reduction_a_3x3_2"
  top: "reduction_a_3x3_2"
  scale_param {
    bias_term: true
  }
  param {
    lr_mult: 0.0
    decay_mult: 0.0
  }
  param {
    lr_mult: 0.0
    decay_mult: 0.0
  }
}
layer {
  name: "reduction_a_3x3_2_relu"
  type: "ReLU"
  bottom: "reduction_a_3x3_2"
  top: "reduction_a_3x3_2"
}
layer {
  name: "reduction_a_3x3_3"
  type: "Convolution"
  bottom: "reduction_a_3x3_2"
  top: "reduction_a_3x3_3"
  param {
    lr_mult: 1
    decay_mult: 1
  }
  convolution_param {
    bias_term: false
    num_output: 256
    pad: 1
    kernel_size: 3
    stride: 2
  }
}
layer {
  name: "reduction_a_3x3_3_scale"
  type: "Scale"
  bottom: "reduction_a_3x3_3"
  top: "reduction_a_3x3_3"
  scale_param {
    bias_term: true
  }
  param {
    lr_mult: 0.0
    decay_mult: 0.0
  }
  param {
    lr_mult: 0.0
    decay_mult: 0.0
  }
}
layer {
  name: "reduction_a_3x3_3_relu"
  type: "ReLU"
  bottom: "reduction_a_3x3_3"
  top: "reduction_a_3x3_3"
}
layer {
  name: "reduction_a_pool"
  type: "Pooling"
  bottom: "inception_a4_concat"
  top: "reduction_a_pool"
  pooling_param {
    pool: MAX
    kernel_size: 3
    stride: 2
    pad: 1
    ceil_mode:false
  }
}
layer {
  name: "reduction_a_concat"
  type: "Concat"
  bottom: "reduction_a_3x3"
  bottom: "reduction_a_3x3_3"
  bottom: "reduction_a_pool"
  top: "reduction_a_concat"
}
layer {
  name: "inception_b1_1x1_2"
  type: "Convolution"
  bottom: "reduction_a_concat"
  top: "inception_b1_1x1_2"
  param {
    lr_mult: 1
    decay_mult: 1
  }
  convolution_param {
    bias_term: false
    num_output: 384
    pad: 0
    kernel_size: 1
    stride: 1
  }
}
layer {
  name: "inception_b1_1x1_2_scale"
  type: "Scale"
  bottom: "inception_b1_1x1_2"
  top: "inception_b1_1x1_2"
  scale_param {
    bias_term: true
  }
  param {
    lr_mult: 0.0
    decay_mult: 0.0
  }
  param {
    lr_mult: 0.0
    decay_mult: 0.0
  }
}
layer {
  name: "inception_b1_1x1_2_relu"
  type: "ReLU"
  bottom: "inception_b1_1x1_2"
  top: "inception_b1_1x1_2"
}
layer {
  name: "inception_b1_1x7_reduce"
  type: "Convolution"
  bottom: "reduction_a_concat"
  top: "inception_b1_1x7_reduce"
  param {
    lr_mult: 1
    decay_mult: 1
  }
  convolution_param {
    bias_term: false
    num_output: 192
    pad: 0
    kernel_size: 1
    stride: 1
  }
}
layer {
  name: "inception_b1_1x7_reduce_scale"
  type: "Scale"
  bottom: "inception_b1_1x7_reduce"
  top: "inception_b1_1x7_reduce"
  scale_param {
    bias_term: true
  }
  param {
    lr_mult: 0.0
    decay_mult: 0.0
  }
  param {
    lr_mult: 0.0
    decay_mult: 0.0
  }
}
layer {
  name: "inception_b1_1x7_reduce_relu"
  type: "ReLU"
  bottom: "inception_b1_1x7_reduce"
  top: "inception_b1_1x7_reduce"
}
layer {
  name: "inception_b1_1x7"
  type: "Convolution"
  bottom: "inception_b1_1x7_reduce"
  top: "inception_b1_1x7"
  param {
    lr_mult: 1
    decay_mult: 1
  }
  convolution_param {
    bias_term: false
    num_output: 224
    stride: 1
    pad_h: 0
    pad_w: 3
    kernel_h: 1
    kernel_w: 7
  }
}
layer {
  name: "inception_b1_1x7_scale"
  type: "Scale"
  bottom: "inception_b1_1x7"
  top: "inception_b1_1x7"
  scale_param {
    bias_term: true
  }
  param {
    lr_mult: 0.0
    decay_mult: 0.0
  }
  param {
    lr_mult: 0.0
    decay_mult: 0.0
  }
}
layer {
  name: "inception_b1_1x7_relu"
  type: "ReLU"
  bottom: "inception_b1_1x7"
  top: "inception_b1_1x7"
}
layer {
  name: "inception_b1_7x1"
  type: "Convolution"
  bottom: "inception_b1_1x7"
  top: "inception_b1_7x1"
  param {
    lr_mult: 1
    decay_mult: 1
  }
  convolution_param {
    bias_term: false
    num_output: 256
    stride: 1
    pad_h: 3
    pad_w: 0
    kernel_h: 7
    kernel_w: 1
  }
}
layer {
  name: "inception_b1_7x1_scale"
  type: "Scale"
  bottom: "inception_b1_7x1"
  top: "inception_b1_7x1"
  scale_param {
    bias_term: true
  }
  param {
    lr_mult: 0.0
    decay_mult: 0.0
  }
  param {
    lr_mult: 0.0
    decay_mult: 0.0
  }
}
layer {
  name: "inception_b1_7x1_relu"
  type: "ReLU"
  bottom: "inception_b1_7x1"
  top: "inception_b1_7x1"
}
layer {
  name: "inception_b1_7x1_2_reduce"
  type: "Convolution"
  bottom: "reduction_a_concat"
  top: "inception_b1_7x1_2_reduce"
  param {
    lr_mult: 1
    decay_mult: 1
  }
  convolution_param {
    bias_term: false
    num_output: 192
    pad: 0
    kernel_size: 1
    stride: 1
  }
}
layer {
  name: "inception_b1_7x1_2_reduce_scale"
  type: "Scale"
  bottom: "inception_b1_7x1_2_reduce"
  top: "inception_b1_7x1_2_reduce"
  scale_param {
    bias_term: true
  }
  param {
    lr_mult: 0.0
    decay_mult: 0.0
  }
  param {
    lr_mult: 0.0
    decay_mult: 0.0
  }
}
layer {
  name: "inception_b1_7x1_2_reduce_relu"
  type: "ReLU"
  bottom: "inception_b1_7x1_2_reduce"
  top: "inception_b1_7x1_2_reduce"
}
layer {
  name: "inception_b1_7x1_2"
  type: "Convolution"
  bottom: "inception_b1_7x1_2_reduce"
  top: "inception_b1_7x1_2"
  param {
    lr_mult: 1
    decay_mult: 1
  }
  convolution_param {
    bias_term: false
    num_output: 192
    stride: 1
    pad_h: 3
    pad_w: 0
    kernel_h: 7
    kernel_w: 1
  }
}
layer {
  name: "inception_b1_7x1_2_scale"
  type: "Scale"
  bottom: "inception_b1_7x1_2"
  top: "inception_b1_7x1_2"
  scale_param {
    bias_term: true
  }
  param {
    lr_mult: 0.0
    decay_mult: 0.0
  }
  param {
    lr_mult: 0.0
    decay_mult: 0.0
  }
}
layer {
  name: "inception_b1_7x1_2_relu"
  type: "ReLU"
  bottom: "inception_b1_7x1_2"
  top: "inception_b1_7x1_2"
}
layer {
  name: "inception_b1_1x7_2"
  type: "Convolution"
  bottom: "inception_b1_7x1_2"
  top: "inception_b1_1x7_2"
  param {
    lr_mult: 1
    decay_mult: 1
  }
  convolution_param {
    bias_term: false
    num_output: 224
    stride: 1
    pad_h: 0
    pad_w: 3
    kernel_h: 1
    kernel_w: 7
  }
}
layer {
  name: "inception_b1_1x7_2_scale"
  type: "Scale"
  bottom: "inception_b1_1x7_2"
  top: "inception_b1_1x7_2"
  scale_param {
    bias_term: true
  }
  param {
    lr_mult: 0.0
    decay_mult: 0.0
  }
  param {
    lr_mult: 0.0
    decay_mult: 0.0
  }
}
layer {
  name: "inception_b1_1x7_2_relu"
  type: "ReLU"
  bottom: "inception_b1_1x7_2"
  top: "inception_b1_1x7_2"
}
layer {
  name: "inception_b1_7x1_3"
  type: "Convolution"
  bottom: "inception_b1_1x7_2"
  top: "inception_b1_7x1_3"
  param {
    lr_mult: 1
    decay_mult: 1
  }
  convolution_param {
    bias_term: false
    num_output: 224
    stride: 1
    pad_h: 3
    pad_w: 0
    kernel_h: 7
    kernel_w: 1
  }
}
layer {
  name: "inception_b1_7x1_3_scale"
  type: "Scale"
  bottom: "inception_b1_7x1_3"
  top: "inception_b1_7x1_3"
  scale_param {
    bias_term: true
  }
  param {
    lr_mult: 0.0
    decay_mult: 0.0
  }
  param {
    lr_mult: 0.0
    decay_mult: 0.0
  }
}
layer {
  name: "inception_b1_7x1_3_relu"
  type: "ReLU"
  bottom: "inception_b1_7x1_3"
  top: "inception_b1_7x1_3"
}
layer {
  name: "inception_b1_1x7_3"
  type: "Convolution"
  bottom: "inception_b1_7x1_3"
  top: "inception_b1_1x7_3"
  param {
    lr_mult: 1
    decay_mult: 1
  }
  convolution_param {
    bias_term: false
    num_output: 256
    stride: 1
    pad_h: 0
    pad_w: 3
    kernel_h: 1
    kernel_w: 7
  }
}
layer {
  name: "inception_b1_1x7_3_scale"
  type: "Scale"
  bottom: "inception_b1_1x7_3"
  top: "inception_b1_1x7_3"
  scale_param {
    bias_term: true
  }
  param {
    lr_mult: 0.0
    decay_mult: 0.0
  }
  param {
    lr_mult: 0.0
    decay_mult: 0.0
  }
}
layer {
  name: "inception_b1_1x7_3_relu"
  type: "ReLU"
  bottom: "inception_b1_1x7_3"
  top: "inception_b1_1x7_3"
}
layer {
  name: "inception_b1_pool_ave"
  type: "Pooling"
  bottom: "reduction_a_concat"
  top: "inception_b1_pool_ave"
  pooling_param {
    pool: AVE
    kernel_size: 3
    stride: 1
    pad: 1
  }
}
layer {
  name: "inception_b1_1x1"
  type: "Convolution"
  bottom: "inception_b1_pool_ave"
  top: "inception_b1_1x1"
  param {
    lr_mult: 1
    decay_mult: 1
  }
  convolution_param {
    bias_term: false
    num_output: 128
    pad: 0
    kernel_size: 1
    stride: 1
  }
}
layer {
  name: "inception_b1_1x1_scale"
  type: "Scale"
  bottom: "inception_b1_1x1"
  top: "inception_b1_1x1"
  scale_param {
    bias_term: true
  }
  param {
    lr_mult: 0.0
    decay_mult: 0.0
  }
  param {
    lr_mult: 0.0
    decay_mult: 0.0
  }
}
layer {
  name: "inception_b1_1x1_relu"
  type: "ReLU"
  bottom: "inception_b1_1x1"
  top: "inception_b1_1x1"
}
layer {
  name: "inception_b1_concat"
  type: "Concat"
  bottom: "inception_b1_1x1_2"
  bottom: "inception_b1_7x1"
  bottom: "inception_b1_1x7_3"
  bottom: "inception_b1_1x1"
  top: "inception_b1_concat"
}
layer {
  name: "inception_b2_1x1_2"
  type: "Convolution"
  bottom: "inception_b1_concat"
  top: "inception_b2_1x1_2"
  param {
    lr_mult: 1
    decay_mult: 1
  }
  convolution_param {
    bias_term: false
    num_output: 384
    pad: 0
    kernel_size: 1
    stride: 1
  }
}
layer {
  name: "inception_b2_1x1_2_scale"
  type: "Scale"
  bottom: "inception_b2_1x1_2"
  top: "inception_b2_1x1_2"
  scale_param {
    bias_term: true
  }
  param {
    lr_mult: 0.0
    decay_mult: 0.0
  }
  param {
    lr_mult: 0.0
    decay_mult: 0.0
  }
}
layer {
  name: "inception_b2_1x1_2_relu"
  type: "ReLU"
  bottom: "inception_b2_1x1_2"
  top: "inception_b2_1x1_2"
}
layer {
  name: "inception_b2_1x7_reduce"
  type: "Convolution"
  bottom: "inception_b1_concat"
  top: "inception_b2_1x7_reduce"
  param {
    lr_mult: 1
    decay_mult: 1
  }
  convolution_param {
    bias_term: false
    num_output: 192
    pad: 0
    kernel_size: 1
    stride: 1
  }
}
layer {
  name: "inception_b2_1x7_reduce_scale"
  type: "Scale"
  bottom: "inception_b2_1x7_reduce"
  top: "inception_b2_1x7_reduce"
  scale_param {
    bias_term: true
  }
  param {
    lr_mult: 0.0
    decay_mult: 0.0
  }
  param {
    lr_mult: 0.0
    decay_mult: 0.0
  }
}
layer {
  name: "inception_b2_1x7_reduce_relu"
  type: "ReLU"
  bottom: "inception_b2_1x7_reduce"
  top: "inception_b2_1x7_reduce"
}
layer {
  name: "inception_b2_1x7"
  type: "Convolution"
  bottom: "inception_b2_1x7_reduce"
  top: "inception_b2_1x7"
  param {
    lr_mult: 1
    decay_mult: 1
  }
  convolution_param {
    bias_term: false
    num_output: 224
    stride: 1
    pad_h: 0
    pad_w: 3
    kernel_h: 1
    kernel_w: 7
  }
}
layer {
  name: "inception_b2_1x7_scale"
  type: "Scale"
  bottom: "inception_b2_1x7"
  top: "inception_b2_1x7"
  scale_param {
    bias_term: true
  }
  param {
    lr_mult: 0.0
    decay_mult: 0.0
  }
  param {
    lr_mult: 0.0
    decay_mult: 0.0
  }
}
layer {
  name: "inception_b2_1x7_relu"
  type: "ReLU"
  bottom: "inception_b2_1x7"
  top: "inception_b2_1x7"
}
layer {
  name: "inception_b2_7x1"
  type: "Convolution"
  bottom: "inception_b2_1x7"
  top: "inception_b2_7x1"
  param {
    lr_mult: 1
    decay_mult: 1
  }
  convolution_param {
    bias_term: false
    num_output: 256
    stride: 1
    pad_h: 3
    pad_w: 0
    kernel_h: 7
    kernel_w: 1
  }
}
layer {
  name: "inception_b2_7x1_scale"
  type: "Scale"
  bottom: "inception_b2_7x1"
  top: "inception_b2_7x1"
  scale_param {
    bias_term: true
  }
  param {
    lr_mult: 0.0
    decay_mult: 0.0
  }
  param {
    lr_mult: 0.0
    decay_mult: 0.0
  }
}
layer {
  name: "inception_b2_7x1_relu"
  type: "ReLU"
  bottom: "inception_b2_7x1"
  top: "inception_b2_7x1"
}
layer {
  name: "inception_b2_7x1_2_reduce"
  type: "Convolution"
  bottom: "inception_b1_concat"
  top: "inception_b2_7x1_2_reduce"
  param {
    lr_mult: 1
    decay_mult: 1
  }
  convolution_param {
    bias_term: false
    num_output: 192
    pad: 0
    kernel_size: 1
    stride: 1
  }
}
layer {
  name: "inception_b2_7x1_2_reduce_scale"
  type: "Scale"
  bottom: "inception_b2_7x1_2_reduce"
  top: "inception_b2_7x1_2_reduce"
  scale_param {
    bias_term: true
  }
  param {
    lr_mult: 0.0
    decay_mult: 0.0
  }
  param {
    lr_mult: 0.0
    decay_mult: 0.0
  }
}
layer {
  name: "inception_b2_7x1_2_reduce_relu"
  type: "ReLU"
  bottom: "inception_b2_7x1_2_reduce"
  top: "inception_b2_7x1_2_reduce"
}
layer {
  name: "inception_b2_7x1_2"
  type: "Convolution"
  bottom: "inception_b2_7x1_2_reduce"
  top: "inception_b2_7x1_2"
  param {
    lr_mult: 1
    decay_mult: 1
  }
  convolution_param {
    bias_term: false
    num_output: 192
    stride: 1
    pad_h: 3
    pad_w: 0
    kernel_h: 7
    kernel_w: 1
  }
}
layer {
  name: "inception_b2_7x1_2_scale"
  type: "Scale"
  bottom: "inception_b2_7x1_2"
  top: "inception_b2_7x1_2"
  scale_param {
    bias_term: true
  }
  param {
    lr_mult: 0.0
    decay_mult: 0.0
  }
  param {
    lr_mult: 0.0
    decay_mult: 0.0
  }
}
layer {
  name: "inception_b2_7x1_2_relu"
  type: "ReLU"
  bottom: "inception_b2_7x1_2"
  top: "inception_b2_7x1_2"
}
layer {
  name: "inception_b2_1x7_2"
  type: "Convolution"
  bottom: "inception_b2_7x1_2"
  top: "inception_b2_1x7_2"
  param {
    lr_mult: 1
    decay_mult: 1
  }
  convolution_param {
    bias_term: false
    num_output: 224
    stride: 1
    pad_h: 0
    pad_w: 3
    kernel_h: 1
    kernel_w: 7
  }
}
layer {
  name: "inception_b2_1x7_2_scale"
  type: "Scale"
  bottom: "inception_b2_1x7_2"
  top: "inception_b2_1x7_2"
  scale_param {
    bias_term: true
  }
  param {
    lr_mult: 0.0
    decay_mult: 0.0
  }
  param {
    lr_mult: 0.0
    decay_mult: 0.0
  }
}
layer {
  name: "inception_b2_1x7_2_relu"
  type: "ReLU"
  bottom: "inception_b2_1x7_2"
  top: "inception_b2_1x7_2"
}
layer {
  name: "inception_b2_7x1_3"
  type: "Convolution"
  bottom: "inception_b2_1x7_2"
  top: "inception_b2_7x1_3"
  param {
    lr_mult: 1
    decay_mult: 1
  }
  convolution_param {
    bias_term: false
    num_output: 224
    stride: 1
    pad_h: 3
    pad_w: 0
    kernel_h: 7
    kernel_w: 1
  }
}
layer {
  name: "inception_b2_7x1_3_scale"
  type: "Scale"
  bottom: "inception_b2_7x1_3"
  top: "inception_b2_7x1_3"
  scale_param {
    bias_term: true
  }
  param {
    lr_mult: 0.0
    decay_mult: 0.0
  }
  param {
    lr_mult: 0.0
    decay_mult: 0.0
  }
}
layer {
  name: "inception_b2_7x1_3_relu"
  type: "ReLU"
  bottom: "inception_b2_7x1_3"
  top: "inception_b2_7x1_3"
}
layer {
  name: "inception_b2_1x7_3"
  type: "Convolution"
  bottom: "inception_b2_7x1_3"
  top: "inception_b2_1x7_3"
  param {
    lr_mult: 1
    decay_mult: 1
  }
  convolution_param {
    bias_term: false
    num_output: 256
    stride: 1
    pad_h: 0
    pad_w: 3
    kernel_h: 1
    kernel_w: 7
  }
}
layer {
  name: "inception_b2_1x7_3_scale"
  type: "Scale"
  bottom: "inception_b2_1x7_3"
  top: "inception_b2_1x7_3"
  scale_param {
    bias_term: true
  }
  param {
    lr_mult: 0.0
    decay_mult: 0.0
  }
  param {
    lr_mult: 0.0
    decay_mult: 0.0
  }
}
layer {
  name: "inception_b2_1x7_3_relu"
  type: "ReLU"
  bottom: "inception_b2_1x7_3"
  top: "inception_b2_1x7_3"
}
layer {
  name: "inception_b2_pool_ave"
  type: "Pooling"
  bottom: "inception_b1_concat"
  top: "inception_b2_pool_ave"
  pooling_param {
    pool: AVE
    kernel_size: 3
    stride: 1
    pad: 1
  }
}
layer {
  name: "inception_b2_1x1"
  type: "Convolution"
  bottom: "inception_b2_pool_ave"
  top: "inception_b2_1x1"
  param {
    lr_mult: 1
    decay_mult: 1
  }
  convolution_param {
    bias_term: false
    num_output: 128
    pad: 0
    kernel_size: 1
    stride: 1
  }
}
layer {
  name: "inception_b2_1x1_scale"
  type: "Scale"
  bottom: "inception_b2_1x1"
  top: "inception_b2_1x1"
  scale_param {
    bias_term: true
  }
  param {
    lr_mult: 0.0
    decay_mult: 0.0
  }
  param {
    lr_mult: 0.0
    decay_mult: 0.0
  }
}
layer {
  name: "inception_b2_1x1_relu"
  type: "ReLU"
  bottom: "inception_b2_1x1"
  top: "inception_b2_1x1"
}
layer {
  name: "inception_b2_concat"
  type: "Concat"
  bottom: "inception_b2_1x1_2"
  bottom: "inception_b2_7x1"
  bottom: "inception_b2_1x7_3"
  bottom: "inception_b2_1x1"
  top: "inception_b2_concat"
}
layer {
  name: "inception_b3_1x1_2"
  type: "Convolution"
  bottom: "inception_b2_concat"
  top: "inception_b3_1x1_2"
  param {
    lr_mult: 1
    decay_mult: 1
  }
  convolution_param {
    bias_term: false
    num_output: 384
    pad: 0
    kernel_size: 1
    stride: 1
  }
}
layer {
  name: "inception_b3_1x1_2_scale"
  type: "Scale"
  bottom: "inception_b3_1x1_2"
  top: "inception_b3_1x1_2"
  scale_param {
    bias_term: true
  }
  param {
    lr_mult: 0.0
    decay_mult: 0.0
  }
  param {
    lr_mult: 0.0
    decay_mult: 0.0
  }
}
layer {
  name: "inception_b3_1x1_2_relu"
  type: "ReLU"
  bottom: "inception_b3_1x1_2"
  top: "inception_b3_1x1_2"
}
layer {
  name: "inception_b3_1x7_reduce"
  type: "Convolution"
  bottom: "inception_b2_concat"
  top: "inception_b3_1x7_reduce"
  param {
    lr_mult: 1
    decay_mult: 1
  }
  convolution_param {
    bias_term: false
    num_output: 192
    pad: 0
    kernel_size: 1
    stride: 1
  }
}
layer {
  name: "inception_b3_1x7_reduce_scale"
  type: "Scale"
  bottom: "inception_b3_1x7_reduce"
  top: "inception_b3_1x7_reduce"
  scale_param {
    bias_term: true
  }
  param {
    lr_mult: 0.0
    decay_mult: 0.0
  }
  param {
    lr_mult: 0.0
    decay_mult: 0.0
  }
}
layer {
  name: "inception_b3_1x7_reduce_relu"
  type: "ReLU"
  bottom: "inception_b3_1x7_reduce"
  top: "inception_b3_1x7_reduce"
}
layer {
  name: "inception_b3_1x7"
  type: "Convolution"
  bottom: "inception_b3_1x7_reduce"
  top: "inception_b3_1x7"
  param {
    lr_mult: 1
    decay_mult: 1
  }
  convolution_param {
    bias_term: false
    num_output: 224
    stride: 1
    pad_h: 0
    pad_w: 3
    kernel_h: 1
    kernel_w: 7
  }
}
layer {
  name: "inception_b3_1x7_scale"
  type: "Scale"
  bottom: "inception_b3_1x7"
  top: "inception_b3_1x7"
  scale_param {
    bias_term: true
  }
  param {
    lr_mult: 0.0
    decay_mult: 0.0
  }
  param {
    lr_mult: 0.0
    decay_mult: 0.0
  }
}
layer {
  name: "inception_b3_1x7_relu"
  type: "ReLU"
  bottom: "inception_b3_1x7"
  top: "inception_b3_1x7"
}
layer {
  name: "inception_b3_7x1"
  type: "Convolution"
  bottom: "inception_b3_1x7"
  top: "inception_b3_7x1"
  param {
    lr_mult: 1
    decay_mult: 1
  }
  convolution_param {
    bias_term: false
    num_output: 256
    stride: 1
    pad_h: 3
    pad_w: 0
    kernel_h: 7
    kernel_w: 1
  }
}
layer {
  name: "inception_b3_7x1_scale"
  type: "Scale"
  bottom: "inception_b3_7x1"
  top: "inception_b3_7x1"
  scale_param {
    bias_term: true
  }
  param {
    lr_mult: 0.0
    decay_mult: 0.0
  }
  param {
    lr_mult: 0.0
    decay_mult: 0.0
  }
}
layer {
  name: "inception_b3_7x1_relu"
  type: "ReLU"
  bottom: "inception_b3_7x1"
  top: "inception_b3_7x1"
}
layer {
  name: "inception_b3_7x1_2_reduce"
  type: "Convolution"
  bottom: "inception_b2_concat"
  top: "inception_b3_7x1_2_reduce"
  param {
    lr_mult: 1
    decay_mult: 1
  }
  convolution_param {
    bias_term: false
    num_output: 192
    pad: 0
    kernel_size: 1
    stride: 1
  }
}
layer {
  name: "inception_b3_7x1_2_reduce_scale"
  type: "Scale"
  bottom: "inception_b3_7x1_2_reduce"
  top: "inception_b3_7x1_2_reduce"
  scale_param {
    bias_term: true
  }
  param {
    lr_mult: 0.0
    decay_mult: 0.0
  }
  param {
    lr_mult: 0.0
    decay_mult: 0.0
  }
}
layer {
  name: "inception_b3_7x1_2_reduce_relu"
  type: "ReLU"
  bottom: "inception_b3_7x1_2_reduce"
  top: "inception_b3_7x1_2_reduce"
}
layer {
  name: "inception_b3_7x1_2"
  type: "Convolution"
  bottom: "inception_b3_7x1_2_reduce"
  top: "inception_b3_7x1_2"
  param {
    lr_mult: 1
    decay_mult: 1
  }
  convolution_param {
    bias_term: false
    num_output: 192
    stride: 1
    pad_h: 3
    pad_w: 0
    kernel_h: 7
    kernel_w: 1
  }
}
layer {
  name: "inception_b3_7x1_2_scale"
  type: "Scale"
  bottom: "inception_b3_7x1_2"
  top: "inception_b3_7x1_2"
  scale_param {
    bias_term: true
  }
  param {
    lr_mult: 0.0
    decay_mult: 0.0
  }
  param {
    lr_mult: 0.0
    decay_mult: 0.0
  }
}
layer {
  name: "inception_b3_7x1_2_relu"
  type: "ReLU"
  bottom: "inception_b3_7x1_2"
  top: "inception_b3_7x1_2"
}
layer {
  name: "inception_b3_1x7_2"
  type: "Convolution"
  bottom: "inception_b3_7x1_2"
  top: "inception_b3_1x7_2"
  param {
    lr_mult: 1
    decay_mult: 1
  }
  convolution_param {
    bias_term: false
    num_output: 224
    stride: 1
    pad_h: 0
    pad_w: 3
    kernel_h: 1
    kernel_w: 7
  }
}
layer {
  name: "inception_b3_1x7_2_scale"
  type: "Scale"
  bottom: "inception_b3_1x7_2"
  top: "inception_b3_1x7_2"
  scale_param {
    bias_term: true
  }
  param {
    lr_mult: 0.0
    decay_mult: 0.0
  }
  param {
    lr_mult: 0.0
    decay_mult: 0.0
  }
}
layer {
  name: "inception_b3_1x7_2_relu"
  type: "ReLU"
  bottom: "inception_b3_1x7_2"
  top: "inception_b3_1x7_2"
}
layer {
  name: "inception_b3_7x1_3"
  type: "Convolution"
  bottom: "inception_b3_1x7_2"
  top: "inception_b3_7x1_3"
  param {
    lr_mult: 1
    decay_mult: 1
  }
  convolution_param {
    bias_term: false
    num_output: 224
    stride: 1
    pad_h: 3
    pad_w: 0
    kernel_h: 7
    kernel_w: 1
  }
}
layer {
  name: "inception_b3_7x1_3_scale"
  type: "Scale"
  bottom: "inception_b3_7x1_3"
  top: "inception_b3_7x1_3"
  scale_param {
    bias_term: true
  }
  param {
    lr_mult: 0.0
    decay_mult: 0.0
  }
  param {
    lr_mult: 0.0
    decay_mult: 0.0
  }
}
layer {
  name: "inception_b3_7x1_3_relu"
  type: "ReLU"
  bottom: "inception_b3_7x1_3"
  top: "inception_b3_7x1_3"
}
layer {
  name: "inception_b3_1x7_3"
  type: "Convolution"
  bottom: "inception_b3_7x1_3"
  top: "inception_b3_1x7_3"
  param {
    lr_mult: 1
    decay_mult: 1
  }
  convolution_param {
    bias_term: false
    num_output: 256
    stride: 1
    pad_h: 0
    pad_w: 3
    kernel_h: 1
    kernel_w: 7
  }
}
layer {
  name: "inception_b3_1x7_3_scale"
  type: "Scale"
  bottom: "inception_b3_1x7_3"
  top: "inception_b3_1x7_3"
  scale_param {
    bias_term: true
  }
  param {
    lr_mult: 0.0
    decay_mult: 0.0
  }
  param {
    lr_mult: 0.0
    decay_mult: 0.0
  }
}
layer {
  name: "inception_b3_1x7_3_relu"
  type: "ReLU"
  bottom: "inception_b3_1x7_3"
  top: "inception_b3_1x7_3"
}
layer {
  name: "inception_b3_pool_ave"
  type: "Pooling"
  bottom: "inception_b2_concat"
  top: "inception_b3_pool_ave"
  pooling_param {
    pool: AVE
    kernel_size: 3
    stride: 1
    pad: 1
  }
}
layer {
  name: "inception_b3_1x1"
  type: "Convolution"
  bottom: "inception_b3_pool_ave"
  top: "inception_b3_1x1"
  param {
    lr_mult: 1
    decay_mult: 1
  }
  convolution_param {
    bias_term: false
    num_output: 128
    pad: 0
    kernel_size: 1
    stride: 1
  }
}
layer {
  name: "inception_b3_1x1_scale"
  type: "Scale"
  bottom: "inception_b3_1x1"
  top: "inception_b3_1x1"
  scale_param {
    bias_term: true
  }
  param {
    lr_mult: 0.0
    decay_mult: 0.0
  }
  param {
    lr_mult: 0.0
    decay_mult: 0.0
  }
}
layer {
  name: "inception_b3_1x1_relu"
  type: "ReLU"
  bottom: "inception_b3_1x1"
  top: "inception_b3_1x1"
}
layer {
  name: "inception_b3_concat"
  type: "Concat"
  bottom: "inception_b3_1x1_2"
  bottom: "inception_b3_7x1"
  bottom: "inception_b3_1x7_3"
  bottom: "inception_b3_1x1"
  top: "inception_b3_concat"
}
layer {
  name: "inception_b4_1x1_2"
  type: "Convolution"
  bottom: "inception_b3_concat"
  top: "inception_b4_1x1_2"
  param {
    lr_mult: 1
    decay_mult: 1
  }
  convolution_param {
    bias_term: false
    num_output: 384
    pad: 0
    kernel_size: 1
    stride: 1
  }
}
layer {
  name: "inception_b4_1x1_2_scale"
  type: "Scale"
  bottom: "inception_b4_1x1_2"
  top: "inception_b4_1x1_2"
  scale_param {
    bias_term: true
  }
  param {
    lr_mult: 0.0
    decay_mult: 0.0
  }
  param {
    lr_mult: 0.0
    decay_mult: 0.0
  }
}
layer {
  name: "inception_b4_1x1_2_relu"
  type: "ReLU"
  bottom: "inception_b4_1x1_2"
  top: "inception_b4_1x1_2"
}
layer {
  name: "inception_b4_1x7_reduce"
  type: "Convolution"
  bottom: "inception_b3_concat"
  top: "inception_b4_1x7_reduce"
  param {
    lr_mult: 1
    decay_mult: 1
  }
  convolution_param {
    bias_term: false
    num_output: 192
    pad: 0
    kernel_size: 1
    stride: 1
  }
}
layer {
  name: "inception_b4_1x7_reduce_scale"
  type: "Scale"
  bottom: "inception_b4_1x7_reduce"
  top: "inception_b4_1x7_reduce"
  scale_param {
    bias_term: true
  }
  param {
    lr_mult: 0.0
    decay_mult: 0.0
  }
  param {
    lr_mult: 0.0
    decay_mult: 0.0
  }
}
layer {
  name: "inception_b4_1x7_reduce_relu"
  type: "ReLU"
  bottom: "inception_b4_1x7_reduce"
  top: "inception_b4_1x7_reduce"
}
layer {
  name: "inception_b4_1x7"
  type: "Convolution"
  bottom: "inception_b4_1x7_reduce"
  top: "inception_b4_1x7"
  param {
    lr_mult: 1
    decay_mult: 1
  }
  convolution_param {
    bias_term: false
    num_output: 224
    stride: 1
    pad_h: 0
    pad_w: 3
    kernel_h: 1
    kernel_w: 7
  }
}
layer {
  name: "inception_b4_1x7_scale"
  type: "Scale"
  bottom: "inception_b4_1x7"
  top: "inception_b4_1x7"
  scale_param {
    bias_term: true
  }
  param {
    lr_mult: 0.0
    decay_mult: 0.0
  }
  param {
    lr_mult: 0.0
    decay_mult: 0.0
  }
}
layer {
  name: "inception_b4_1x7_relu"
  type: "ReLU"
  bottom: "inception_b4_1x7"
  top: "inception_b4_1x7"
}
layer {
  name: "inception_b4_7x1"
  type: "Convolution"
  bottom: "inception_b4_1x7"
  top: "inception_b4_7x1"
  param {
    lr_mult: 1
    decay_mult: 1
  }
  convolution_param {
    bias_term: false
    num_output: 256
    stride: 1
    pad_h: 3
    pad_w: 0
    kernel_h: 7
    kernel_w: 1
  }
}
layer {
  name: "inception_b4_7x1_scale"
  type: "Scale"
  bottom: "inception_b4_7x1"
  top: "inception_b4_7x1"
  scale_param {
    bias_term: true
  }
  param {
    lr_mult: 0.0
    decay_mult: 0.0
  }
  param {
    lr_mult: 0.0
    decay_mult: 0.0
  }
}
layer {
  name: "inception_b4_7x1_relu"
  type: "ReLU"
  bottom: "inception_b4_7x1"
  top: "inception_b4_7x1"
}
layer {
  name: "inception_b4_7x1_2_reduce"
  type: "Convolution"
  bottom: "inception_b3_concat"
  top: "inception_b4_7x1_2_reduce"
  param {
    lr_mult: 1
    decay_mult: 1
  }
  convolution_param {
    bias_term: false
    num_output: 192
    pad: 0
    kernel_size: 1
    stride: 1
  }
}
layer {
  name: "inception_b4_7x1_2_reduce_scale"
  type: "Scale"
  bottom: "inception_b4_7x1_2_reduce"
  top: "inception_b4_7x1_2_reduce"
  scale_param {
    bias_term: true
  }
  param {
    lr_mult: 0.0
    decay_mult: 0.0
  }
  param {
    lr_mult: 0.0
    decay_mult: 0.0
  }
}
layer {
  name: "inception_b4_7x1_2_reduce_relu"
  type: "ReLU"
  bottom: "inception_b4_7x1_2_reduce"
  top: "inception_b4_7x1_2_reduce"
}
layer {
  name: "inception_b4_7x1_2"
  type: "Convolution"
  bottom: "inception_b4_7x1_2_reduce"
  top: "inception_b4_7x1_2"
  param {
    lr_mult: 1
    decay_mult: 1
  }
  convolution_param {
    bias_term: false
    num_output: 192
    stride: 1
    pad_h: 3
    pad_w: 0
    kernel_h: 7
    kernel_w: 1
  }
}
layer {
  name: "inception_b4_7x1_2_scale"
  type: "Scale"
  bottom: "inception_b4_7x1_2"
  top: "inception_b4_7x1_2"
  scale_param {
    bias_term: true
  }
  param {
    lr_mult: 0.0
    decay_mult: 0.0
  }
  param {
    lr_mult: 0.0
    decay_mult: 0.0
  }
}
layer {
  name: "inception_b4_7x1_2_relu"
  type: "ReLU"
  bottom: "inception_b4_7x1_2"
  top: "inception_b4_7x1_2"
}
layer {
  name: "inception_b4_1x7_2"
  type: "Convolution"
  bottom: "inception_b4_7x1_2"
  top: "inception_b4_1x7_2"
  param {
    lr_mult: 1
    decay_mult: 1
  }
  convolution_param {
    bias_term: false
    num_output: 224
    stride: 1
    pad_h: 0
    pad_w: 3
    kernel_h: 1
    kernel_w: 7
  }
}
layer {
  name: "inception_b4_1x7_2_scale"
  type: "Scale"
  bottom: "inception_b4_1x7_2"
  top: "inception_b4_1x7_2"
  scale_param {
    bias_term: true
  }
  param {
    lr_mult: 0.0
    decay_mult: 0.0
  }
  param {
    lr_mult: 0.0
    decay_mult: 0.0
  }
}
layer {
  name: "inception_b4_1x7_2_relu"
  type: "ReLU"
  bottom: "inception_b4_1x7_2"
  top: "inception_b4_1x7_2"
}
layer {
  name: "inception_b4_7x1_3"
  type: "Convolution"
  bottom: "inception_b4_1x7_2"
  top: "inception_b4_7x1_3"
  param {
    lr_mult: 1
    decay_mult: 1
  }
  convolution_param {
    bias_term: false
    num_output: 224
    stride: 1
    pad_h: 3
    pad_w: 0
    kernel_h: 7
    kernel_w: 1
  }
}
layer {
  name: "inception_b4_7x1_3_scale"
  type: "Scale"
  bottom: "inception_b4_7x1_3"
  top: "inception_b4_7x1_3"
  scale_param {
    bias_term: true
  }
  param {
    lr_mult: 0.0
    decay_mult: 0.0
  }
  param {
    lr_mult: 0.0
    decay_mult: 0.0
  }
}
layer {
  name: "inception_b4_7x1_3_relu"
  type: "ReLU"
  bottom: "inception_b4_7x1_3"
  top: "inception_b4_7x1_3"
}
layer {
  name: "inception_b4_1x7_3"
  type: "Convolution"
  bottom: "inception_b4_7x1_3"
  top: "inception_b4_1x7_3"
  param {
    lr_mult: 1
    decay_mult: 1
  }
  convolution_param {
    bias_term: false
    num_output: 256
    stride: 1
    pad_h: 0
    pad_w: 3
    kernel_h: 1
    kernel_w: 7
  }
}
layer {
  name: "inception_b4_1x7_3_scale"
  type: "Scale"
  bottom: "inception_b4_1x7_3"
  top: "inception_b4_1x7_3"
  scale_param {
    bias_term: true
  }
  param {
    lr_mult: 0.0
    decay_mult: 0.0
  }
  param {
    lr_mult: 0.0
    decay_mult: 0.0
  }
}
layer {
  name: "inception_b4_1x7_3_relu"
  type: "ReLU"
  bottom: "inception_b4_1x7_3"
  top: "inception_b4_1x7_3"
}
layer {
  name: "inception_b4_pool_ave"
  type: "Pooling"
  bottom: "inception_b3_concat"
  top: "inception_b4_pool_ave"
  pooling_param {
    pool: AVE
    kernel_size: 3
    stride: 1
    pad: 1
  }
}
layer {
  name: "inception_b4_1x1"
  type: "Convolution"
  bottom: "inception_b4_pool_ave"
  top: "inception_b4_1x1"
  param {
    lr_mult: 1
    decay_mult: 1
  }
  convolution_param {
    bias_term: false
    num_output: 128
    pad: 0
    kernel_size: 1
    stride: 1
  }
}
layer {
  name: "inception_b4_1x1_scale"
  type: "Scale"
  bottom: "inception_b4_1x1"
  top: "inception_b4_1x1"
  scale_param {
    bias_term: true
  }
  param {
    lr_mult: 0.0
    decay_mult: 0.0
  }
  param {
    lr_mult: 0.0
    decay_mult: 0.0
  }
}
layer {
  name: "inception_b4_1x1_relu"
  type: "ReLU"
  bottom: "inception_b4_1x1"
  top: "inception_b4_1x1"
}
layer {
  name: "inception_b4_concat"
  type: "Concat"
  bottom: "inception_b4_1x1_2"
  bottom: "inception_b4_7x1"
  bottom: "inception_b4_1x7_3"
  bottom: "inception_b4_1x1"
  top: "inception_b4_concat"
}
layer {
  name: "inception_b5_1x1_2"
  type: "Convolution"
  bottom: "inception_b4_concat"
  top: "inception_b5_1x1_2"
  param {
    lr_mult: 1
    decay_mult: 1
  }
  convolution_param {
    bias_term: false
    num_output: 384
    pad: 0
    kernel_size: 1
    stride: 1
  }
}
layer {
  name: "inception_b5_1x1_2_scale"
  type: "Scale"
  bottom: "inception_b5_1x1_2"
  top: "inception_b5_1x1_2"
  scale_param {
    bias_term: true
  }
  param {
    lr_mult: 0.0
    decay_mult: 0.0
  }
  param {
    lr_mult: 0.0
    decay_mult: 0.0
  }
}
layer {
  name: "inception_b5_1x1_2_relu"
  type: "ReLU"
  bottom: "inception_b5_1x1_2"
  top: "inception_b5_1x1_2"
}
layer {
  name: "inception_b5_1x7_reduce"
  type: "Convolution"
  bottom: "inception_b4_concat"
  top: "inception_b5_1x7_reduce"
  param {
    lr_mult: 1
    decay_mult: 1
  }
  convolution_param {
    bias_term: false
    num_output: 192
    pad: 0
    kernel_size: 1
    stride: 1
  }
}
layer {
  name: "inception_b5_1x7_reduce_scale"
  type: "Scale"
  bottom: "inception_b5_1x7_reduce"
  top: "inception_b5_1x7_reduce"
  scale_param {
    bias_term: true
  }
  param {
    lr_mult: 0.0
    decay_mult: 0.0
  }
  param {
    lr_mult: 0.0
    decay_mult: 0.0
  }
}
layer {
  name: "inception_b5_1x7_reduce_relu"
  type: "ReLU"
  bottom: "inception_b5_1x7_reduce"
  top: "inception_b5_1x7_reduce"
}
layer {
  name: "inception_b5_1x7"
  type: "Convolution"
  bottom: "inception_b5_1x7_reduce"
  top: "inception_b5_1x7"
  param {
    lr_mult: 1
    decay_mult: 1
  }
  convolution_param {
    bias_term: false
    num_output: 224
    stride: 1
    pad_h: 0
    pad_w: 3
    kernel_h: 1
    kernel_w: 7
  }
}
layer {
  name: "inception_b5_1x7_scale"
  type: "Scale"
  bottom: "inception_b5_1x7"
  top: "inception_b5_1x7"
  scale_param {
    bias_term: true
  }
  param {
    lr_mult: 0.0
    decay_mult: 0.0
  }
  param {
    lr_mult: 0.0
    decay_mult: 0.0
  }
}
layer {
  name: "inception_b5_1x7_relu"
  type: "ReLU"
  bottom: "inception_b5_1x7"
  top: "inception_b5_1x7"
}
layer {
  name: "inception_b5_7x1"
  type: "Convolution"
  bottom: "inception_b5_1x7"
  top: "inception_b5_7x1"
  param {
    lr_mult: 1
    decay_mult: 1
  }
  convolution_param {
    bias_term: false
    num_output: 256
    stride: 1
    pad_h: 3
    pad_w: 0
    kernel_h: 7
    kernel_w: 1
  }
}
layer {
  name: "inception_b5_7x1_scale"
  type: "Scale"
  bottom: "inception_b5_7x1"
  top: "inception_b5_7x1"
  scale_param {
    bias_term: true
  }
  param {
    lr_mult: 0.0
    decay_mult: 0.0
  }
  param {
    lr_mult: 0.0
    decay_mult: 0.0
  }
}
layer {
  name: "inception_b5_7x1_relu"
  type: "ReLU"
  bottom: "inception_b5_7x1"
  top: "inception_b5_7x1"
}
layer {
  name: "inception_b5_7x1_2_reduce"
  type: "Convolution"
  bottom: "inception_b4_concat"
  top: "inception_b5_7x1_2_reduce"
  param {
    lr_mult: 1
    decay_mult: 1
  }
  convolution_param {
    bias_term: false
    num_output: 192
    pad: 0
    kernel_size: 1
    stride: 1
  }
}
layer {
  name: "inception_b5_7x1_2_reduce_scale"
  type: "Scale"
  bottom: "inception_b5_7x1_2_reduce"
  top: "inception_b5_7x1_2_reduce"
  scale_param {
    bias_term: true
  }
  param {
    lr_mult: 0.0
    decay_mult: 0.0
  }
  param {
    lr_mult: 0.0
    decay_mult: 0.0
  }
}
layer {
  name: "inception_b5_7x1_2_reduce_relu"
  type: "ReLU"
  bottom: "inception_b5_7x1_2_reduce"
  top: "inception_b5_7x1_2_reduce"
}
layer {
  name: "inception_b5_7x1_2"
  type: "Convolution"
  bottom: "inception_b5_7x1_2_reduce"
  top: "inception_b5_7x1_2"
  param {
    lr_mult: 1
    decay_mult: 1
  }
  convolution_param {
    bias_term: false
    num_output: 192
    stride: 1
    pad_h: 3
    pad_w: 0
    kernel_h: 7
    kernel_w: 1
  }
}
layer {
  name: "inception_b5_7x1_2_scale"
  type: "Scale"
  bottom: "inception_b5_7x1_2"
  top: "inception_b5_7x1_2"
  scale_param {
    bias_term: true
  }
  param {
    lr_mult: 0.0
    decay_mult: 0.0
  }
  param {
    lr_mult: 0.0
    decay_mult: 0.0
  }
}
layer {
  name: "inception_b5_7x1_2_relu"
  type: "ReLU"
  bottom: "inception_b5_7x1_2"
  top: "inception_b5_7x1_2"
}
layer {
  name: "inception_b5_1x7_2"
  type: "Convolution"
  bottom: "inception_b5_7x1_2"
  top: "inception_b5_1x7_2"
  param {
    lr_mult: 1
    decay_mult: 1
  }
  convolution_param {
    bias_term: false
    num_output: 224
    stride: 1
    pad_h: 0
    pad_w: 3
    kernel_h: 1
    kernel_w: 7
  }
}
layer {
  name: "inception_b5_1x7_2_scale"
  type: "Scale"
  bottom: "inception_b5_1x7_2"
  top: "inception_b5_1x7_2"
  scale_param {
    bias_term: true
  }
  param {
    lr_mult: 0.0
    decay_mult: 0.0
  }
  param {
    lr_mult: 0.0
    decay_mult: 0.0
  }
}
layer {
  name: "inception_b5_1x7_2_relu"
  type: "ReLU"
  bottom: "inception_b5_1x7_2"
  top: "inception_b5_1x7_2"
}
layer {
  name: "inception_b5_7x1_3"
  type: "Convolution"
  bottom: "inception_b5_1x7_2"
  top: "inception_b5_7x1_3"
  param {
    lr_mult: 1
    decay_mult: 1
  }
  convolution_param {
    bias_term: false
    num_output: 224
    stride: 1
    pad_h: 3
    pad_w: 0
    kernel_h: 7
    kernel_w: 1
  }
}
layer {
  name: "inception_b5_7x1_3_scale"
  type: "Scale"
  bottom: "inception_b5_7x1_3"
  top: "inception_b5_7x1_3"
  scale_param {
    bias_term: true
  }
  param {
    lr_mult: 0.0
    decay_mult: 0.0
  }
  param {
    lr_mult: 0.0
    decay_mult: 0.0
  }
}
layer {
  name: "inception_b5_7x1_3_relu"
  type: "ReLU"
  bottom: "inception_b5_7x1_3"
  top: "inception_b5_7x1_3"
}
layer {
  name: "inception_b5_1x7_3"
  type: "Convolution"
  bottom: "inception_b5_7x1_3"
  top: "inception_b5_1x7_3"
  param {
    lr_mult: 1
    decay_mult: 1
  }
  convolution_param {
    bias_term: false
    num_output: 256
    stride: 1
    pad_h: 0
    pad_w: 3
    kernel_h: 1
    kernel_w: 7
  }
}
layer {
  name: "inception_b5_1x7_3_scale"
  type: "Scale"
  bottom: "inception_b5_1x7_3"
  top: "inception_b5_1x7_3"
  scale_param {
    bias_term: true
  }
  param {
    lr_mult: 0.0
    decay_mult: 0.0
  }
  param {
    lr_mult: 0.0
    decay_mult: 0.0
  }
}
layer {
  name: "inception_b5_1x7_3_relu"
  type: "ReLU"
  bottom: "inception_b5_1x7_3"
  top: "inception_b5_1x7_3"
}
layer {
  name: "inception_b5_pool_ave"
  type: "Pooling"
  bottom: "inception_b4_concat"
  top: "inception_b5_pool_ave"
  pooling_param {
    pool: AVE
    kernel_size: 3
    stride: 1
    pad: 1
  }
}
layer {
  name: "inception_b5_1x1"
  type: "Convolution"
  bottom: "inception_b5_pool_ave"
  top: "inception_b5_1x1"
  param {
    lr_mult: 1
    decay_mult: 1
  }
  convolution_param {
    bias_term: false
    num_output: 128
    pad: 0
    kernel_size: 1
    stride: 1
  }
}
layer {
  name: "inception_b5_1x1_scale"
  type: "Scale"
  bottom: "inception_b5_1x1"
  top: "inception_b5_1x1"
  scale_param {
    bias_term: true
  }
  param {
    lr_mult: 0.0
    decay_mult: 0.0
  }
  param {
    lr_mult: 0.0
    decay_mult: 0.0
  }
}
layer {
  name: "inception_b5_1x1_relu"
  type: "ReLU"
  bottom: "inception_b5_1x1"
  top: "inception_b5_1x1"
}
layer {
  name: "inception_b5_concat"
  type: "Concat"
  bottom: "inception_b5_1x1_2"
  bottom: "inception_b5_7x1"
  bottom: "inception_b5_1x7_3"
  bottom: "inception_b5_1x1"
  top: "inception_b5_concat"
}
layer {
  name: "inception_b6_1x1_2"
  type: "Convolution"
  bottom: "inception_b5_concat"
  top: "inception_b6_1x1_2"
  param {
    lr_mult: 1
    decay_mult: 1
  }
  convolution_param {
    bias_term: false
    num_output: 384
    pad: 0
    kernel_size: 1
    stride: 1
  }
}
layer {
  name: "inception_b6_1x1_2_scale"
  type: "Scale"
  bottom: "inception_b6_1x1_2"
  top: "inception_b6_1x1_2"
  scale_param {
    bias_term: true
  }
  param {
    lr_mult: 0.0
    decay_mult: 0.0
  }
  param {
    lr_mult: 0.0
    decay_mult: 0.0
  }
}
layer {
  name: "inception_b6_1x1_2_relu"
  type: "ReLU"
  bottom: "inception_b6_1x1_2"
  top: "inception_b6_1x1_2"
}
layer {
  name: "inception_b6_1x7_reduce"
  type: "Convolution"
  bottom: "inception_b5_concat"
  top: "inception_b6_1x7_reduce"
  param {
    lr_mult: 1
    decay_mult: 1
  }
  convolution_param {
    bias_term: false
    num_output: 192
    pad: 0
    kernel_size: 1
    stride: 1
  }
}
layer {
  name: "inception_b6_1x7_reduce_scale"
  type: "Scale"
  bottom: "inception_b6_1x7_reduce"
  top: "inception_b6_1x7_reduce"
  scale_param {
    bias_term: true
  }
  param {
    lr_mult: 0.0
    decay_mult: 0.0
  }
  param {
    lr_mult: 0.0
    decay_mult: 0.0
  }
}
layer {
  name: "inception_b6_1x7_reduce_relu"
  type: "ReLU"
  bottom: "inception_b6_1x7_reduce"
  top: "inception_b6_1x7_reduce"
}
layer {
  name: "inception_b6_1x7"
  type: "Convolution"
  bottom: "inception_b6_1x7_reduce"
  top: "inception_b6_1x7"
  param {
    lr_mult: 1
    decay_mult: 1
  }
  convolution_param {
    bias_term: false
    num_output: 224
    stride: 1
    pad_h: 0
    pad_w: 3
    kernel_h: 1
    kernel_w: 7
  }
}
layer {
  name: "inception_b6_1x7_scale"
  type: "Scale"
  bottom: "inception_b6_1x7"
  top: "inception_b6_1x7"
  scale_param {
    bias_term: true
  }
  param {
    lr_mult: 0.0
    decay_mult: 0.0
  }
  param {
    lr_mult: 0.0
    decay_mult: 0.0
  }
}
layer {
  name: "inception_b6_1x7_relu"
  type: "ReLU"
  bottom: "inception_b6_1x7"
  top: "inception_b6_1x7"
}
layer {
  name: "inception_b6_7x1"
  type: "Convolution"
  bottom: "inception_b6_1x7"
  top: "inception_b6_7x1"
  param {
    lr_mult: 1
    decay_mult: 1
  }
  convolution_param {
    bias_term: false
    num_output: 256
    stride: 1
    pad_h: 3
    pad_w: 0
    kernel_h: 7
    kernel_w: 1
  }
}
layer {
  name: "inception_b6_7x1_scale"
  type: "Scale"
  bottom: "inception_b6_7x1"
  top: "inception_b6_7x1"
  scale_param {
    bias_term: true
  }
  param {
    lr_mult: 0.0
    decay_mult: 0.0
  }
  param {
    lr_mult: 0.0
    decay_mult: 0.0
  }
}
layer {
  name: "inception_b6_7x1_relu"
  type: "ReLU"
  bottom: "inception_b6_7x1"
  top: "inception_b6_7x1"
}
layer {
  name: "inception_b6_7x1_2_reduce"
  type: "Convolution"
  bottom: "inception_b5_concat"
  top: "inception_b6_7x1_2_reduce"
  param {
    lr_mult: 1
    decay_mult: 1
  }
  convolution_param {
    bias_term: false
    num_output: 192
    pad: 0
    kernel_size: 1
    stride: 1
  }
}
layer {
  name: "inception_b6_7x1_2_reduce_scale"
  type: "Scale"
  bottom: "inception_b6_7x1_2_reduce"
  top: "inception_b6_7x1_2_reduce"
  scale_param {
    bias_term: true
  }
  param {
    lr_mult: 0.0
    decay_mult: 0.0
  }
  param {
    lr_mult: 0.0
    decay_mult: 0.0
  }
}
layer {
  name: "inception_b6_7x1_2_reduce_relu"
  type: "ReLU"
  bottom: "inception_b6_7x1_2_reduce"
  top: "inception_b6_7x1_2_reduce"
}
layer {
  name: "inception_b6_7x1_2"
  type: "Convolution"
  bottom: "inception_b6_7x1_2_reduce"
  top: "inception_b6_7x1_2"
  param {
    lr_mult: 1
    decay_mult: 1
  }
  convolution_param {
    bias_term: false
    num_output: 192
    stride: 1
    pad_h: 3
    pad_w: 0
    kernel_h: 7
    kernel_w: 1
  }
}
layer {
  name: "inception_b6_7x1_2_scale"
  type: "Scale"
  bottom: "inception_b6_7x1_2"
  top: "inception_b6_7x1_2"
  scale_param {
    bias_term: true
  }
  param {
    lr_mult: 0.0
    decay_mult: 0.0
  }
  param {
    lr_mult: 0.0
    decay_mult: 0.0
  }
}
layer {
  name: "inception_b6_7x1_2_relu"
  type: "ReLU"
  bottom: "inception_b6_7x1_2"
  top: "inception_b6_7x1_2"
}
layer {
  name: "inception_b6_1x7_2"
  type: "Convolution"
  bottom: "inception_b6_7x1_2"
  top: "inception_b6_1x7_2"
  param {
    lr_mult: 1
    decay_mult: 1
  }
  convolution_param {
    bias_term: false
    num_output: 224
    stride: 1
    pad_h: 0
    pad_w: 3
    kernel_h: 1
    kernel_w: 7
  }
}
layer {
  name: "inception_b6_1x7_2_scale"
  type: "Scale"
  bottom: "inception_b6_1x7_2"
  top: "inception_b6_1x7_2"
  scale_param {
    bias_term: true
  }
  param {
    lr_mult: 0.0
    decay_mult: 0.0
  }
  param {
    lr_mult: 0.0
    decay_mult: 0.0
  }
}
layer {
  name: "inception_b6_1x7_2_relu"
  type: "ReLU"
  bottom: "inception_b6_1x7_2"
  top: "inception_b6_1x7_2"
}
layer {
  name: "inception_b6_7x1_3"
  type: "Convolution"
  bottom: "inception_b6_1x7_2"
  top: "inception_b6_7x1_3"
  param {
    lr_mult: 1
    decay_mult: 1
  }
  convolution_param {
    bias_term: false
    num_output: 224
    stride: 1
    pad_h: 3
    pad_w: 0
    kernel_h: 7
    kernel_w: 1
  }
}
layer {
  name: "inception_b6_7x1_3_scale"
  type: "Scale"
  bottom: "inception_b6_7x1_3"
  top: "inception_b6_7x1_3"
  scale_param {
    bias_term: true
  }
  param {
    lr_mult: 0.0
    decay_mult: 0.0
  }
  param {
    lr_mult: 0.0
    decay_mult: 0.0
  }
}
layer {
  name: "inception_b6_7x1_3_relu"
  type: "ReLU"
  bottom: "inception_b6_7x1_3"
  top: "inception_b6_7x1_3"
}
layer {
  name: "inception_b6_1x7_3"
  type: "Convolution"
  bottom: "inception_b6_7x1_3"
  top: "inception_b6_1x7_3"
  param {
    lr_mult: 1
    decay_mult: 1
  }
  convolution_param {
    bias_term: false
    num_output: 256
    stride: 1
    pad_h: 0
    pad_w: 3
    kernel_h: 1
    kernel_w: 7
  }
}
layer {
  name: "inception_b6_1x7_3_scale"
  type: "Scale"
  bottom: "inception_b6_1x7_3"
  top: "inception_b6_1x7_3"
  scale_param {
    bias_term: true
  }
  param {
    lr_mult: 0.0
    decay_mult: 0.0
  }
  param {
    lr_mult: 0.0
    decay_mult: 0.0
  }
}
layer {
  name: "inception_b6_1x7_3_relu"
  type: "ReLU"
  bottom: "inception_b6_1x7_3"
  top: "inception_b6_1x7_3"
}
layer {
  name: "inception_b6_pool_ave"
  type: "Pooling"
  bottom: "inception_b5_concat"
  top: "inception_b6_pool_ave"
  pooling_param {
    pool: AVE
    kernel_size: 3
    stride: 1
    pad: 1
  }
}
layer {
  name: "inception_b6_1x1"
  type: "Convolution"
  bottom: "inception_b6_pool_ave"
  top: "inception_b6_1x1"
  param {
    lr_mult: 1
    decay_mult: 1
  }
  convolution_param {
    bias_term: false
    num_output: 128
    pad: 0
    kernel_size: 1
    stride: 1
  }
}
layer {
  name: "inception_b6_1x1_scale"
  type: "Scale"
  bottom: "inception_b6_1x1"
  top: "inception_b6_1x1"
  scale_param {
    bias_term: true
  }
  param {
    lr_mult: 0.0
    decay_mult: 0.0
  }
  param {
    lr_mult: 0.0
    decay_mult: 0.0
  }
}
layer {
  name: "inception_b6_1x1_relu"
  type: "ReLU"
  bottom: "inception_b6_1x1"
  top: "inception_b6_1x1"
}
layer {
  name: "inception_b6_concat"
  type: "Concat"
  bottom: "inception_b6_1x1_2"
  bottom: "inception_b6_7x1"
  bottom: "inception_b6_1x7_3"
  bottom: "inception_b6_1x1"
  top: "inception_b6_concat"
}
layer {
  name: "inception_b7_1x1_2"
  type: "Convolution"
  bottom: "inception_b6_concat"
  top: "inception_b7_1x1_2"
  param {
    lr_mult: 1
    decay_mult: 1
  }
  convolution_param {
    bias_term: false
    num_output: 384
    pad: 0
    kernel_size: 1
    stride: 1
  }
}
layer {
  name: "inception_b7_1x1_2_scale"
  type: "Scale"
  bottom: "inception_b7_1x1_2"
  top: "inception_b7_1x1_2"
  scale_param {
    bias_term: true
  }
  param {
    lr_mult: 0.0
    decay_mult: 0.0
  }
  param {
    lr_mult: 0.0
    decay_mult: 0.0
  }
}
layer {
  name: "inception_b7_1x1_2_relu"
  type: "ReLU"
  bottom: "inception_b7_1x1_2"
  top: "inception_b7_1x1_2"
}
layer {
  name: "inception_b7_1x7_reduce"
  type: "Convolution"
  bottom: "inception_b6_concat"
  top: "inception_b7_1x7_reduce"
  param {
    lr_mult: 1
    decay_mult: 1
  }
  convolution_param {
    bias_term: false
    num_output: 192
    pad: 0
    kernel_size: 1
    stride: 1
  }
}
layer {
  name: "inception_b7_1x7_reduce_scale"
  type: "Scale"
  bottom: "inception_b7_1x7_reduce"
  top: "inception_b7_1x7_reduce"
  scale_param {
    bias_term: true
  }
  param {
    lr_mult: 0.0
    decay_mult: 0.0
  }
  param {
    lr_mult: 0.0
    decay_mult: 0.0
  }
}
layer {
  name: "inception_b7_1x7_reduce_relu"
  type: "ReLU"
  bottom: "inception_b7_1x7_reduce"
  top: "inception_b7_1x7_reduce"
}
layer {
  name: "inception_b7_1x7"
  type: "Convolution"
  bottom: "inception_b7_1x7_reduce"
  top: "inception_b7_1x7"
  param {
    lr_mult: 1
    decay_mult: 1
  }
  convolution_param {
    bias_term: false
    num_output: 224
    stride: 1
    pad_h: 0
    pad_w: 3
    kernel_h: 1
    kernel_w: 7
  }
}
layer {
  name: "inception_b7_1x7_scale"
  type: "Scale"
  bottom: "inception_b7_1x7"
  top: "inception_b7_1x7"
  scale_param {
    bias_term: true
  }
  param {
    lr_mult: 0.0
    decay_mult: 0.0
  }
  param {
    lr_mult: 0.0
    decay_mult: 0.0
  }
}
layer {
  name: "inception_b7_1x7_relu"
  type: "ReLU"
  bottom: "inception_b7_1x7"
  top: "inception_b7_1x7"
}
layer {
  name: "inception_b7_7x1"
  type: "Convolution"
  bottom: "inception_b7_1x7"
  top: "inception_b7_7x1"
  param {
    lr_mult: 1
    decay_mult: 1
  }
  convolution_param {
    bias_term: false
    num_output: 256
    stride: 1
    pad_h: 3
    pad_w: 0
    kernel_h: 7
    kernel_w: 1
  }
}
layer {
  name: "inception_b7_7x1_scale"
  type: "Scale"
  bottom: "inception_b7_7x1"
  top: "inception_b7_7x1"
  scale_param {
    bias_term: true
  }
  param {
    lr_mult: 0.0
    decay_mult: 0.0
  }
  param {
    lr_mult: 0.0
    decay_mult: 0.0
  }
}
layer {
  name: "inception_b7_7x1_relu"
  type: "ReLU"
  bottom: "inception_b7_7x1"
  top: "inception_b7_7x1"
}
layer {
  name: "inception_b7_7x1_2_reduce"
  type: "Convolution"
  bottom: "inception_b6_concat"
  top: "inception_b7_7x1_2_reduce"
  param {
    lr_mult: 1
    decay_mult: 1
  }
  convolution_param {
    bias_term: false
    num_output: 192
    pad: 0
    kernel_size: 1
    stride: 1
  }
}
layer {
  name: "inception_b7_7x1_2_reduce_scale"
  type: "Scale"
  bottom: "inception_b7_7x1_2_reduce"
  top: "inception_b7_7x1_2_reduce"
  scale_param {
    bias_term: true
  }
  param {
    lr_mult: 0.0
    decay_mult: 0.0
  }
  param {
    lr_mult: 0.0
    decay_mult: 0.0
  }
}
layer {
  name: "inception_b7_7x1_2_reduce_relu"
  type: "ReLU"
  bottom: "inception_b7_7x1_2_reduce"
  top: "inception_b7_7x1_2_reduce"
}
layer {
  name: "inception_b7_7x1_2"
  type: "Convolution"
  bottom: "inception_b7_7x1_2_reduce"
  top: "inception_b7_7x1_2"
  param {
    lr_mult: 1
    decay_mult: 1
  }
  convolution_param {
    bias_term: false
    num_output: 192
    stride: 1
    pad_h: 3
    pad_w: 0
    kernel_h: 7
    kernel_w: 1
  }
}
layer {
  name: "inception_b7_7x1_2_scale"
  type: "Scale"
  bottom: "inception_b7_7x1_2"
  top: "inception_b7_7x1_2"
  scale_param {
    bias_term: true
  }
  param {
    lr_mult: 0.0
    decay_mult: 0.0
  }
  param {
    lr_mult: 0.0
    decay_mult: 0.0
  }
}
layer {
  name: "inception_b7_7x1_2_relu"
  type: "ReLU"
  bottom: "inception_b7_7x1_2"
  top: "inception_b7_7x1_2"
}
layer {
  name: "inception_b7_1x7_2"
  type: "Convolution"
  bottom: "inception_b7_7x1_2"
  top: "inception_b7_1x7_2"
  param {
    lr_mult: 1
    decay_mult: 1
  }
  convolution_param {
    bias_term: false
    num_output: 224
    stride: 1
    pad_h: 0
    pad_w: 3
    kernel_h: 1
    kernel_w: 7
  }
}
layer {
  name: "inception_b7_1x7_2_scale"
  type: "Scale"
  bottom: "inception_b7_1x7_2"
  top: "inception_b7_1x7_2"
  scale_param {
    bias_term: true
  }
  param {
    lr_mult: 0.0
    decay_mult: 0.0
  }
  param {
    lr_mult: 0.0
    decay_mult: 0.0
  }
}
layer {
  name: "inception_b7_1x7_2_relu"
  type: "ReLU"
  bottom: "inception_b7_1x7_2"
  top: "inception_b7_1x7_2"
}
layer {
  name: "inception_b7_7x1_3"
  type: "Convolution"
  bottom: "inception_b7_1x7_2"
  top: "inception_b7_7x1_3"
  param {
    lr_mult: 1
    decay_mult: 1
  }
  convolution_param {
    bias_term: false
    num_output: 224
    stride: 1
    pad_h: 3
    pad_w: 0
    kernel_h: 7
    kernel_w: 1
  }
}
layer {
  name: "inception_b7_7x1_3_scale"
  type: "Scale"
  bottom: "inception_b7_7x1_3"
  top: "inception_b7_7x1_3"
  scale_param {
    bias_term: true
  }
  param {
    lr_mult: 0.0
    decay_mult: 0.0
  }
  param {
    lr_mult: 0.0
    decay_mult: 0.0
  }
}
layer {
  name: "inception_b7_7x1_3_relu"
  type: "ReLU"
  bottom: "inception_b7_7x1_3"
  top: "inception_b7_7x1_3"
}
layer {
  name: "inception_b7_1x7_3"
  type: "Convolution"
  bottom: "inception_b7_7x1_3"
  top: "inception_b7_1x7_3"
  param {
    lr_mult: 1
    decay_mult: 1
  }
  convolution_param {
    bias_term: false
    num_output: 256
    stride: 1
    pad_h: 0
    pad_w: 3
    kernel_h: 1
    kernel_w: 7
  }
}
layer {
  name: "inception_b7_1x7_3_scale"
  type: "Scale"
  bottom: "inception_b7_1x7_3"
  top: "inception_b7_1x7_3"
  scale_param {
    bias_term: true
  }
  param {
    lr_mult: 0.0
    decay_mult: 0.0
  }
  param {
    lr_mult: 0.0
    decay_mult: 0.0
  }
}
layer {
  name: "inception_b7_1x7_3_relu"
  type: "ReLU"
  bottom: "inception_b7_1x7_3"
  top: "inception_b7_1x7_3"
}
layer {
  name: "inception_b7_pool_ave"
  type: "Pooling"
  bottom: "inception_b6_concat"
  top: "inception_b7_pool_ave"
  pooling_param {
    pool: AVE
    kernel_size: 3
    stride: 1
    pad: 1
  }
}
layer {
  name: "inception_b7_1x1"
  type: "Convolution"
  bottom: "inception_b7_pool_ave"
  top: "inception_b7_1x1"
  param {
    lr_mult: 1
    decay_mult: 1
  }
  convolution_param {
    bias_term: false
    num_output: 128
    pad: 0
    kernel_size: 1
    stride: 1
  }
}
layer {
  name: "inception_b7_1x1_scale"
  type: "Scale"
  bottom: "inception_b7_1x1"
  top: "inception_b7_1x1"
  scale_param {
    bias_term: true
  }
  param {
    lr_mult: 0.0
    decay_mult: 0.0
  }
  param {
    lr_mult: 0.0
    decay_mult: 0.0
  }
}
layer {
  name: "inception_b7_1x1_relu"
  type: "ReLU"
  bottom: "inception_b7_1x1"
  top: "inception_b7_1x1"
}
layer {
  name: "inception_b7_concat"
  type: "Concat"
  bottom: "inception_b7_1x1_2"
  bottom: "inception_b7_7x1"
  bottom: "inception_b7_1x7_3"
  bottom: "inception_b7_1x1"
  top: "inception_b7_concat"
}
layer {
  name: "reduction_b_3x3_reduce"
  type: "Convolution"
  bottom: "inception_b7_concat"
  top: "reduction_b_3x3_reduce"
  param {
    lr_mult: 1
    decay_mult: 1
  }
  convolution_param {
    bias_term: false
    num_output: 192
    pad: 0
    kernel_size: 1
    stride: 1
  }
}
layer {
  name: "reduction_b_3x3_reduce_scale"
  type: "Scale"
  bottom: "reduction_b_3x3_reduce"
  top: "reduction_b_3x3_reduce"
  scale_param {
    bias_term: true
  }
  param {
    lr_mult: 0.0
    decay_mult: 0.0
  }
  param {
    lr_mult: 0.0
    decay_mult: 0.0
  }
}
layer {
  name: "reduction_b_3x3_reduce_relu"
  type: "ReLU"
  bottom: "reduction_b_3x3_reduce"
  top: "reduction_b_3x3_reduce"
}
layer {
  name: "reduction_b_3x3"
  type: "Convolution"
  bottom: "reduction_b_3x3_reduce"
  top: "reduction_b_3x3"
  param {
    lr_mult: 1
    decay_mult: 1
  }
  convolution_param {
    bias_term: false
    num_output: 192
    pad: 1
    kernel_size: 3
    stride: 2
  }
}
layer {
  name: "reduction_b_3x3_scale"
  type: "Scale"
  bottom: "reduction_b_3x3"
  top: "reduction_b_3x3"
  scale_param {
    bias_term: true
  }
  param {
    lr_mult: 0.0
    decay_mult: 0.0
  }
  param {
    lr_mult: 0.0
    decay_mult: 0.0
  }
}
layer {
  name: "reduction_b_3x3_relu"
  type: "ReLU"
  bottom: "reduction_b_3x3"
  top: "reduction_b_3x3"
}
layer {
  name: "reduction_b_1x7_reduce"
  type: "Convolution"
  bottom: "inception_b7_concat"
  top: "reduction_b_1x7_reduce"
  param {
    lr_mult: 1
    decay_mult: 1
  }
  convolution_param {
    bias_term: false
    num_output: 256
    pad: 0
    kernel_size: 1
    stride: 1
  }
}
layer {
  name: "reduction_b_1x7_reduce_scale"
  type: "Scale"
  bottom: "reduction_b_1x7_reduce"
  top: "reduction_b_1x7_reduce"
  scale_param {
    bias_term: true
  }
  param {
    lr_mult: 0.0
    decay_mult: 0.0
  }
  param {
    lr_mult: 0.0
    decay_mult: 0.0
  }
}
layer {
  name: "reduction_b_1x7_reduce_relu"
  type: "ReLU"
  bottom: "reduction_b_1x7_reduce"
  top: "reduction_b_1x7_reduce"
}
layer {
  name: "reduction_b_1x7"
  type: "Convolution"
  bottom: "reduction_b_1x7_reduce"
  top: "reduction_b_1x7"
  param {
    lr_mult: 1
    decay_mult: 1
  }
  convolution_param {
    bias_term: false
    num_output: 256
    stride: 1
    pad_h: 0
    pad_w: 3
    kernel_h: 1
    kernel_w: 7
  }
}
layer {
  name: "reduction_b_1x7_scale"
  type: "Scale"
  bottom: "reduction_b_1x7"
  top: "reduction_b_1x7"
  scale_param {
    bias_term: true
  }
  param {
    lr_mult: 0.0
    decay_mult: 0.0
  }
  param {
    lr_mult: 0.0
    decay_mult: 0.0
  }
}
layer {
  name: "reduction_b_1x7_relu"
  type: "ReLU"
  bottom: "reduction_b_1x7"
  top: "reduction_b_1x7"
}
layer {
  name: "reduction_b_7x1"
  type: "Convolution"
  bottom: "reduction_b_1x7"
  top: "reduction_b_7x1"
  param {
    lr_mult: 1
    decay_mult: 1
  }
  convolution_param {
    bias_term: false
    num_output: 320
    stride: 1
    pad_h: 3
    pad_w: 0
    kernel_h: 7
    kernel_w: 1
  }
}
layer {
  name: "reduction_b_7x1_scale"
  type: "Scale"
  bottom: "reduction_b_7x1"
  top: "reduction_b_7x1"
  scale_param {
    bias_term: true
  }
  param {
    lr_mult: 0.0
    decay_mult: 0.0
  }
  param {
    lr_mult: 0.0
    decay_mult: 0.0
  }
}
layer {
  name: "reduction_b_7x1_relu"
  type: "ReLU"
  bottom: "reduction_b_7x1"
  top: "reduction_b_7x1"
}
layer {
  name: "reduction_b_3x3_2"
  type: "Convolution"
  bottom: "reduction_b_7x1"
  top: "reduction_b_3x3_2"
  param {
    lr_mult: 1
    decay_mult: 1
  }
  convolution_param {
    bias_term: false
    num_output: 320
    pad: 1
    kernel_size: 3
    stride: 2
  }
}
layer {
  name: "reduction_b_3x3_2_scale"
  type: "Scale"
  bottom: "reduction_b_3x3_2"
  top: "reduction_b_3x3_2"
  scale_param {
    bias_term: true
  }
  param {
    lr_mult: 0.0
    decay_mult: 0.0
  }
  param {
    lr_mult: 0.0
    decay_mult: 0.0
  }
}
layer {
  name: "reduction_b_3x3_2_relu"
  type: "ReLU"
  bottom: "reduction_b_3x3_2"
  top: "reduction_b_3x3_2"
}
layer {
  name: "reduction_b_pool"
  type: "Pooling"
  bottom: "inception_b7_concat"
  top: "reduction_b_pool"
  pooling_param {
    pool: MAX
    kernel_size: 3
    stride: 2
    pad: 1
    ceil_mode: false
  }
}
layer {
  name: "reduction_b_concat"
  type: "Concat"
  bottom: "reduction_b_3x3"
  bottom: "reduction_b_3x3_2"
  bottom: "reduction_b_pool"
  top: "reduction_b_concat"
}
layer {
  name: "inception_c1_1x1_2"
  type: "Convolution"
  bottom: "reduction_b_concat"
  top: "inception_c1_1x1_2"
  param {
    lr_mult: 1
    decay_mult: 1
  }
  convolution_param {
    bias_term: false
    num_output: 256
    pad: 0
    kernel_size: 1
    stride: 1
  }
}
layer {
  name: "inception_c1_1x1_2_scale"
  type: "Scale"
  bottom: "inception_c1_1x1_2"
  top: "inception_c1_1x1_2"
  scale_param {
    bias_term: true
  }
  param {
    lr_mult: 0.0
    decay_mult: 0.0
  }
  param {
    lr_mult: 0.0
    decay_mult: 0.0
  }
}
layer {
  name: "inception_c1_1x1_2_relu"
  type: "ReLU"
  bottom: "inception_c1_1x1_2"
  top: "inception_c1_1x1_2"
}
layer {
  name: "inception_c1_1x1_3"
  type: "Convolution"
  bottom: "reduction_b_concat"
  top: "inception_c1_1x1_3"
  param {
    lr_mult: 1
    decay_mult: 1
  }
  convolution_param {
    bias_term: false
    num_output: 384
    pad: 0
    kernel_size: 1
    stride: 1
  }
}
layer {
  name: "inception_c1_1x1_3_scale"
  type: "Scale"
  bottom: "inception_c1_1x1_3"
  top: "inception_c1_1x1_3"
  scale_param {
    bias_term: true
  }
  param {
    lr_mult: 0.0
    decay_mult: 0.0
  }
  param {
    lr_mult: 0.0
    decay_mult: 0.0
  }
}
layer {
  name: "inception_c1_1x1_3_relu"
  type: "ReLU"
  bottom: "inception_c1_1x1_3"
  top: "inception_c1_1x1_3"
}
layer {
  name: "inception_c1_1x3"
  type: "Convolution"
  bottom: "inception_c1_1x1_3"
  top: "inception_c1_1x3"
  param {
    lr_mult: 1
    decay_mult: 1
  }
  convolution_param {
    bias_term: false
    num_output: 256
    stride: 1
    pad_h: 0
    pad_w: 1
    kernel_h: 1
    kernel_w: 3
  }
}
layer {
  name: "inception_c1_1x3_scale"
  type: "Scale"
  bottom: "inception_c1_1x3"
  top: "inception_c1_1x3"
  scale_param {
    bias_term: true
  }
  param {
    lr_mult: 0.0
    decay_mult: 0.0
  }
  param {
    lr_mult: 0.0
    decay_mult: 0.0
  }
}
layer {
  name: "inception_c1_1x3_relu"
  type: "ReLU"
  bottom: "inception_c1_1x3"
  top: "inception_c1_1x3"
}
layer {
  name: "inception_c1_3x1"
  type: "Convolution"
  bottom: "inception_c1_1x1_3"
  top: "inception_c1_3x1"
  param {
    lr_mult: 1
    decay_mult: 1
  }
  convolution_param {
    bias_term: false
    num_output: 256
    stride: 1
    pad_h: 1
    pad_w: 0
    kernel_h: 3
    kernel_w: 1
  }
}
layer {
  name: "inception_c1_3x1_scale"
  type: "Scale"
  bottom: "inception_c1_3x1"
  top: "inception_c1_3x1"
  scale_param {
    bias_term: true
  }
  param {
    lr_mult: 0.0
    decay_mult: 0.0
  }
  param {
    lr_mult: 0.0
    decay_mult: 0.0
  }
}
layer {
  name: "inception_c1_3x1_relu"
  type: "ReLU"
  bottom: "inception_c1_3x1"
  top: "inception_c1_3x1"
}
layer {
  name: "inception_c1_1x1_4"
  type: "Convolution"
  bottom: "reduction_b_concat"
  top: "inception_c1_1x1_4"
  param {
    lr_mult: 1
    decay_mult: 1
  }
  convolution_param {
    bias_term: false
    num_output: 384
    pad: 0
    kernel_size: 1
    stride: 1
  }
}
layer {
  name: "inception_c1_1x1_4_scale"
  type: "Scale"
  bottom: "inception_c1_1x1_4"
  top: "inception_c1_1x1_4"
  scale_param {
    bias_term: true
  }
  param {
    lr_mult: 0.0
    decay_mult: 0.0
  }
  param {
    lr_mult: 0.0
    decay_mult: 0.0
  }
}
layer {
  name: "inception_c1_1x1_4_relu"
  type: "ReLU"
  bottom: "inception_c1_1x1_4"
  top: "inception_c1_1x1_4"
}
layer {
  name: "inception_c1_3x1_2"
  type: "Convolution"
  bottom: "inception_c1_1x1_4"
  top: "inception_c1_3x1_2"
  param {
    lr_mult: 1
    decay_mult: 1
  }
  convolution_param {
    bias_term: false
    num_output: 448
    stride: 1
    pad_h: 1
    pad_w: 0
    kernel_h: 3
    kernel_w: 1
  }
}
layer {
  name: "inception_c1_3x1_2_scale"
  type: "Scale"
  bottom: "inception_c1_3x1_2"
  top: "inception_c1_3x1_2"
  scale_param {
    bias_term: true
  }
  param {
    lr_mult: 0.0
    decay_mult: 0.0
  }
  param {
    lr_mult: 0.0
    decay_mult: 0.0
  }
}
layer {
  name: "inception_c1_3x1_2_relu"
  type: "ReLU"
  bottom: "inception_c1_3x1_2"
  top: "inception_c1_3x1_2"
}
layer {
  name: "inception_c1_1x3_2"
  type: "Convolution"
  bottom: "inception_c1_3x1_2"
  top: "inception_c1_1x3_2"
  param {
    lr_mult: 1
    decay_mult: 1
  }
  convolution_param {
    bias_term: false
    num_output: 512
    stride: 1
    pad_h: 0
    pad_w: 1
    kernel_h: 1
    kernel_w: 3
  }
}
layer {
  name: "inception_c1_1x3_2_scale"
  type: "Scale"
  bottom: "inception_c1_1x3_2"
  top: "inception_c1_1x3_2"
  scale_param {
    bias_term: true
  }
  param {
    lr_mult: 0.0
    decay_mult: 0.0
  }
  param {
    lr_mult: 0.0
    decay_mult: 0.0
  }
}
layer {
  name: "inception_c1_1x3_2_relu"
  type: "ReLU"
  bottom: "inception_c1_1x3_2"
  top: "inception_c1_1x3_2"
}
layer {
  name: "inception_c1_1x3_3"
  type: "Convolution"
  bottom: "inception_c1_1x3_2"
  top: "inception_c1_1x3_3"
  param {
    lr_mult: 1
    decay_mult: 1
  }
  convolution_param {
    bias_term: false
    num_output: 256
    stride: 1
    pad_h: 0
    pad_w: 1
    kernel_h: 1
    kernel_w: 3
  }
}
layer {
  name: "inception_c1_1x3_3_scale"
  type: "Scale"
  bottom: "inception_c1_1x3_3"
  top: "inception_c1_1x3_3"
  scale_param {
    bias_term: true
  }
  param {
    lr_mult: 0.0
    decay_mult: 0.0
  }
  param {
    lr_mult: 0.0
    decay_mult: 0.0
  }
}
layer {
  name: "inception_c1_1x3_3_relu"
  type: "ReLU"
  bottom: "inception_c1_1x3_3"
  top: "inception_c1_1x3_3"
}
layer {
  name: "inception_c1_3x1_3"
  type: "Convolution"
  bottom: "inception_c1_1x3_2"
  top: "inception_c1_3x1_3"
  param {
    lr_mult: 1
    decay_mult: 1
  }
  convolution_param {
    bias_term: false
    num_output: 256
    stride: 1
    pad_h: 1
    pad_w: 0
    kernel_h: 3
    kernel_w: 1
  }
}
layer {
  name: "inception_c1_3x1_3_scale"
  type: "Scale"
  bottom: "inception_c1_3x1_3"
  top: "inception_c1_3x1_3"
  scale_param {
    bias_term: true
  }
  param {
    lr_mult: 0.0
    decay_mult: 0.0
  }
  param {
    lr_mult: 0.0
    decay_mult: 0.0
  }
}
layer {
  name: "inception_c1_3x1_3_relu"
  type: "ReLU"
  bottom: "inception_c1_3x1_3"
  top: "inception_c1_3x1_3"
}
layer {
  name: "inception_c1_pool_ave"
  type: "Pooling"
  bottom: "reduction_b_concat"
  top: "inception_c1_pool_ave"
  pooling_param {
    pool: AVE
    kernel_size: 3
    stride: 1
    pad: 1
  }
}
layer {
  name: "inception_c1_1x1"
  type: "Convolution"
  bottom: "inception_c1_pool_ave"
  top: "inception_c1_1x1"
  param {
    lr_mult: 1
    decay_mult: 1
  }
  convolution_param {
    bias_term: false
    num_output: 256
    pad: 0
    kernel_size: 1
    stride: 1
  }
}
layer {
  name: "inception_c1_1x1_scale"
  type: "Scale"
  bottom: "inception_c1_1x1"
  top: "inception_c1_1x1"
  scale_param {
    bias_term: true
  }
  param {
    lr_mult: 0.0
    decay_mult: 0.0
  }
  param {
    lr_mult: 0.0
    decay_mult: 0.0
  }
}
layer {
  name: "inception_c1_1x1_relu"
  type: "ReLU"
  bottom: "inception_c1_1x1"
  top: "inception_c1_1x1"
}
layer {
  name: "inception_c1_concat"
  type: "Concat"
  bottom: "inception_c1_1x1_2"
  bottom: "inception_c1_1x3"
  bottom: "inception_c1_3x1"
  bottom: "inception_c1_1x3_3"
  bottom: "inception_c1_3x1_3"
  bottom: "inception_c1_1x1"
  top: "inception_c1_concat"
}
layer {
  name: "inception_c2_1x1_2"
  type: "Convolution"
  bottom: "inception_c1_concat"
  top: "inception_c2_1x1_2"
  param {
    lr_mult: 1
    decay_mult: 1
  }
  convolution_param {
    bias_term: false
    num_output: 256
    pad: 0
    kernel_size: 1
    stride: 1
  }
}
layer {
  name: "inception_c2_1x1_2_scale"
  type: "Scale"
  bottom: "inception_c2_1x1_2"
  top: "inception_c2_1x1_2"
  scale_param {
    bias_term: true
  }
  param {
    lr_mult: 0.0
    decay_mult: 0.0
  }
  param {
    lr_mult: 0.0
    decay_mult: 0.0
  }
}
layer {
  name: "inception_c2_1x1_2_relu"
  type: "ReLU"
  bottom: "inception_c2_1x1_2"
  top: "inception_c2_1x1_2"
}
layer {
  name: "inception_c2_1x1_3"
  type: "Convolution"
  bottom: "inception_c1_concat"
  top: "inception_c2_1x1_3"
  param {
    lr_mult: 1
    decay_mult: 1
  }
  convolution_param {
    bias_term: false
    num_output: 384
    pad: 0
    kernel_size: 1
    stride: 1
  }
}
layer {
  name: "inception_c2_1x1_3_scale"
  type: "Scale"
  bottom: "inception_c2_1x1_3"
  top: "inception_c2_1x1_3"
  scale_param {
    bias_term: true
  }
  param {
    lr_mult: 0.0
    decay_mult: 0.0
  }
  param {
    lr_mult: 0.0
    decay_mult: 0.0
  }
}
layer {
  name: "inception_c2_1x1_3_relu"
  type: "ReLU"
  bottom: "inception_c2_1x1_3"
  top: "inception_c2_1x1_3"
}
layer {
  name: "inception_c2_1x3"
  type: "Convolution"
  bottom: "inception_c2_1x1_3"
  top: "inception_c2_1x3"
  param {
    lr_mult: 1
    decay_mult: 1
  }
  convolution_param {
    bias_term: false
    num_output: 256
    stride: 1
    pad_h: 0
    pad_w: 1
    kernel_h: 1
    kernel_w: 3
  }
}
layer {
  name: "inception_c2_1x3_scale"
  type: "Scale"
  bottom: "inception_c2_1x3"
  top: "inception_c2_1x3"
  scale_param {
    bias_term: true
  }
  param {
    lr_mult: 0.0
    decay_mult: 0.0
  }
  param {
    lr_mult: 0.0
    decay_mult: 0.0
  }
}
layer {
  name: "inception_c2_1x3_relu"
  type: "ReLU"
  bottom: "inception_c2_1x3"
  top: "inception_c2_1x3"
}
layer {
  name: "inception_c2_3x1"
  type: "Convolution"
  bottom: "inception_c2_1x1_3"
  top: "inception_c2_3x1"
  param {
    lr_mult: 1
    decay_mult: 1
  }
  convolution_param {
    bias_term: false
    num_output: 256
    stride: 1
    pad_h: 1
    pad_w: 0
    kernel_h: 3
    kernel_w: 1
  }
}
layer {
  name: "inception_c2_3x1_scale"
  type: "Scale"
  bottom: "inception_c2_3x1"
  top: "inception_c2_3x1"
  scale_param {
    bias_term: true
  }
  param {
    lr_mult: 0.0
    decay_mult: 0.0
  }
  param {
    lr_mult: 0.0
    decay_mult: 0.0
  }
}
layer {
  name: "inception_c2_3x1_relu"
  type: "ReLU"
  bottom: "inception_c2_3x1"
  top: "inception_c2_3x1"
}
layer {
  name: "inception_c2_1x1_4"
  type: "Convolution"
  bottom: "inception_c1_concat"
  top: "inception_c2_1x1_4"
  param {
    lr_mult: 1
    decay_mult: 1
  }
  convolution_param {
    bias_term: false
    num_output: 384
    pad: 0
    kernel_size: 1
    stride: 1
  }
}
layer {
  name: "inception_c2_1x1_4_scale"
  type: "Scale"
  bottom: "inception_c2_1x1_4"
  top: "inception_c2_1x1_4"
  scale_param {
    bias_term: true
  }
  param {
    lr_mult: 0.0
    decay_mult: 0.0
  }
  param {
    lr_mult: 0.0
    decay_mult: 0.0
  }
}
layer {
  name: "inception_c2_1x1_4_relu"
  type: "ReLU"
  bottom: "inception_c2_1x1_4"
  top: "inception_c2_1x1_4"
}
layer {
  name: "inception_c2_3x1_2"
  type: "Convolution"
  bottom: "inception_c2_1x1_4"
  top: "inception_c2_3x1_2"
  param {
    lr_mult: 1
    decay_mult: 1
  }
  convolution_param {
    bias_term: false
    num_output: 448
    stride: 1
    pad_h: 1
    pad_w: 0
    kernel_h: 3
    kernel_w: 1
  }
}
layer {
  name: "inception_c2_3x1_2_scale"
  type: "Scale"
  bottom: "inception_c2_3x1_2"
  top: "inception_c2_3x1_2"
  scale_param {
    bias_term: true
  }
  param {
    lr_mult: 0.0
    decay_mult: 0.0
  }
  param {
    lr_mult: 0.0
    decay_mult: 0.0
  }
}
layer {
  name: "inception_c2_3x1_2_relu"
  type: "ReLU"
  bottom: "inception_c2_3x1_2"
  top: "inception_c2_3x1_2"
}
layer {
  name: "inception_c2_1x3_2"
  type: "Convolution"
  bottom: "inception_c2_3x1_2"
  top: "inception_c2_1x3_2"
  param {
    lr_mult: 1
    decay_mult: 1
  }
  convolution_param {
    bias_term: false
    num_output: 512
    stride: 1
    pad_h: 0
    pad_w: 1
    kernel_h: 1
    kernel_w: 3
  }
}
layer {
  name: "inception_c2_1x3_2_scale"
  type: "Scale"
  bottom: "inception_c2_1x3_2"
  top: "inception_c2_1x3_2"
  scale_param {
    bias_term: true
  }
  param {
    lr_mult: 0.0
    decay_mult: 0.0
  }
  param {
    lr_mult: 0.0
    decay_mult: 0.0
  }
}
layer {
  name: "inception_c2_1x3_2_relu"
  type: "ReLU"
  bottom: "inception_c2_1x3_2"
  top: "inception_c2_1x3_2"
}
layer {
  name: "inception_c2_1x3_3"
  type: "Convolution"
  bottom: "inception_c2_1x3_2"
  top: "inception_c2_1x3_3"
  param {
    lr_mult: 1
    decay_mult: 1
  }
  convolution_param {
    bias_term: false
    num_output: 256
    stride: 1
    pad_h: 0
    pad_w: 1
    kernel_h: 1
    kernel_w: 3
  }
}
layer {
  name: "inception_c2_1x3_3_scale"
  type: "Scale"
  bottom: "inception_c2_1x3_3"
  top: "inception_c2_1x3_3"
  scale_param {
    bias_term: true
  }
  param {
    lr_mult: 0.0
    decay_mult: 0.0
  }
  param {
    lr_mult: 0.0
    decay_mult: 0.0
  }
}
layer {
  name: "inception_c2_1x3_3_relu"
  type: "ReLU"
  bottom: "inception_c2_1x3_3"
  top: "inception_c2_1x3_3"
}
layer {
  name: "inception_c2_3x1_3"
  type: "Convolution"
  bottom: "inception_c2_1x3_2"
  top: "inception_c2_3x1_3"
  param {
    lr_mult: 1
    decay_mult: 1
  }
  convolution_param {
    bias_term: false
    num_output: 256
    stride: 1
    pad_h: 1
    pad_w: 0
    kernel_h: 3
    kernel_w: 1
  }
}
layer {
  name: "inception_c2_3x1_3_scale"
  type: "Scale"
  bottom: "inception_c2_3x1_3"
  top: "inception_c2_3x1_3"
  scale_param {
    bias_term: true
  }
  param {
    lr_mult: 0.0
    decay_mult: 0.0
  }
  param {
    lr_mult: 0.0
    decay_mult: 0.0
  }
}
layer {
  name: "inception_c2_3x1_3_relu"
  type: "ReLU"
  bottom: "inception_c2_3x1_3"
  top: "inception_c2_3x1_3"
}
layer {
  name: "inception_c2_pool_ave"
  type: "Pooling"
  bottom: "inception_c1_concat"
  top: "inception_c2_pool_ave"
  pooling_param {
    pool: AVE
    kernel_size: 3
    stride: 1
    pad: 1
  }
}
layer {
  name: "inception_c2_1x1"
  type: "Convolution"
  bottom: "inception_c2_pool_ave"
  top: "inception_c2_1x1"
  param {
    lr_mult: 1
    decay_mult: 1
  }
  convolution_param {
    bias_term: false
    num_output: 256
    pad: 0
    kernel_size: 1
    stride: 1
  }
}
layer {
  name: "inception_c2_1x1_scale"
  type: "Scale"
  bottom: "inception_c2_1x1"
  top: "inception_c2_1x1"
  scale_param {
    bias_term: true
  }
  param {
    lr_mult: 0.0
    decay_mult: 0.0
  }
  param {
    lr_mult: 0.0
    decay_mult: 0.0
  }
}
layer {
  name: "inception_c2_1x1_relu"
  type: "ReLU"
  bottom: "inception_c2_1x1"
  top: "inception_c2_1x1"
}
layer {
  name: "inception_c2_concat"
  type: "Concat"
  bottom: "inception_c2_1x1_2"
  bottom: "inception_c2_1x3"
  bottom: "inception_c2_3x1"
  bottom: "inception_c2_1x3_3"
  bottom: "inception_c2_3x1_3"
  bottom: "inception_c2_1x1"
  top: "inception_c2_concat"
}
layer {
  name: "inception_c3_1x1_2"
  type: "Convolution"
  bottom: "inception_c2_concat"
  top: "inception_c3_1x1_2"
  param {
    lr_mult: 1
    decay_mult: 1
  }
  convolution_param {
    bias_term: false
    num_output: 256
    pad: 0
    kernel_size: 1
    stride: 1
  }
}
layer {
  name: "inception_c3_1x1_2_scale"
  type: "Scale"
  bottom: "inception_c3_1x1_2"
  top: "inception_c3_1x1_2"
  scale_param {
    bias_term: true
  }
  param {
    lr_mult: 0.0
    decay_mult: 0.0
  }
  param {
    lr_mult: 0.0
    decay_mult: 0.0
  }
}
layer {
  name: "inception_c3_1x1_2_relu"
  type: "ReLU"
  bottom: "inception_c3_1x1_2"
  top: "inception_c3_1x1_2"
}
layer {
  name: "inception_c3_1x1_3"
  type: "Convolution"
  bottom: "inception_c2_concat"
  top: "inception_c3_1x1_3"
  param {
    lr_mult: 1
    decay_mult: 1
  }
  convolution_param {
    bias_term: false
    num_output: 384
    pad: 0
    kernel_size: 1
    stride: 1
  }
}
layer {
  name: "inception_c3_1x1_3_scale"
  type: "Scale"
  bottom: "inception_c3_1x1_3"
  top: "inception_c3_1x1_3"
  scale_param {
    bias_term: true
  }
  param {
    lr_mult: 0.0
    decay_mult: 0.0
  }
  param {
    lr_mult: 0.0
    decay_mult: 0.0
  }
}
layer {
  name: "inception_c3_1x1_3_relu"
  type: "ReLU"
  bottom: "inception_c3_1x1_3"
  top: "inception_c3_1x1_3"
}
layer {
  name: "inception_c3_1x3"
  type: "Convolution"
  bottom: "inception_c3_1x1_3"
  top: "inception_c3_1x3"
  param {
    lr_mult: 1
    decay_mult: 1
  }
  convolution_param {
    bias_term: false
    num_output: 256
    stride: 1
    pad_h: 0
    pad_w: 1
    kernel_h: 1
    kernel_w: 3
  }
}
layer {
  name: "inception_c3_1x3_scale"
  type: "Scale"
  bottom: "inception_c3_1x3"
  top: "inception_c3_1x3"
  scale_param {
    bias_term: true
  }
  param {
    lr_mult: 0.0
    decay_mult: 0.0
  }
  param {
    lr_mult: 0.0
    decay_mult: 0.0
  }
}
layer {
  name: "inception_c3_1x3_relu"
  type: "ReLU"
  bottom: "inception_c3_1x3"
  top: "inception_c3_1x3"
}
layer {
  name: "inception_c3_3x1"
  type: "Convolution"
  bottom: "inception_c3_1x1_3"
  top: "inception_c3_3x1"
  param {
    lr_mult: 1
    decay_mult: 1
  }
  convolution_param {
    bias_term: false
    num_output: 256
    stride: 1
    pad_h: 1
    pad_w: 0
    kernel_h: 3
    kernel_w: 1
  }
}
layer {
  name: "inception_c3_3x1_scale"
  type: "Scale"
  bottom: "inception_c3_3x1"
  top: "inception_c3_3x1"
  scale_param {
    bias_term: true
  }
  param {
    lr_mult: 0.0
    decay_mult: 0.0
  }
  param {
    lr_mult: 0.0
    decay_mult: 0.0
  }
}
layer {
  name: "inception_c3_3x1_relu"
  type: "ReLU"
  bottom: "inception_c3_3x1"
  top: "inception_c3_3x1"
}
layer {
  name: "inception_c3_1x1_4"
  type: "Convolution"
  bottom: "inception_c2_concat"
  top: "inception_c3_1x1_4"
  param {
    lr_mult: 1
    decay_mult: 1
  }
  convolution_param {
    bias_term: false
    num_output: 384
    pad: 0
    kernel_size: 1
    stride: 1
  }
}
layer {
  name: "inception_c3_1x1_4_scale"
  type: "Scale"
  bottom: "inception_c3_1x1_4"
  top: "inception_c3_1x1_4"
  scale_param {
    bias_term: true
  }
  param {
    lr_mult: 0.0
    decay_mult: 0.0
  }
  param {
    lr_mult: 0.0
    decay_mult: 0.0
  }
}
layer {
  name: "inception_c3_1x1_4_relu"
  type: "ReLU"
  bottom: "inception_c3_1x1_4"
  top: "inception_c3_1x1_4"
}
layer {
  name: "inception_c3_3x1_2"
  type: "Convolution"
  bottom: "inception_c3_1x1_4"
  top: "inception_c3_3x1_2"
  param {
    lr_mult: 1
    decay_mult: 1
  }
  convolution_param {
    bias_term: false
    num_output: 448
    stride: 1
    pad_h: 1
    pad_w: 0
    kernel_h: 3
    kernel_w: 1
  }
}
layer {
  name: "inception_c3_3x1_2_scale"
  type: "Scale"
  bottom: "inception_c3_3x1_2"
  top: "inception_c3_3x1_2"
  scale_param {
    bias_term: true
  }
  param {
    lr_mult: 0.0
    decay_mult: 0.0
  }
  param {
    lr_mult: 0.0
    decay_mult: 0.0
  }
}
layer {
  name: "inception_c3_3x1_2_relu"
  type: "ReLU"
  bottom: "inception_c3_3x1_2"
  top: "inception_c3_3x1_2"
}
layer {
  name: "inception_c3_1x3_2"
  type: "Convolution"
  bottom: "inception_c3_3x1_2"
  top: "inception_c3_1x3_2"
  param {
    lr_mult: 1
    decay_mult: 1
  }
  convolution_param {
    bias_term: false
    num_output: 512
    stride: 1
    pad_h: 0
    pad_w: 1
    kernel_h: 1
    kernel_w: 3
  }
}
layer {
  name: "inception_c3_1x3_2_scale"
  type: "Scale"
  bottom: "inception_c3_1x3_2"
  top: "inception_c3_1x3_2"
  scale_param {
    bias_term: true
  }
  param {
    lr_mult: 0.0
    decay_mult: 0.0
  }
  param {
    lr_mult: 0.0
    decay_mult: 0.0
  }
}
layer {
  name: "inception_c3_1x3_2_relu"
  type: "ReLU"
  bottom: "inception_c3_1x3_2"
  top: "inception_c3_1x3_2"
}
layer {
  name: "inception_c3_1x3_3"
  type: "Convolution"
  bottom: "inception_c3_1x3_2"
  top: "inception_c3_1x3_3"
  param {
    lr_mult: 1
    decay_mult: 1
  }
  convolution_param {
    bias_term: false
    num_output: 256
    stride: 1
    pad_h: 0
    pad_w: 1
    kernel_h: 1
    kernel_w: 3
  }
}
layer {
  name: "inception_c3_1x3_3_scale"
  type: "Scale"
  bottom: "inception_c3_1x3_3"
  top: "inception_c3_1x3_3"
  scale_param {
    bias_term: true
  }
  param {
    lr_mult: 0.0
    decay_mult: 0.0
  }
  param {
    lr_mult: 0.0
    decay_mult: 0.0
  }
}
layer {
  name: "inception_c3_1x3_3_relu"
  type: "ReLU"
  bottom: "inception_c3_1x3_3"
  top: "inception_c3_1x3_3"
}
layer {
  name: "inception_c3_3x1_3"
  type: "Convolution"
  bottom: "inception_c3_1x3_2"
  top: "inception_c3_3x1_3"
  param {
    lr_mult: 1
    decay_mult: 1
  }
  convolution_param {
    bias_term: false
    num_output: 256
    stride: 1
    pad_h: 1
    pad_w: 0
    kernel_h: 3
    kernel_w: 1
  }
}
layer {
  name: "inception_c3_3x1_3_scale"
  type: "Scale"
  bottom: "inception_c3_3x1_3"
  top: "inception_c3_3x1_3"
  scale_param {
    bias_term: true
  }
  param {
    lr_mult: 0.0
    decay_mult: 0.0
  }
  param {
    lr_mult: 0.0
    decay_mult: 0.0
  }
}
layer {
  name: "inception_c3_3x1_3_relu"
  type: "ReLU"
  bottom: "inception_c3_3x1_3"
  top: "inception_c3_3x1_3"
}
layer {
  name: "inception_c3_pool_ave"
  type: "Pooling"
  bottom: "inception_c2_concat"
  top: "inception_c3_pool_ave"
  pooling_param {
    pool: AVE
    kernel_size: 3
    stride: 1
    pad: 1
  }
}
layer {
  name: "inception_c3_1x1"
  type: "Convolution"
  bottom: "inception_c3_pool_ave"
  top: "inception_c3_1x1"
  param {
    lr_mult: 1
    decay_mult: 1
  }
  convolution_param {
    bias_term: false
    num_output: 256
    pad: 0
    kernel_size: 1
    stride: 1
  }
}
layer {
  name: "inception_c3_1x1_scale"
  type: "Scale"
  bottom: "inception_c3_1x1"
  top: "inception_c3_1x1"
  scale_param {
    bias_term: true
  }
  param {
    lr_mult: 0.0
    decay_mult: 0.0
  }
  param {
    lr_mult: 0.0
    decay_mult: 0.0
  }
}
layer {
  name: "inception_c3_1x1_relu"
  type: "ReLU"
  bottom: "inception_c3_1x1"
  top: "inception_c3_1x1"
}
layer {
  name: "inception_c3_concat"
  type: "Concat"
  bottom: "inception_c3_1x1_2"
  bottom: "inception_c3_1x3"
  bottom: "inception_c3_3x1"
  bottom: "inception_c3_1x3_3"
  bottom: "inception_c3_3x1_3"
  bottom: "inception_c3_1x1"
  top: "inception_c3_concat"
}

#============== FPN ===============
### p5
layer {
  name: "p5_conv_1x1"
  type: "Convolution"
  bottom: "inception_c3_concat"
  top: "p5_conv_1x1"
  param {
    lr_mult: 1
    decay_mult: 1
  }
  param {
    lr_mult: 2
    decay_mult: 0
  }
  convolution_param {
    num_output: 256
    kernel_size: 1
    stride: 1
    weight_filler {
      type: "gaussian"
      std: 0.01
    }
    bias_filler {
      type: "constant"
      value: 0
    }
  }
}
layer {
  name: "p5_interp"
  type: "Interp"
  bottom: "p5_conv_1x1"
  bottom: "inception_b7_concat"
  top: "p5_interp"
  interp_param {
    use_blob_size: true
  }
}

### p4
layer {
  name: "p4_conv_1x1"
  type: "Convolution"
  bottom: "inception_b7_concat"
  top: "p4_conv_1x1"
  param {
    lr_mult: 1
    decay_mult: 1
  }
  param {
    lr_mult: 2
    decay_mult: 0
  }
  convolution_param {
    num_output: 256
    kernel_size: 1
    stride: 1
    weight_filler {
      type: "gaussian"
      std: 0.01
    }
    bias_filler {
      type: "constant"
      value: 0
    }
  }
}
layer {
  name: "p4_elewise"
  type: "Eltwise"
  bottom: "p4_conv_1x1"
  bottom: "p5_interp"
  top: "p4_elewise"
  eltwise_param {
    operation: SUM
  }
}
layer {
  name: "p4_interp"
  type: "Interp"
  bottom: "p4_elewise"
  bottom: "inception_a4_concat"
  top: "p4_interp"
  interp_param {
    use_blob_size: true
  }
}

### p3
layer {
  name: "p3_conv_1x1"
  type: "Convolution"
  bottom: "inception_a4_concat"
  top: "p3_conv_1x1"
  param {
    lr_mult: 1
    decay_mult: 1
  }
  param {
    lr_mult: 2
    decay_mult: 0
  }
  convolution_param {
    num_output: 256
    kernel_size: 1
    stride: 1
    weight_filler {
      type: "gaussian"
      std: 0.01
    }
    bias_filler {
      type: "constant"
      value: 0
    }
  }
}
layer {
  name: "p3_elewise"
  type: "Eltwise"
  bottom: "p3_conv_1x1"
  bottom: "p4_interp"
  top: "p3_elewise"
  eltwise_param {
    operation: SUM
  }
}
layer {
  name: "p3_interp"
  type: "Interp"
  bottom: "p3_elewise"
  bottom: "inception_stem2"
  top: "p3_interp"
  interp_param {
    use_blob_size: true
  }
}

### p2
layer {
  name: "p2_conv_1x1"
  type: "Convolution"
  bottom: "inception_stem2"
  top: "p2_conv_1x1"
  param {
    lr_mult: 1
    decay_mult: 1
  }
  param {
    lr_mult: 2
    decay_mult: 0
  }
  convolution_param {
    num_output: 256
    kernel_size: 1
    stride: 1
    weight_filler {
      type: "gaussian"
      std: 0.01
    }
    bias_filler {
      type: "constant"
      value: 0
    }
  }
}
layer {
  name: "p2_elewise"
  type: "Eltwise"
  bottom: "p2_conv_1x1"
  bottom: "p3_interp"
  top: "p2_elewise"
  eltwise_param {
    operation: SUM
  }
}

#============== RPN ===============
#### p5
layer {
  name: "rpn_p5_conv_3x3"
  type: "Convolution"
  bottom: "p5_conv_1x1"
  top: "rpn_p5_output"
  param {
    lr_mult: 1
    decay_mult: 1
  }
  param {
    lr_mult: 2
    decay_mult: 0
  }
  convolution_param {
    num_output: 512
    kernel_size: 3
    pad: 1
    stride: 1
    weight_filler {
      type: "gaussian"
      std: 0.01
    }
    bias_filler {
      type: "constant"
      value: 0
    }
  }
}
layer {
  name: "rpn_p5_relu_3x3"
  type: "ReLU"
  bottom: "rpn_p5_output"
  top: "rpn_p5_output"
}
layer {
  name: "rpn_p5_cls_score"
  type: "Convolution"
  bottom: "rpn_p5_output"
  top: "rpn_p5_cls_score"
  param {
    lr_mult: 1
    decay_mult: 1
  }
  param {
    lr_mult: 2
    decay_mult: 0
  }
  convolution_param {
    num_output: 18   # 2(bg/fg) * 9(anchors)
    kernel_size: 1
    pad: 0
    stride: 1
    weight_filler {
      type: "gaussian"
      std: 0.01
    }
    bias_filler {
      type: "constant"
      value: 0
    }
  }
}
layer {
  name: "rpn_p5_bbox_pred"
  type: "Convolution"
  bottom: "rpn_p5_output"
  top: "rpn_p5_bbox_pred"
  param {
    lr_mult: 1
    decay_mult: 1
  }
  param {
    lr_mult: 2
    decay_mult: 0
  }
  convolution_param {
    num_output: 36   # 4 * 9(anchors)
    kernel_size: 1
    pad: 0
    stride: 1
    weight_filler {
      type: "gaussian"
      std: 0.01
    }
    bias_filler {
      type: "constant"
      value: 0
    }
  }
}
layer {
  bottom: "rpn_p5_cls_score"
  top: "rpn_p5_cls_score_reshape"
  name: "rpn_p5_cls_score_reshape"
  type: "Reshape"
  reshape_param {
    shape {
      dim: 0
      dim: 2
      dim: -1
      dim: 0
    }
  }
}

#### p4
layer {
  name: "rpn_p4_conv_3x3"
  type: "Convolution"
  bottom: "p4_elewise"
  top: "rpn_p4_output"
  param {
    lr_mult: 1
    decay_mult: 1
  }
  param {
    lr_mult: 2
    decay_mult: 0
  }
  convolution_param {
    num_output: 512
    kernel_size: 3
    pad: 1
    stride: 1
    weight_filler {
      type: "gaussian"
      std: 0.01
    }
    bias_filler {
      type: "constant"
      value: 0
    }
  }
}
layer {
  name: "rpn_p4_relu_3x3"
  type: "ReLU"
  bottom: "rpn_p4_output"
  top: "rpn_p4_output"
}
layer {
  name: "rpn_p4_cls_score"
  type: "Convolution"
  bottom: "rpn_p4_output"
  top: "rpn_p4_cls_score"
  param {
    lr_mult: 1
    decay_mult: 1
  }
  param {
    lr_mult: 2
    decay_mult: 0
  }
  convolution_param {
    num_output: 18   # 2(bg/fg) * 9(anchors)
    kernel_size: 1
    pad: 0
    stride: 1
    weight_filler {
      type: "gaussian"
      std: 0.01
    }
    bias_filler {
      type: "constant"
      value: 0
    }
  }
}
layer {
  name: "rpn_p4_bbox_pred"
  type: "Convolution"
  bottom: "rpn_p4_output"
  top: "rpn_p4_bbox_pred"
  param {
    lr_mult: 1
    decay_mult: 1
  }
  param {
    lr_mult: 2
    decay_mult: 0
  }
  convolution_param {
    num_output: 36   # 4 * 9(anchors)
    kernel_size: 1
    pad: 0
    stride: 1
    weight_filler {
      type: "gaussian"
      std: 0.01
    }
    bias_filler {
      type: "constant"
      value: 0
    }
  }
}
layer {
  bottom: "rpn_p4_cls_score"
  top: "rpn_p4_cls_score_reshape"
  name: "rpn_p4_cls_score_reshape"
  type: "Reshape"
  reshape_param {
    shape {
      dim: 0
      dim: 2
      dim: -1
      dim: 0
    }
  }
}

#### p3
layer {
  name: "rpn_p3_conv_3x3"
  type: "Convolution"
  bottom: "p3_elewise"
  top: "rpn_p3_output"
  param {
    lr_mult: 1
    decay_mult: 1
  }
  param {
    lr_mult: 2
    decay_mult: 0
  }
  convolution_param {
    num_output: 512
    kernel_size: 3
    pad: 1
    stride: 1
    weight_filler {
      type: "gaussian"
      std: 0.01
    }
    bias_filler {
      type: "constant"
      value: 0
    }
  }
}
layer {
  name: "rpn_p3_relu_3x3"
  type: "ReLU"
  bottom: "rpn_p3_output"
  top: "rpn_p3_output"
}
layer {
  name: "rpn_p3_cls_score"
  type: "Convolution"
  bottom: "rpn_p3_output"
  top: "rpn_p3_cls_score"
  param {
    lr_mult: 1
    decay_mult: 1
  }
  param {
    lr_mult: 2
    decay_mult: 0
  }
  convolution_param {
    num_output: 18   # 2(bg/fg) * 9(anchors)
    kernel_size: 1
    pad: 0
    stride: 1
    weight_filler {
      type: "gaussian"
      std: 0.01
    }
    bias_filler {
      type: "constant"
      value: 0
    }
  }
}
layer {
  name: "rpn_p3_bbox_pred"
  type: "Convolution"
  bottom: "rpn_p3_output"
  top: "rpn_p3_bbox_pred"
  param {
    lr_mult: 1
    decay_mult: 1
  }
  param {
    lr_mult: 2
    decay_mult: 0
  }
  convolution_param {
    num_output: 36   # 4 * 9(anchors)
    kernel_size: 1
    pad: 0
    stride: 1
    weight_filler {
      type: "gaussian"
      std: 0.01
    }
    bias_filler {
      type: "constant"
      value: 0
    }
  }
}
layer {
  bottom: "rpn_p3_cls_score"
  top: "rpn_p3_cls_score_reshape"
  name: "rpn_p3_cls_score_reshape"
  type: "Reshape"
  reshape_param {
    shape {
      dim: 0
      dim: 2
      dim: -1
      dim: 0
    }
  }
}

#### p2
layer {
  name: "rpn_p2_conv_3x3"
  type: "Convolution"
  bottom: "p2_elewise"
  top: "rpn_p2_output"
  param {
    lr_mult: 1
    decay_mult: 1
  }
  param {
    lr_mult: 2
    decay_mult: 0
  }
  convolution_param {
    num_output: 512
    kernel_size: 3
    pad: 1
    stride: 1
    weight_filler {
      type: "gaussian"
      std: 0.01
    }
    bias_filler {
      type: "constant"
      value: 0
    }
  }
}
layer {
  name: "rpn_p2_relu_3x3"
  type: "ReLU"
  bottom: "rpn_p2_output"
  top: "rpn_p2_output"
}
layer {
  name: "rpn_p2_cls_score"
  type: "Convolution"
  bottom: "rpn_p2_output"
  top: "rpn_p2_cls_score"
  param {
    lr_mult: 1
    decay_mult: 1
  }
  param {
    lr_mult: 2
    decay_mult: 0
  }
  convolution_param {
    num_output: 18   # 2(bg/fg) * 9(anchors)
    kernel_size: 1
    pad: 0
    stride: 1
    weight_filler {
      type: "gaussian"
      std: 0.01
    }
    bias_filler {
      type: "constant"
      value: 0
    }
  }
}
layer {
  name: "rpn_p2_bbox_pred"
  type: "Convolution"
  bottom: "rpn_p2_output"
  top: "rpn_p2_bbox_pred"
  param {
    lr_mult: 1
    decay_mult: 1
  }
  param {
    lr_mult: 2
    decay_mult: 0
  }
  convolution_param {
    num_output: 36   # 4 * 9(anchors)
    kernel_size: 1
    pad: 0
    stride: 1
    weight_filler {
      type: "gaussian"
      std: 0.01
    }
    bias_filler {
      type: "constant"
      value: 0
    }
  }
}
layer {
  bottom: "rpn_p2_cls_score"
  top: "rpn_p2_cls_score_reshape"
  name: "rpn_p2_cls_score_reshape"
  type: "Reshape"
  reshape_param {
    shape {
      dim: 0
      dim: 2
      dim: -1
      dim: 0
    }
  }
}

#============== ROI Proposal ===============
### p5
layer {
  name: "rpn_p5_cls_prob"
  type: "Softmax"
  bottom: "rpn_p5_cls_score_reshape"
  top: "rpn_p5_cls_prob"
}
layer {
  name: 'rpn_p5_cls_prob_reshape'
  type: 'Reshape'
  bottom: 'rpn_p5_cls_prob'
  top: 'rpn_p5_cls_prob_reshape'
  reshape_param {
    shape {
      dim: 0
      dim: 18
      dim: -1
      dim: 0
    }
  }
}
layer {
  name: 'proposal_p5'
  type: 'Python'
  bottom: 'rpn_p5_cls_prob_reshape'
  bottom: 'rpn_p5_bbox_pred'
  bottom: 'im_info'
  top: 'rpn_p5_rois'
  top: 'rpn_p5-scores'
  python_param {
    module: 'rpn.proposal_layer'
    layer: 'ProposalLayer'
    param_str: "{'feat_stride': 32, 'scales': [16, 32, 64]}"
  }
}

### p4
layer {
  name: "rpn_p4_cls_prob"
  type: "Softmax"
  bottom: "rpn_p4_cls_score_reshape"
  top: "rpn_p4_cls_prob"
}
layer {
  name: 'rpn_p4_cls_prob_reshape'
  type: 'Reshape'
  bottom: 'rpn_p4_cls_prob'
  top: 'rpn_p4_cls_prob_reshape'
  reshape_param {
    shape {
      dim: 0
      dim: 18
      dim: -1
      dim: 0
    }
  }
}
layer {
  name: 'proposal_p4'
  type: 'Python'
  bottom: 'rpn_p4_cls_prob_reshape'
  bottom: 'rpn_p4_bbox_pred'
  bottom: 'im_info'
  top: 'rpn_p4_rois'
  top: 'rpn_p4-scores'
  python_param {
    module: 'rpn.proposal_layer'
    layer: 'ProposalLayer'
    param_str: "{'feat_stride': 16, 'scales': [8, 16, 32]}"
  }
}

### p3
layer {
  name: "rpn_p3_cls_prob"
  type: "Softmax"
  bottom: "rpn_p3_cls_score_reshape"
  top: "rpn_p3_cls_prob"
}
layer {
  name: 'rpn_p3_cls_prob_reshape'
  type: 'Reshape'
  bottom: 'rpn_p3_cls_prob'
  top: 'rpn_p3_cls_prob_reshape'
  reshape_param {
    shape {
      dim: 0
      dim: 18
      dim: -1
      dim: 0
    }
  }
}
layer {
  name: 'proposal_p3'
  type: 'Python'
  bottom: 'rpn_p3_cls_prob_reshape'
  bottom: 'rpn_p3_bbox_pred'
  bottom: 'im_info'
  top: 'rpn_p3_rois'
  top: 'rpn_p3-scores'
  python_param {
    module: 'rpn.proposal_layer'
    layer: 'ProposalLayer'
    param_str: "{'feat_stride': 8, 'scales': [4, 8, 16]}"
  }
}

### p2
layer {
  name: "rpn_p2_cls_prob"
  type: "Softmax"
  bottom: "rpn_p2_cls_score_reshape"
  top: "rpn_p2_cls_prob"
}
layer {
  name: 'rpn_p2_cls_prob_reshape'
  type: 'Reshape'
  bottom: 'rpn_p2_cls_prob'
  top: 'rpn_p2_cls_prob_reshape'
  reshape_param {
    shape {
      dim: 0
      dim: 18
      dim: -1
      dim: 0
    }
  }
}
layer {
  name: 'proposal_p2'
  type: 'Python'
  bottom: 'rpn_p2_cls_prob_reshape'
  bottom: 'rpn_p2_bbox_pred'
  bottom: 'im_info'
  top: 'rpn_p2_rois'
  top: 'rpn_p2-scores'
  python_param {
    module: 'rpn.proposal_layer'
    layer: 'ProposalLayer'
    param_str: "{'feat_stride': 4, 'scales': [2, 4, 8]}"
  }
}

#### rois concat
layer {
  name: "fpn_rois_concat"
  type: "Concat"
  bottom: "rpn_p5_rois"
  bottom: "rpn_p4_rois"
  bottom: "rpn_p3_rois"
  bottom: "rpn_p2_rois"
  top: "rois"
  concat_param {
    axis: 0
  }
}
layer {
  name: "rpn-scores"
  type: "Concat"
  bottom: "rpn_p5-scores"
  bottom: "rpn_p4-scores"
  bottom: "rpn_p3-scores"
  bottom: "rpn_p2-scores"
  top: "rpn-scores"
  concat_param {
    axis: 0
  }
}


