name: "faster_voc_densenet201"
layer {
  name: 'input-data'
  type: 'Python'
  top: 'data'
  top: 'im_info'
  top: 'gt_boxes'
  python_param {
    module: 'roi_data_layer.layer'
    layer: 'RoIDataLayer'
    param_str: "'num_classes': 21"
  }
}

################ densenet201 ################
layer {
  name: "conv1"
  type: "Convolution"
  bottom: "data"
  top: "conv1"
  param {
    lr_mult: 0
    decay_mult: 0
  }
  convolution_param {
    num_output: 64
    bias_term: false
    pad: 3
    kernel_size: 7
    stride: 2
  }
}
layer {
  name: "conv1_scale"
  type: "Scale"
  bottom: "conv1"
  top: "conv1"
  scale_param {
    bias_term: true
  }
  param {
    lr_mult: 0.0
    decay_mult: 0.0
  }
  param {
    lr_mult: 0.0
    decay_mult: 0.0
  }
}
layer {
  name: "conv1_relu"
  type: "ReLU"
  bottom: "conv1"
  top: "conv1"
}
layer {
  name: "pool1"
  type: "Pooling"
  bottom: "conv1"
  top: "pool1"
  pooling_param {
    pool: MAX
    kernel_size: 3
    stride: 2
    pad: 1
    ceil_mode: false
  }
}
layer {
  name: "dense1_scale"
  type: "Scale"
  bottom: "pool1"
  top: "dense1_scale"
  scale_param {
    bias_term: true
  }
  param {
    lr_mult: 0.0
    decay_mult: 0.0
  }
  param {
    lr_mult: 0.0
    decay_mult: 0.0
  }
}
layer {
  name: "dense1_relu"
  type: "ReLU"
  bottom: "dense1_scale"
  top: "dense1_scale"
}
layer {
  name: "dense1_conv1"
  type: "Convolution"
  bottom: "dense1_scale"
  top: "dense1_conv1"
  param {
    lr_mult: 0
    decay_mult: 0
  }
  convolution_param {
    num_output: 128
    bias_term: false
    kernel_size: 1
  }
}
layer {
  name: "dense1_conv1_scale"
  type: "Scale"
  bottom: "dense1_conv1"
  top: "dense1_conv1"
  scale_param {
    bias_term: true
  }
  param {
    lr_mult: 0.0
    decay_mult: 0.0
  }
  param {
    lr_mult: 0.0
    decay_mult: 0.0
  }
}
layer {
  name: "dense1_conv1_relu"
  type: "ReLU"
  bottom: "dense1_conv1"
  top: "dense1_conv1"
}
layer {
  name: "dense1_conv2"
  type: "Convolution"
  bottom: "dense1_conv1"
  top: "dense1_conv2"
  param {
    lr_mult: 0
    decay_mult: 0
  }
  convolution_param {
    num_output: 32
    bias_term: false
    pad: 1
    kernel_size: 3
  }
}
layer {
  name: "dense1_concat"
  type: "Concat"
  bottom: "pool1"
  bottom: "dense1_conv2"
  top: "dense1_concat"
}
layer {
  name: "dense2_scale"
  type: "Scale"
  bottom: "dense1_concat"
  top: "dense2_scale"
  scale_param {
    bias_term: true
  }
  param {
    lr_mult: 0.0
    decay_mult: 0.0
  }
  param {
    lr_mult: 0.0
    decay_mult: 0.0
  }
}
layer {
  name: "dense2_relu"
  type: "ReLU"
  bottom: "dense2_scale"
  top: "dense2_scale"
}
layer {
  name: "dense2_conv1"
  type: "Convolution"
  bottom: "dense2_scale"
  top: "dense2_conv1"
  param {
    lr_mult: 0
    decay_mult: 0
  }
  convolution_param {
    num_output: 128
    bias_term: false
    kernel_size: 1
  }
}
layer {
  name: "dense2_conv1_scale"
  type: "Scale"
  bottom: "dense2_conv1"
  top: "dense2_conv1"
  scale_param {
    bias_term: true
  }
  param {
    lr_mult: 0.0
    decay_mult: 0.0
  }
  param {
    lr_mult: 0.0
    decay_mult: 0.0
  }
}
layer {
  name: "dense2_conv1_relu"
  type: "ReLU"
  bottom: "dense2_conv1"
  top: "dense2_conv1"
}
layer {
  name: "dense2_conv2"
  type: "Convolution"
  bottom: "dense2_conv1"
  top: "dense2_conv2"
  param {
    lr_mult: 0
    decay_mult: 0
  }
  convolution_param {
    num_output: 32
    bias_term: false
    pad: 1
    kernel_size: 3
  }
}
layer {
  name: "dense2_concat"
  type: "Concat"
  bottom: "dense1_concat"
  bottom: "dense2_conv2"
  top: "dense2_concat"
}
layer {
  name: "dense3_scale"
  type: "Scale"
  bottom: "dense2_concat"
  top: "dense3_scale"
  scale_param {
    bias_term: true
  }
  param {
    lr_mult: 0.0
    decay_mult: 0.0
  }
  param {
    lr_mult: 0.0
    decay_mult: 0.0
  }
}
layer {
  name: "dense3_relu"
  type: "ReLU"
  bottom: "dense3_scale"
  top: "dense3_scale"
}
layer {
  name: "dense3_conv1"
  type: "Convolution"
  bottom: "dense3_scale"
  top: "dense3_conv1"
  param {
    lr_mult: 0
    decay_mult: 0
  }
  convolution_param {
    num_output: 128
    bias_term: false
    kernel_size: 1
  }
}
layer {
  name: "dense3_conv1_scale"
  type: "Scale"
  bottom: "dense3_conv1"
  top: "dense3_conv1"
  scale_param {
    bias_term: true
  }
  param {
    lr_mult: 0.0
    decay_mult: 0.0
  }
  param {
    lr_mult: 0.0
    decay_mult: 0.0
  }
}
layer {
  name: "dense3_conv1_relu"
  type: "ReLU"
  bottom: "dense3_conv1"
  top: "dense3_conv1"
}
layer {
  name: "dense3_conv2"
  type: "Convolution"
  bottom: "dense3_conv1"
  top: "dense3_conv2"
  param {
    lr_mult: 0
    decay_mult: 0
  }
  convolution_param {
    num_output: 32
    bias_term: false
    pad: 1
    kernel_size: 3
  }
}
layer {
  name: "dense3_concat"
  type: "Concat"
  bottom: "dense2_concat"
  bottom: "dense3_conv2"
  top: "dense3_concat"
}
layer {
  name: "dense4_scale"
  type: "Scale"
  bottom: "dense3_concat"
  top: "dense4_scale"
  scale_param {
    bias_term: true
  }
  param {
    lr_mult: 0.0
    decay_mult: 0.0
  }
  param {
    lr_mult: 0.0
    decay_mult: 0.0
  }
}
layer {
  name: "dense4_relu"
  type: "ReLU"
  bottom: "dense4_scale"
  top: "dense4_scale"
}
layer {
  name: "dense4_conv1"
  type: "Convolution"
  bottom: "dense4_scale"
  top: "dense4_conv1"
  param {
    lr_mult: 0
    decay_mult: 0
  }
  convolution_param {
    num_output: 128
    bias_term: false
    kernel_size: 1
  }
}
layer {
  name: "dense4_conv1_scale"
  type: "Scale"
  bottom: "dense4_conv1"
  top: "dense4_conv1"
  scale_param {
    bias_term: true
  }
  param {
    lr_mult: 0.0
    decay_mult: 0.0
  }
  param {
    lr_mult: 0.0
    decay_mult: 0.0
  }
}
layer {
  name: "dense4_conv1_relu"
  type: "ReLU"
  bottom: "dense4_conv1"
  top: "dense4_conv1"
}
layer {
  name: "dense4_conv2"
  type: "Convolution"
  bottom: "dense4_conv1"
  top: "dense4_conv2"
  param {
    lr_mult: 0
    decay_mult: 0
  }
  convolution_param {
    num_output: 32
    bias_term: false
    pad: 1
    kernel_size: 3
  }
}
layer {
  name: "dense4_concat"
  type: "Concat"
  bottom: "dense3_concat"
  bottom: "dense4_conv2"
  top: "dense4_concat"
}
layer {
  name: "dense5_scale"
  type: "Scale"
  bottom: "dense4_concat"
  top: "dense5_scale"
  scale_param {
    bias_term: true
  }
  param {
    lr_mult: 0.0
    decay_mult: 0.0
  }
  param {
    lr_mult: 0.0
    decay_mult: 0.0
  }
}
layer {
  name: "dense5_relu"
  type: "ReLU"
  bottom: "dense5_scale"
  top: "dense5_scale"
}
layer {
  name: "dense5_conv1"
  type: "Convolution"
  bottom: "dense5_scale"
  top: "dense5_conv1"
  param {
    lr_mult: 0
    decay_mult: 0
  }
  convolution_param {
    num_output: 128
    bias_term: false
    kernel_size: 1
  }
}
layer {
  name: "dense5_conv1_scale"
  type: "Scale"
  bottom: "dense5_conv1"
  top: "dense5_conv1"
  scale_param {
    bias_term: true
  }
  param {
    lr_mult: 0.0
    decay_mult: 0.0
  }
  param {
    lr_mult: 0.0
    decay_mult: 0.0
  }
}
layer {
  name: "dense5_conv1_relu"
  type: "ReLU"
  bottom: "dense5_conv1"
  top: "dense5_conv1"
}
layer {
  name: "dense5_conv2"
  type: "Convolution"
  bottom: "dense5_conv1"
  top: "dense5_conv2"
  param {
    lr_mult: 0
    decay_mult: 0
  }
  convolution_param {
    num_output: 32
    bias_term: false
    pad: 1
    kernel_size: 3
  }
}
layer {
  name: "dense5_concat"
  type: "Concat"
  bottom: "dense4_concat"
  bottom: "dense5_conv2"
  top: "dense5_concat"
}
layer {
  name: "dense6_scale"
  type: "Scale"
  bottom: "dense5_concat"
  top: "dense6_scale"
  scale_param {
    bias_term: true
  }
  param {
    lr_mult: 0.0
    decay_mult: 0.0
  }
  param {
    lr_mult: 0.0
    decay_mult: 0.0
  }
}
layer {
  name: "dense6_relu"
  type: "ReLU"
  bottom: "dense6_scale"
  top: "dense6_scale"
}
layer {
  name: "dense6_conv1"
  type: "Convolution"
  bottom: "dense6_scale"
  top: "dense6_conv1"
  param {
    lr_mult: 0
    decay_mult: 0
  }
  convolution_param {
    num_output: 128
    bias_term: false
    kernel_size: 1
  }
}
layer {
  name: "dense6_conv1_scale"
  type: "Scale"
  bottom: "dense6_conv1"
  top: "dense6_conv1"
  scale_param {
    bias_term: true
  }
  param {
    lr_mult: 0.0
    decay_mult: 0.0
  }
  param {
    lr_mult: 0.0
    decay_mult: 0.0
  }
}
layer {
  name: "dense6_conv1_relu"
  type: "ReLU"
  bottom: "dense6_conv1"
  top: "dense6_conv1"
}
layer {
  name: "dense6_conv2"
  type: "Convolution"
  bottom: "dense6_conv1"
  top: "dense6_conv2"
  param {
    lr_mult: 0
    decay_mult: 0
  }
  convolution_param {
    num_output: 32
    bias_term: false
    pad: 1
    kernel_size: 3
  }
}
layer {
  name: "dense6_concat"
  type: "Concat"
  bottom: "dense5_concat"
  bottom: "dense6_conv2"
  top: "dense6_concat"
}
layer {
  name: "dense6_concat_scale"
  type: "Scale"
  bottom: "dense6_concat"
  top: "dense6_concat"
  scale_param {
    bias_term: true
  }
  param {
    lr_mult: 0.0
    decay_mult: 0.0
  }
  param {
    lr_mult: 0.0
    decay_mult: 0.0
  }
}
layer {
  name: "dense6_concat_relu"
  type: "ReLU"
  bottom: "dense6_concat"
  top: "dense6_concat"
}
layer {
  name: "conv2"
  type: "Convolution"
  bottom: "dense6_concat"
  top: "conv2"
  param {
    lr_mult: 0
    decay_mult: 0
  }
  convolution_param {
    num_output: 128
    bias_term: false
    kernel_size: 1
  }
}
layer {
  name: "pool2"
  type: "Pooling"
  bottom: "conv2"
  top: "pool2"
  pooling_param {
    pool: AVE
    kernel_size: 2
    stride: 2
  }
}
layer {
  name: "dense7_scale"
  type: "Scale"
  bottom: "pool2"
  top: "dense7_scale"
  scale_param {
    bias_term: true
  }
  param {
    lr_mult: 0.0
    decay_mult: 0.0
  }
  param {
    lr_mult: 0.0
    decay_mult: 0.0
  }
}
layer {
  name: "dense7_relu"
  type: "ReLU"
  bottom: "dense7_scale"
  top: "dense7_scale"
}
layer {
  name: "dense7_conv1"
  type: "Convolution"
  bottom: "dense7_scale"
  top: "dense7_conv1"
  param {
    lr_mult: 1
    decay_mult: 1
  }
  convolution_param {
    num_output: 128
    bias_term: false
    kernel_size: 1
  }
}
layer {
  name: "dense7_conv1_scale"
  type: "Scale"
  bottom: "dense7_conv1"
  top: "dense7_conv1"
  scale_param {
    bias_term: true
  }
  param {
    lr_mult: 0.0
    decay_mult: 0.0
  }
  param {
    lr_mult: 0.0
    decay_mult: 0.0
  }
}
layer {
  name: "dense7_conv1_relu"
  type: "ReLU"
  bottom: "dense7_conv1"
  top: "dense7_conv1"
}
layer {
  name: "dense7_conv2"
  type: "Convolution"
  bottom: "dense7_conv1"
  top: "dense7_conv2"
  param {
    lr_mult: 1
    decay_mult: 1
  }
  convolution_param {
    num_output: 32
    bias_term: false
    pad: 1
    kernel_size: 3
  }
}
layer {
  name: "dense7_concat"
  type: "Concat"
  bottom: "pool2"
  bottom: "dense7_conv2"
  top: "dense7_concat"
}
layer {
  name: "dense8_scale"
  type: "Scale"
  bottom: "dense7_concat"
  top: "dense8_scale"
  scale_param {
    bias_term: true
  }
  param {
    lr_mult: 0.0
    decay_mult: 0.0
  }
  param {
    lr_mult: 0.0
    decay_mult: 0.0
  }
}
layer {
  name: "dense8_relu"
  type: "ReLU"
  bottom: "dense8_scale"
  top: "dense8_scale"
}
layer {
  name: "dense8_conv1"
  type: "Convolution"
  bottom: "dense8_scale"
  top: "dense8_conv1"
  param {
    lr_mult: 1
    decay_mult: 1
  }
  convolution_param {
    num_output: 128
    bias_term: false
    kernel_size: 1
  }
}
layer {
  name: "dense8_conv1_scale"
  type: "Scale"
  bottom: "dense8_conv1"
  top: "dense8_conv1"
  scale_param {
    bias_term: true
  }
  param {
    lr_mult: 0.0
    decay_mult: 0.0
  }
  param {
    lr_mult: 0.0
    decay_mult: 0.0
  }
}
layer {
  name: "dense8_conv1_relu"
  type: "ReLU"
  bottom: "dense8_conv1"
  top: "dense8_conv1"
}
layer {
  name: "dense8_conv2"
  type: "Convolution"
  bottom: "dense8_conv1"
  top: "dense8_conv2"
  param {
    lr_mult: 1
    decay_mult: 1
  }
  convolution_param {
    num_output: 32
    bias_term: false
    pad: 1
    kernel_size: 3
  }
}
layer {
  name: "dense8_concat"
  type: "Concat"
  bottom: "dense7_concat"
  bottom: "dense8_conv2"
  top: "dense8_concat"
}
layer {
  name: "dense9_scale"
  type: "Scale"
  bottom: "dense8_concat"
  top: "dense9_scale"
  scale_param {
    bias_term: true
  }
  param {
    lr_mult: 0.0
    decay_mult: 0.0
  }
  param {
    lr_mult: 0.0
    decay_mult: 0.0
  }
}
layer {
  name: "dense9_relu"
  type: "ReLU"
  bottom: "dense9_scale"
  top: "dense9_scale"
}
layer {
  name: "dense9_conv1"
  type: "Convolution"
  bottom: "dense9_scale"
  top: "dense9_conv1"
  param {
    lr_mult: 1
    decay_mult: 1
  }
  convolution_param {
    num_output: 128
    bias_term: false
    kernel_size: 1
  }
}
layer {
  name: "dense9_conv1_scale"
  type: "Scale"
  bottom: "dense9_conv1"
  top: "dense9_conv1"
  scale_param {
    bias_term: true
  }
  param {
    lr_mult: 0.0
    decay_mult: 0.0
  }
  param {
    lr_mult: 0.0
    decay_mult: 0.0
  }
}
layer {
  name: "dense9_conv1_relu"
  type: "ReLU"
  bottom: "dense9_conv1"
  top: "dense9_conv1"
}
layer {
  name: "dense9_conv2"
  type: "Convolution"
  bottom: "dense9_conv1"
  top: "dense9_conv2"
  param {
    lr_mult: 1
    decay_mult: 1
  }
  convolution_param {
    num_output: 32
    bias_term: false
    pad: 1
    kernel_size: 3
  }
}
layer {
  name: "dense9_concat"
  type: "Concat"
  bottom: "dense8_concat"
  bottom: "dense9_conv2"
  top: "dense9_concat"
}
layer {
  name: "dense10_scale"
  type: "Scale"
  bottom: "dense9_concat"
  top: "dense10_scale"
  scale_param {
    bias_term: true
  }
  param {
    lr_mult: 0.0
    decay_mult: 0.0
  }
  param {
    lr_mult: 0.0
    decay_mult: 0.0
  }
}
layer {
  name: "dense10_relu"
  type: "ReLU"
  bottom: "dense10_scale"
  top: "dense10_scale"
}
layer {
  name: "dense10_conv1"
  type: "Convolution"
  bottom: "dense10_scale"
  top: "dense10_conv1"
  param {
    lr_mult: 1
    decay_mult: 1
  }
  convolution_param {
    num_output: 128
    bias_term: false
    kernel_size: 1
  }
}
layer {
  name: "dense10_conv1_scale"
  type: "Scale"
  bottom: "dense10_conv1"
  top: "dense10_conv1"
  scale_param {
    bias_term: true
  }
  param {
    lr_mult: 0.0
    decay_mult: 0.0
  }
  param {
    lr_mult: 0.0
    decay_mult: 0.0
  }
}
layer {
  name: "dense10_conv1_relu"
  type: "ReLU"
  bottom: "dense10_conv1"
  top: "dense10_conv1"
}
layer {
  name: "dense10_conv2"
  type: "Convolution"
  bottom: "dense10_conv1"
  top: "dense10_conv2"
  param {
    lr_mult: 1
    decay_mult: 1
  }
  convolution_param {
    num_output: 32
    bias_term: false
    pad: 1
    kernel_size: 3
  }
}
layer {
  name: "dense10_concat"
  type: "Concat"
  bottom: "dense9_concat"
  bottom: "dense10_conv2"
  top: "dense10_concat"
}
layer {
  name: "dense11_scale"
  type: "Scale"
  bottom: "dense10_concat"
  top: "dense11_scale"
  scale_param {
    bias_term: true
  }
  param {
    lr_mult: 0.0
    decay_mult: 0.0
  }
  param {
    lr_mult: 0.0
    decay_mult: 0.0
  }
}
layer {
  name: "dense11_relu"
  type: "ReLU"
  bottom: "dense11_scale"
  top: "dense11_scale"
}
layer {
  name: "dense11_conv1"
  type: "Convolution"
  bottom: "dense11_scale"
  top: "dense11_conv1"
  param {
    lr_mult: 1
    decay_mult: 1
  }
  convolution_param {
    num_output: 128
    bias_term: false
    kernel_size: 1
  }
}
layer {
  name: "dense11_conv1_scale"
  type: "Scale"
  bottom: "dense11_conv1"
  top: "dense11_conv1"
  scale_param {
    bias_term: true
  }
  param {
    lr_mult: 0.0
    decay_mult: 0.0
  }
  param {
    lr_mult: 0.0
    decay_mult: 0.0
  }
}
layer {
  name: "dense11_conv1_relu"
  type: "ReLU"
  bottom: "dense11_conv1"
  top: "dense11_conv1"
}
layer {
  name: "dense11_conv2"
  type: "Convolution"
  bottom: "dense11_conv1"
  top: "dense11_conv2"
  param {
    lr_mult: 1
    decay_mult: 1
  }
  convolution_param {
    num_output: 32
    bias_term: false
    pad: 1
    kernel_size: 3
  }
}
layer {
  name: "dense11_concat"
  type: "Concat"
  bottom: "dense10_concat"
  bottom: "dense11_conv2"
  top: "dense11_concat"
}
layer {
  name: "dense12_scale"
  type: "Scale"
  bottom: "dense11_concat"
  top: "dense12_scale"
  scale_param {
    bias_term: true
  }
  param {
    lr_mult: 0.0
    decay_mult: 0.0
  }
  param {
    lr_mult: 0.0
    decay_mult: 0.0
  }
}
layer {
  name: "dense12_relu"
  type: "ReLU"
  bottom: "dense12_scale"
  top: "dense12_scale"
}
layer {
  name: "dense12_conv1"
  type: "Convolution"
  bottom: "dense12_scale"
  top: "dense12_conv1"
  param {
    lr_mult: 1
    decay_mult: 1
  }
  convolution_param {
    num_output: 128
    bias_term: false
    kernel_size: 1
  }
}
layer {
  name: "dense12_conv1_scale"
  type: "Scale"
  bottom: "dense12_conv1"
  top: "dense12_conv1"
  scale_param {
    bias_term: true
  }
  param {
    lr_mult: 0.0
    decay_mult: 0.0
  }
  param {
    lr_mult: 0.0
    decay_mult: 0.0
  }
}
layer {
  name: "dense12_conv1_relu"
  type: "ReLU"
  bottom: "dense12_conv1"
  top: "dense12_conv1"
}
layer {
  name: "dense12_conv2"
  type: "Convolution"
  bottom: "dense12_conv1"
  top: "dense12_conv2"
  param {
    lr_mult: 1
    decay_mult: 1
  }
  convolution_param {
    num_output: 32
    bias_term: false
    pad: 1
    kernel_size: 3
  }
}
layer {
  name: "dense12_concat"
  type: "Concat"
  bottom: "dense11_concat"
  bottom: "dense12_conv2"
  top: "dense12_concat"
}
layer {
  name: "dense13_scale"
  type: "Scale"
  bottom: "dense12_concat"
  top: "dense13_scale"
  scale_param {
    bias_term: true
  }
  param {
    lr_mult: 0.0
    decay_mult: 0.0
  }
  param {
    lr_mult: 0.0
    decay_mult: 0.0
  }
}
layer {
  name: "dense13_relu"
  type: "ReLU"
  bottom: "dense13_scale"
  top: "dense13_scale"
}
layer {
  name: "dense13_conv1"
  type: "Convolution"
  bottom: "dense13_scale"
  top: "dense13_conv1"
  param {
    lr_mult: 1
    decay_mult: 1
  }
  convolution_param {
    num_output: 128
    bias_term: false
    kernel_size: 1
  }
}
layer {
  name: "dense13_conv1_scale"
  type: "Scale"
  bottom: "dense13_conv1"
  top: "dense13_conv1"
  scale_param {
    bias_term: true
  }
  param {
    lr_mult: 0.0
    decay_mult: 0.0
  }
  param {
    lr_mult: 0.0
    decay_mult: 0.0
  }
}
layer {
  name: "dense13_conv1_relu"
  type: "ReLU"
  bottom: "dense13_conv1"
  top: "dense13_conv1"
}
layer {
  name: "dense13_conv2"
  type: "Convolution"
  bottom: "dense13_conv1"
  top: "dense13_conv2"
  param {
    lr_mult: 1
    decay_mult: 1
  }
  convolution_param {
    num_output: 32
    bias_term: false
    pad: 1
    kernel_size: 3
  }
}
layer {
  name: "dense13_concat"
  type: "Concat"
  bottom: "dense12_concat"
  bottom: "dense13_conv2"
  top: "dense13_concat"
}
layer {
  name: "dense14_scale"
  type: "Scale"
  bottom: "dense13_concat"
  top: "dense14_scale"
  scale_param {
    bias_term: true
  }
  param {
    lr_mult: 0.0
    decay_mult: 0.0
  }
  param {
    lr_mult: 0.0
    decay_mult: 0.0
  }
}
layer {
  name: "dense14_relu"
  type: "ReLU"
  bottom: "dense14_scale"
  top: "dense14_scale"
}
layer {
  name: "dense14_conv1"
  type: "Convolution"
  bottom: "dense14_scale"
  top: "dense14_conv1"
  param {
    lr_mult: 1
    decay_mult: 1
  }
  convolution_param {
    num_output: 128
    bias_term: false
    kernel_size: 1
  }
}
layer {
  name: "dense14_conv1_scale"
  type: "Scale"
  bottom: "dense14_conv1"
  top: "dense14_conv1"
  scale_param {
    bias_term: true
  }
  param {
    lr_mult: 0.0
    decay_mult: 0.0
  }
  param {
    lr_mult: 0.0
    decay_mult: 0.0
  }
}
layer {
  name: "dense14_conv1_relu"
  type: "ReLU"
  bottom: "dense14_conv1"
  top: "dense14_conv1"
}
layer {
  name: "dense14_conv2"
  type: "Convolution"
  bottom: "dense14_conv1"
  top: "dense14_conv2"
  param {
    lr_mult: 1
    decay_mult: 1
  }
  convolution_param {
    num_output: 32
    bias_term: false
    pad: 1
    kernel_size: 3
  }
}
layer {
  name: "dense14_concat"
  type: "Concat"
  bottom: "dense13_concat"
  bottom: "dense14_conv2"
  top: "dense14_concat"
}
layer {
  name: "dense15_scale"
  type: "Scale"
  bottom: "dense14_concat"
  top: "dense15_scale"
  scale_param {
    bias_term: true
  }
  param {
    lr_mult: 0.0
    decay_mult: 0.0
  }
  param {
    lr_mult: 0.0
    decay_mult: 0.0
  }
}
layer {
  name: "dense15_relu"
  type: "ReLU"
  bottom: "dense15_scale"
  top: "dense15_scale"
}
layer {
  name: "dense15_conv1"
  type: "Convolution"
  bottom: "dense15_scale"
  top: "dense15_conv1"
  param {
    lr_mult: 1
    decay_mult: 1
  }
  convolution_param {
    num_output: 128
    bias_term: false
    kernel_size: 1
  }
}
layer {
  name: "dense15_conv1_scale"
  type: "Scale"
  bottom: "dense15_conv1"
  top: "dense15_conv1"
  scale_param {
    bias_term: true
  }
  param {
    lr_mult: 0.0
    decay_mult: 0.0
  }
  param {
    lr_mult: 0.0
    decay_mult: 0.0
  }
}
layer {
  name: "dense15_conv1_relu"
  type: "ReLU"
  bottom: "dense15_conv1"
  top: "dense15_conv1"
}
layer {
  name: "dense15_conv2"
  type: "Convolution"
  bottom: "dense15_conv1"
  top: "dense15_conv2"
  param {
    lr_mult: 1
    decay_mult: 1
  }
  convolution_param {
    num_output: 32
    bias_term: false
    pad: 1
    kernel_size: 3
  }
}
layer {
  name: "dense15_concat"
  type: "Concat"
  bottom: "dense14_concat"
  bottom: "dense15_conv2"
  top: "dense15_concat"
}
layer {
  name: "dense16_scale"
  type: "Scale"
  bottom: "dense15_concat"
  top: "dense16_scale"
  scale_param {
    bias_term: true
  }
  param {
    lr_mult: 0.0
    decay_mult: 0.0
  }
  param {
    lr_mult: 0.0
    decay_mult: 0.0
  }
}
layer {
  name: "dense16_relu"
  type: "ReLU"
  bottom: "dense16_scale"
  top: "dense16_scale"
}
layer {
  name: "dense16_conv1"
  type: "Convolution"
  bottom: "dense16_scale"
  top: "dense16_conv1"
  param {
    lr_mult: 1
    decay_mult: 1
  }
  convolution_param {
    num_output: 128
    bias_term: false
    kernel_size: 1
  }
}
layer {
  name: "dense16_conv1_scale"
  type: "Scale"
  bottom: "dense16_conv1"
  top: "dense16_conv1"
  scale_param {
    bias_term: true
  }
  param {
    lr_mult: 0.0
    decay_mult: 0.0
  }
  param {
    lr_mult: 0.0
    decay_mult: 0.0
  }
}
layer {
  name: "dense16_conv1_relu"
  type: "ReLU"
  bottom: "dense16_conv1"
  top: "dense16_conv1"
}
layer {
  name: "dense16_conv2"
  type: "Convolution"
  bottom: "dense16_conv1"
  top: "dense16_conv2"
  param {
    lr_mult: 1
    decay_mult: 1
  }
  convolution_param {
    num_output: 32
    bias_term: false
    pad: 1
    kernel_size: 3
  }
}
layer {
  name: "dense16_concat"
  type: "Concat"
  bottom: "dense15_concat"
  bottom: "dense16_conv2"
  top: "dense16_concat"
}
layer {
  name: "dense17_scale"
  type: "Scale"
  bottom: "dense16_concat"
  top: "dense17_scale"
  scale_param {
    bias_term: true
  }
  param {
    lr_mult: 0.0
    decay_mult: 0.0
  }
  param {
    lr_mult: 0.0
    decay_mult: 0.0
  }
}
layer {
  name: "dense17_relu"
  type: "ReLU"
  bottom: "dense17_scale"
  top: "dense17_scale"
}
layer {
  name: "dense17_conv1"
  type: "Convolution"
  bottom: "dense17_scale"
  top: "dense17_conv1"
  param {
    lr_mult: 1
    decay_mult: 1
  }
  convolution_param {
    num_output: 128
    bias_term: false
    kernel_size: 1
  }
}
layer {
  name: "dense17_conv1_scale"
  type: "Scale"
  bottom: "dense17_conv1"
  top: "dense17_conv1"
  scale_param {
    bias_term: true
  }
  param {
    lr_mult: 0.0
    decay_mult: 0.0
  }
  param {
    lr_mult: 0.0
    decay_mult: 0.0
  }
}
layer {
  name: "dense17_conv1_relu"
  type: "ReLU"
  bottom: "dense17_conv1"
  top: "dense17_conv1"
}
layer {
  name: "dense17_conv2"
  type: "Convolution"
  bottom: "dense17_conv1"
  top: "dense17_conv2"
  param {
    lr_mult: 1
    decay_mult: 1
  }
  convolution_param {
    num_output: 32
    bias_term: false
    pad: 1
    kernel_size: 3
  }
}
layer {
  name: "dense17_concat"
  type: "Concat"
  bottom: "dense16_concat"
  bottom: "dense17_conv2"
  top: "dense17_concat"
}
layer {
  name: "dense18_scale"
  type: "Scale"
  bottom: "dense17_concat"
  top: "dense18_scale"
  scale_param {
    bias_term: true
  }
  param {
    lr_mult: 0.0
    decay_mult: 0.0
  }
  param {
    lr_mult: 0.0
    decay_mult: 0.0
  }
}
layer {
  name: "dense18_relu"
  type: "ReLU"
  bottom: "dense18_scale"
  top: "dense18_scale"
}
layer {
  name: "dense18_conv1"
  type: "Convolution"
  bottom: "dense18_scale"
  top: "dense18_conv1"
  param {
    lr_mult: 1
    decay_mult: 1
  }
  convolution_param {
    num_output: 128
    bias_term: false
    kernel_size: 1
  }
}
layer {
  name: "dense18_conv1_scale"
  type: "Scale"
  bottom: "dense18_conv1"
  top: "dense18_conv1"
  scale_param {
    bias_term: true
  }
  param {
    lr_mult: 0.0
    decay_mult: 0.0
  }
  param {
    lr_mult: 0.0
    decay_mult: 0.0
  }
}
layer {
  name: "dense18_conv1_relu"
  type: "ReLU"
  bottom: "dense18_conv1"
  top: "dense18_conv1"
}
layer {
  name: "dense18_conv2"
  type: "Convolution"
  bottom: "dense18_conv1"
  top: "dense18_conv2"
  param {
    lr_mult: 1
    decay_mult: 1
  }
  convolution_param {
    num_output: 32
    bias_term: false
    pad: 1
    kernel_size: 3
  }
}
layer {
  name: "dense18_concat"
  type: "Concat"
  bottom: "dense17_concat"
  bottom: "dense18_conv2"
  top: "dense18_concat"
}
layer {
  name: "dense18_concat_scale"
  type: "Scale"
  bottom: "dense18_concat"
  top: "dense18_concat"
  scale_param {
    bias_term: true
  }
  param {
    lr_mult: 0.0
    decay_mult: 0.0
  }
  param {
    lr_mult: 0.0
    decay_mult: 0.0
  }
}
layer {
  name: "dense18_concat_relu"
  type: "ReLU"
  bottom: "dense18_concat"
  top: "dense18_concat"
}
layer {
  name: "conv3"
  type: "Convolution"
  bottom: "dense18_concat"
  top: "conv3"
  param {
    lr_mult: 1
    decay_mult: 1
  }
  convolution_param {
    num_output: 256
    bias_term: false
    kernel_size: 1
  }
}
layer {
  name: "pool3"
  type: "Pooling"
  bottom: "conv3"
  top: "pool3"
  pooling_param {
    pool: AVE
    kernel_size: 2
    stride: 2
  }
}
layer {
  name: "dense19_scale"
  type: "Scale"
  bottom: "pool3"
  top: "dense19_scale"
  scale_param {
    bias_term: true
  }
  param {
    lr_mult: 0.0
    decay_mult: 0.0
  }
  param {
    lr_mult: 0.0
    decay_mult: 0.0
  }
}
layer {
  name: "dense19_relu"
  type: "ReLU"
  bottom: "dense19_scale"
  top: "dense19_scale"
}
layer {
  name: "dense19_conv1"
  type: "Convolution"
  bottom: "dense19_scale"
  top: "dense19_conv1"
  param {
    lr_mult: 1
    decay_mult: 1
  }
  convolution_param {
    num_output: 128
    bias_term: false
    kernel_size: 1
  }
}
layer {
  name: "dense19_conv1_scale"
  type: "Scale"
  bottom: "dense19_conv1"
  top: "dense19_conv1"
  scale_param {
    bias_term: true
  }
  param {
    lr_mult: 0.0
    decay_mult: 0.0
  }
  param {
    lr_mult: 0.0
    decay_mult: 0.0
  }
}
layer {
  name: "dense19_conv1_relu"
  type: "ReLU"
  bottom: "dense19_conv1"
  top: "dense19_conv1"
}
layer {
  name: "dense19_conv2"
  type: "Convolution"
  bottom: "dense19_conv1"
  top: "dense19_conv2"
  param {
    lr_mult: 1
    decay_mult: 1
  }
  convolution_param {
    num_output: 32
    bias_term: false
    pad: 1
    kernel_size: 3
  }
}
layer {
  name: "dense19_concat"
  type: "Concat"
  bottom: "pool3"
  bottom: "dense19_conv2"
  top: "dense19_concat"
}
layer {
  name: "dense20_scale"
  type: "Scale"
  bottom: "dense19_concat"
  top: "dense20_scale"
  scale_param {
    bias_term: true
  }
  param {
    lr_mult: 0.0
    decay_mult: 0.0
  }
  param {
    lr_mult: 0.0
    decay_mult: 0.0
  }
}
layer {
  name: "dense20_relu"
  type: "ReLU"
  bottom: "dense20_scale"
  top: "dense20_scale"
}
layer {
  name: "dense20_conv1"
  type: "Convolution"
  bottom: "dense20_scale"
  top: "dense20_conv1"
  param {
    lr_mult: 1
    decay_mult: 1
  }
  convolution_param {
    num_output: 128
    bias_term: false
    kernel_size: 1
  }
}
layer {
  name: "dense20_conv1_scale"
  type: "Scale"
  bottom: "dense20_conv1"
  top: "dense20_conv1"
  scale_param {
    bias_term: true
  }
  param {
    lr_mult: 0.0
    decay_mult: 0.0
  }
  param {
    lr_mult: 0.0
    decay_mult: 0.0
  }
}
layer {
  name: "dense20_conv1_relu"
  type: "ReLU"
  bottom: "dense20_conv1"
  top: "dense20_conv1"
}
layer {
  name: "dense20_conv2"
  type: "Convolution"
  bottom: "dense20_conv1"
  top: "dense20_conv2"
  param {
    lr_mult: 1
    decay_mult: 1
  }
  convolution_param {
    num_output: 32
    bias_term: false
    pad: 1
    kernel_size: 3
  }
}
layer {
  name: "dense20_concat"
  type: "Concat"
  bottom: "dense19_concat"
  bottom: "dense20_conv2"
  top: "dense20_concat"
}
layer {
  name: "dense21_scale"
  type: "Scale"
  bottom: "dense20_concat"
  top: "dense21_scale"
  scale_param {
    bias_term: true
  }
  param {
    lr_mult: 0.0
    decay_mult: 0.0
  }
  param {
    lr_mult: 0.0
    decay_mult: 0.0
  }
}
layer {
  name: "dense21_relu"
  type: "ReLU"
  bottom: "dense21_scale"
  top: "dense21_scale"
}
layer {
  name: "dense21_conv1"
  type: "Convolution"
  bottom: "dense21_scale"
  top: "dense21_conv1"
  param {
    lr_mult: 1
    decay_mult: 1
  }
  convolution_param {
    num_output: 128
    bias_term: false
    kernel_size: 1
  }
}
layer {
  name: "dense21_conv1_scale"
  type: "Scale"
  bottom: "dense21_conv1"
  top: "dense21_conv1"
  scale_param {
    bias_term: true
  }
  param {
    lr_mult: 0.0
    decay_mult: 0.0
  }
  param {
    lr_mult: 0.0
    decay_mult: 0.0
  }
}
layer {
  name: "dense21_conv1_relu"
  type: "ReLU"
  bottom: "dense21_conv1"
  top: "dense21_conv1"
}
layer {
  name: "dense21_conv2"
  type: "Convolution"
  bottom: "dense21_conv1"
  top: "dense21_conv2"
  param {
    lr_mult: 1
    decay_mult: 1
  }
  convolution_param {
    num_output: 32
    bias_term: false
    pad: 1
    kernel_size: 3
  }
}
layer {
  name: "dense21_concat"
  type: "Concat"
  bottom: "dense20_concat"
  bottom: "dense21_conv2"
  top: "dense21_concat"
}
layer {
  name: "dense22_scale"
  type: "Scale"
  bottom: "dense21_concat"
  top: "dense22_scale"
  scale_param {
    bias_term: true
  }
  param {
    lr_mult: 0.0
    decay_mult: 0.0
  }
  param {
    lr_mult: 0.0
    decay_mult: 0.0
  }
}
layer {
  name: "dense22_relu"
  type: "ReLU"
  bottom: "dense22_scale"
  top: "dense22_scale"
}
layer {
  name: "dense22_conv1"
  type: "Convolution"
  bottom: "dense22_scale"
  top: "dense22_conv1"
  param {
    lr_mult: 1
    decay_mult: 1
  }
  convolution_param {
    num_output: 128
    bias_term: false
    kernel_size: 1
  }
}
layer {
  name: "dense22_conv1_scale"
  type: "Scale"
  bottom: "dense22_conv1"
  top: "dense22_conv1"
  scale_param {
    bias_term: true
  }
  param {
    lr_mult: 0.0
    decay_mult: 0.0
  }
  param {
    lr_mult: 0.0
    decay_mult: 0.0
  }
}
layer {
  name: "dense22_conv1_relu"
  type: "ReLU"
  bottom: "dense22_conv1"
  top: "dense22_conv1"
}
layer {
  name: "dense22_conv2"
  type: "Convolution"
  bottom: "dense22_conv1"
  top: "dense22_conv2"
  param {
    lr_mult: 1
    decay_mult: 1
  }
  convolution_param {
    num_output: 32
    bias_term: false
    pad: 1
    kernel_size: 3
  }
}
layer {
  name: "dense22_concat"
  type: "Concat"
  bottom: "dense21_concat"
  bottom: "dense22_conv2"
  top: "dense22_concat"
}
layer {
  name: "dense23_scale"
  type: "Scale"
  bottom: "dense22_concat"
  top: "dense23_scale"
  scale_param {
    bias_term: true
  }
  param {
    lr_mult: 0.0
    decay_mult: 0.0
  }
  param {
    lr_mult: 0.0
    decay_mult: 0.0
  }
}
layer {
  name: "dense23_relu"
  type: "ReLU"
  bottom: "dense23_scale"
  top: "dense23_scale"
}
layer {
  name: "dense23_conv1"
  type: "Convolution"
  bottom: "dense23_scale"
  top: "dense23_conv1"
  param {
    lr_mult: 1
    decay_mult: 1
  }
  convolution_param {
    num_output: 128
    bias_term: false
    kernel_size: 1
  }
}
layer {
  name: "dense23_conv1_scale"
  type: "Scale"
  bottom: "dense23_conv1"
  top: "dense23_conv1"
  scale_param {
    bias_term: true
  }
  param {
    lr_mult: 0.0
    decay_mult: 0.0
  }
  param {
    lr_mult: 0.0
    decay_mult: 0.0
  }
}
layer {
  name: "dense23_conv1_relu"
  type: "ReLU"
  bottom: "dense23_conv1"
  top: "dense23_conv1"
}
layer {
  name: "dense23_conv2"
  type: "Convolution"
  bottom: "dense23_conv1"
  top: "dense23_conv2"
  param {
    lr_mult: 1
    decay_mult: 1
  }
  convolution_param {
    num_output: 32
    bias_term: false
    pad: 1
    kernel_size: 3
  }
}
layer {
  name: "dense23_concat"
  type: "Concat"
  bottom: "dense22_concat"
  bottom: "dense23_conv2"
  top: "dense23_concat"
}
layer {
  name: "dense24_scale"
  type: "Scale"
  bottom: "dense23_concat"
  top: "dense24_scale"
  scale_param {
    bias_term: true
  }
  param {
    lr_mult: 0.0
    decay_mult: 0.0
  }
  param {
    lr_mult: 0.0
    decay_mult: 0.0
  }
}
layer {
  name: "dense24_relu"
  type: "ReLU"
  bottom: "dense24_scale"
  top: "dense24_scale"
}
layer {
  name: "dense24_conv1"
  type: "Convolution"
  bottom: "dense24_scale"
  top: "dense24_conv1"
  param {
    lr_mult: 1
    decay_mult: 1
  }
  convolution_param {
    num_output: 128
    bias_term: false
    kernel_size: 1
  }
}
layer {
  name: "dense24_conv1_scale"
  type: "Scale"
  bottom: "dense24_conv1"
  top: "dense24_conv1"
  scale_param {
    bias_term: true
  }
  param {
    lr_mult: 0.0
    decay_mult: 0.0
  }
  param {
    lr_mult: 0.0
    decay_mult: 0.0
  }
}
layer {
  name: "dense24_conv1_relu"
  type: "ReLU"
  bottom: "dense24_conv1"
  top: "dense24_conv1"
}
layer {
  name: "dense24_conv2"
  type: "Convolution"
  bottom: "dense24_conv1"
  top: "dense24_conv2"
  param {
    lr_mult: 1
    decay_mult: 1
  }
  convolution_param {
    num_output: 32
    bias_term: false
    pad: 1
    kernel_size: 3
  }
}
layer {
  name: "dense24_concat"
  type: "Concat"
  bottom: "dense23_concat"
  bottom: "dense24_conv2"
  top: "dense24_concat"
}
layer {
  name: "dense25_scale"
  type: "Scale"
  bottom: "dense24_concat"
  top: "dense25_scale"
  scale_param {
    bias_term: true
  }
  param {
    lr_mult: 0.0
    decay_mult: 0.0
  }
  param {
    lr_mult: 0.0
    decay_mult: 0.0
  }
}
layer {
  name: "dense25_relu"
  type: "ReLU"
  bottom: "dense25_scale"
  top: "dense25_scale"
}
layer {
  name: "dense25_conv1"
  type: "Convolution"
  bottom: "dense25_scale"
  top: "dense25_conv1"
  param {
    lr_mult: 1
    decay_mult: 1
  }
  convolution_param {
    num_output: 128
    bias_term: false
    kernel_size: 1
  }
}
layer {
  name: "dense25_conv1_scale"
  type: "Scale"
  bottom: "dense25_conv1"
  top: "dense25_conv1"
  scale_param {
    bias_term: true
  }
  param {
    lr_mult: 0.0
    decay_mult: 0.0
  }
  param {
    lr_mult: 0.0
    decay_mult: 0.0
  }
}
layer {
  name: "dense25_conv1_relu"
  type: "ReLU"
  bottom: "dense25_conv1"
  top: "dense25_conv1"
}
layer {
  name: "dense25_conv2"
  type: "Convolution"
  bottom: "dense25_conv1"
  top: "dense25_conv2"
  param {
    lr_mult: 1
    decay_mult: 1
  }
  convolution_param {
    num_output: 32
    bias_term: false
    pad: 1
    kernel_size: 3
  }
}
layer {
  name: "dense25_concat"
  type: "Concat"
  bottom: "dense24_concat"
  bottom: "dense25_conv2"
  top: "dense25_concat"
}
layer {
  name: "dense26_scale"
  type: "Scale"
  bottom: "dense25_concat"
  top: "dense26_scale"
  scale_param {
    bias_term: true
  }
  param {
    lr_mult: 0.0
    decay_mult: 0.0
  }
  param {
    lr_mult: 0.0
    decay_mult: 0.0
  }
}
layer {
  name: "dense26_relu"
  type: "ReLU"
  bottom: "dense26_scale"
  top: "dense26_scale"
}
layer {
  name: "dense26_conv1"
  type: "Convolution"
  bottom: "dense26_scale"
  top: "dense26_conv1"
  param {
    lr_mult: 1
    decay_mult: 1
  }
  convolution_param {
    num_output: 128
    bias_term: false
    kernel_size: 1
  }
}
layer {
  name: "dense26_conv1_scale"
  type: "Scale"
  bottom: "dense26_conv1"
  top: "dense26_conv1"
  scale_param {
    bias_term: true
  }
  param {
    lr_mult: 0.0
    decay_mult: 0.0
  }
  param {
    lr_mult: 0.0
    decay_mult: 0.0
  }
}
layer {
  name: "dense26_conv1_relu"
  type: "ReLU"
  bottom: "dense26_conv1"
  top: "dense26_conv1"
}
layer {
  name: "dense26_conv2"
  type: "Convolution"
  bottom: "dense26_conv1"
  top: "dense26_conv2"
  param {
    lr_mult: 1
    decay_mult: 1
  }
  convolution_param {
    num_output: 32
    bias_term: false
    pad: 1
    kernel_size: 3
  }
}
layer {
  name: "dense26_concat"
  type: "Concat"
  bottom: "dense25_concat"
  bottom: "dense26_conv2"
  top: "dense26_concat"
}
layer {
  name: "dense27_scale"
  type: "Scale"
  bottom: "dense26_concat"
  top: "dense27_scale"
  scale_param {
    bias_term: true
  }
  param {
    lr_mult: 0.0
    decay_mult: 0.0
  }
  param {
    lr_mult: 0.0
    decay_mult: 0.0
  }
}
layer {
  name: "dense27_relu"
  type: "ReLU"
  bottom: "dense27_scale"
  top: "dense27_scale"
}
layer {
  name: "dense27_conv1"
  type: "Convolution"
  bottom: "dense27_scale"
  top: "dense27_conv1"
  param {
    lr_mult: 1
    decay_mult: 1
  }
  convolution_param {
    num_output: 128
    bias_term: false
    kernel_size: 1
  }
}
layer {
  name: "dense27_conv1_scale"
  type: "Scale"
  bottom: "dense27_conv1"
  top: "dense27_conv1"
  scale_param {
    bias_term: true
  }
  param {
    lr_mult: 0.0
    decay_mult: 0.0
  }
  param {
    lr_mult: 0.0
    decay_mult: 0.0
  }
}
layer {
  name: "dense27_conv1_relu"
  type: "ReLU"
  bottom: "dense27_conv1"
  top: "dense27_conv1"
}
layer {
  name: "dense27_conv2"
  type: "Convolution"
  bottom: "dense27_conv1"
  top: "dense27_conv2"
  param {
    lr_mult: 1
    decay_mult: 1
  }
  convolution_param {
    num_output: 32
    bias_term: false
    pad: 1
    kernel_size: 3
  }
}
layer {
  name: "dense27_concat"
  type: "Concat"
  bottom: "dense26_concat"
  bottom: "dense27_conv2"
  top: "dense27_concat"
}
layer {
  name: "dense28_scale"
  type: "Scale"
  bottom: "dense27_concat"
  top: "dense28_scale"
  scale_param {
    bias_term: true
  }
  param {
    lr_mult: 0.0
    decay_mult: 0.0
  }
  param {
    lr_mult: 0.0
    decay_mult: 0.0
  }
}
layer {
  name: "dense28_relu"
  type: "ReLU"
  bottom: "dense28_scale"
  top: "dense28_scale"
}
layer {
  name: "dense28_conv1"
  type: "Convolution"
  bottom: "dense28_scale"
  top: "dense28_conv1"
  param {
    lr_mult: 1
    decay_mult: 1
  }
  convolution_param {
    num_output: 128
    bias_term: false
    kernel_size: 1
  }
}
layer {
  name: "dense28_conv1_scale"
  type: "Scale"
  bottom: "dense28_conv1"
  top: "dense28_conv1"
  scale_param {
    bias_term: true
  }
  param {
    lr_mult: 0.0
    decay_mult: 0.0
  }
  param {
    lr_mult: 0.0
    decay_mult: 0.0
  }
}
layer {
  name: "dense28_conv1_relu"
  type: "ReLU"
  bottom: "dense28_conv1"
  top: "dense28_conv1"
}
layer {
  name: "dense28_conv2"
  type: "Convolution"
  bottom: "dense28_conv1"
  top: "dense28_conv2"
  param {
    lr_mult: 1
    decay_mult: 1
  }
  convolution_param {
    num_output: 32
    bias_term: false
    pad: 1
    kernel_size: 3
  }
}
layer {
  name: "dense28_concat"
  type: "Concat"
  bottom: "dense27_concat"
  bottom: "dense28_conv2"
  top: "dense28_concat"
}
layer {
  name: "dense29_scale"
  type: "Scale"
  bottom: "dense28_concat"
  top: "dense29_scale"
  scale_param {
    bias_term: true
  }
  param {
    lr_mult: 0.0
    decay_mult: 0.0
  }
  param {
    lr_mult: 0.0
    decay_mult: 0.0
  }
}
layer {
  name: "dense29_relu"
  type: "ReLU"
  bottom: "dense29_scale"
  top: "dense29_scale"
}
layer {
  name: "dense29_conv1"
  type: "Convolution"
  bottom: "dense29_scale"
  top: "dense29_conv1"
  param {
    lr_mult: 1
    decay_mult: 1
  }
  convolution_param {
    num_output: 128
    bias_term: false
    kernel_size: 1
  }
}
layer {
  name: "dense29_conv1_scale"
  type: "Scale"
  bottom: "dense29_conv1"
  top: "dense29_conv1"
  scale_param {
    bias_term: true
  }
  param {
    lr_mult: 0.0
    decay_mult: 0.0
  }
  param {
    lr_mult: 0.0
    decay_mult: 0.0
  }
}
layer {
  name: "dense29_conv1_relu"
  type: "ReLU"
  bottom: "dense29_conv1"
  top: "dense29_conv1"
}
layer {
  name: "dense29_conv2"
  type: "Convolution"
  bottom: "dense29_conv1"
  top: "dense29_conv2"
  param {
    lr_mult: 1
    decay_mult: 1
  }
  convolution_param {
    num_output: 32
    bias_term: false
    pad: 1
    kernel_size: 3
  }
}
layer {
  name: "dense29_concat"
  type: "Concat"
  bottom: "dense28_concat"
  bottom: "dense29_conv2"
  top: "dense29_concat"
}
layer {
  name: "dense30_scale"
  type: "Scale"
  bottom: "dense29_concat"
  top: "dense30_scale"
  scale_param {
    bias_term: true
  }
  param {
    lr_mult: 0.0
    decay_mult: 0.0
  }
  param {
    lr_mult: 0.0
    decay_mult: 0.0
  }
}
layer {
  name: "dense30_relu"
  type: "ReLU"
  bottom: "dense30_scale"
  top: "dense30_scale"
}
layer {
  name: "dense30_conv1"
  type: "Convolution"
  bottom: "dense30_scale"
  top: "dense30_conv1"
  param {
    lr_mult: 1
    decay_mult: 1
  }
  convolution_param {
    num_output: 128
    bias_term: false
    kernel_size: 1
  }
}
layer {
  name: "dense30_conv1_scale"
  type: "Scale"
  bottom: "dense30_conv1"
  top: "dense30_conv1"
  scale_param {
    bias_term: true
  }
  param {
    lr_mult: 0.0
    decay_mult: 0.0
  }
  param {
    lr_mult: 0.0
    decay_mult: 0.0
  }
}
layer {
  name: "dense30_conv1_relu"
  type: "ReLU"
  bottom: "dense30_conv1"
  top: "dense30_conv1"
}
layer {
  name: "dense30_conv2"
  type: "Convolution"
  bottom: "dense30_conv1"
  top: "dense30_conv2"
  param {
    lr_mult: 1
    decay_mult: 1
  }
  convolution_param {
    num_output: 32
    bias_term: false
    pad: 1
    kernel_size: 3
  }
}
layer {
  name: "dense30_concat"
  type: "Concat"
  bottom: "dense29_concat"
  bottom: "dense30_conv2"
  top: "dense30_concat"
}
layer {
  name: "dense31_scale"
  type: "Scale"
  bottom: "dense30_concat"
  top: "dense31_scale"
  scale_param {
    bias_term: true
  }
  param {
    lr_mult: 0.0
    decay_mult: 0.0
  }
  param {
    lr_mult: 0.0
    decay_mult: 0.0
  }
}
layer {
  name: "dense31_relu"
  type: "ReLU"
  bottom: "dense31_scale"
  top: "dense31_scale"
}
layer {
  name: "dense31_conv1"
  type: "Convolution"
  bottom: "dense31_scale"
  top: "dense31_conv1"
  param {
    lr_mult: 1
    decay_mult: 1
  }
  convolution_param {
    num_output: 128
    bias_term: false
    kernel_size: 1
  }
}
layer {
  name: "dense31_conv1_scale"
  type: "Scale"
  bottom: "dense31_conv1"
  top: "dense31_conv1"
  scale_param {
    bias_term: true
  }
  param {
    lr_mult: 0.0
    decay_mult: 0.0
  }
  param {
    lr_mult: 0.0
    decay_mult: 0.0
  }
}
layer {
  name: "dense31_conv1_relu"
  type: "ReLU"
  bottom: "dense31_conv1"
  top: "dense31_conv1"
}
layer {
  name: "dense31_conv2"
  type: "Convolution"
  bottom: "dense31_conv1"
  top: "dense31_conv2"
  param {
    lr_mult: 1
    decay_mult: 1
  }
  convolution_param {
    num_output: 32
    bias_term: false
    pad: 1
    kernel_size: 3
  }
}
layer {
  name: "dense31_concat"
  type: "Concat"
  bottom: "dense30_concat"
  bottom: "dense31_conv2"
  top: "dense31_concat"
}
layer {
  name: "dense32_scale"
  type: "Scale"
  bottom: "dense31_concat"
  top: "dense32_scale"
  scale_param {
    bias_term: true
  }
  param {
    lr_mult: 0.0
    decay_mult: 0.0
  }
  param {
    lr_mult: 0.0
    decay_mult: 0.0
  }
}
layer {
  name: "dense32_relu"
  type: "ReLU"
  bottom: "dense32_scale"
  top: "dense32_scale"
}
layer {
  name: "dense32_conv1"
  type: "Convolution"
  bottom: "dense32_scale"
  top: "dense32_conv1"
  param {
    lr_mult: 1
    decay_mult: 1
  }
  convolution_param {
    num_output: 128
    bias_term: false
    kernel_size: 1
  }
}
layer {
  name: "dense32_conv1_scale"
  type: "Scale"
  bottom: "dense32_conv1"
  top: "dense32_conv1"
  scale_param {
    bias_term: true
  }
  param {
    lr_mult: 0.0
    decay_mult: 0.0
  }
  param {
    lr_mult: 0.0
    decay_mult: 0.0
  }
}
layer {
  name: "dense32_conv1_relu"
  type: "ReLU"
  bottom: "dense32_conv1"
  top: "dense32_conv1"
}
layer {
  name: "dense32_conv2"
  type: "Convolution"
  bottom: "dense32_conv1"
  top: "dense32_conv2"
  param {
    lr_mult: 1
    decay_mult: 1
  }
  convolution_param {
    num_output: 32
    bias_term: false
    pad: 1
    kernel_size: 3
  }
}
layer {
  name: "dense32_concat"
  type: "Concat"
  bottom: "dense31_concat"
  bottom: "dense32_conv2"
  top: "dense32_concat"
}
layer {
  name: "dense33_scale"
  type: "Scale"
  bottom: "dense32_concat"
  top: "dense33_scale"
  scale_param {
    bias_term: true
  }
  param {
    lr_mult: 0.0
    decay_mult: 0.0
  }
  param {
    lr_mult: 0.0
    decay_mult: 0.0
  }
}
layer {
  name: "dense33_relu"
  type: "ReLU"
  bottom: "dense33_scale"
  top: "dense33_scale"
}
layer {
  name: "dense33_conv1"
  type: "Convolution"
  bottom: "dense33_scale"
  top: "dense33_conv1"
  param {
    lr_mult: 1
    decay_mult: 1
  }
  convolution_param {
    num_output: 128
    bias_term: false
    kernel_size: 1
  }
}
layer {
  name: "dense33_conv1_scale"
  type: "Scale"
  bottom: "dense33_conv1"
  top: "dense33_conv1"
  scale_param {
    bias_term: true
  }
  param {
    lr_mult: 0.0
    decay_mult: 0.0
  }
  param {
    lr_mult: 0.0
    decay_mult: 0.0
  }
}
layer {
  name: "dense33_conv1_relu"
  type: "ReLU"
  bottom: "dense33_conv1"
  top: "dense33_conv1"
}
layer {
  name: "dense33_conv2"
  type: "Convolution"
  bottom: "dense33_conv1"
  top: "dense33_conv2"
  param {
    lr_mult: 1
    decay_mult: 1
  }
  convolution_param {
    num_output: 32
    bias_term: false
    pad: 1
    kernel_size: 3
  }
}
layer {
  name: "dense33_concat"
  type: "Concat"
  bottom: "dense32_concat"
  bottom: "dense33_conv2"
  top: "dense33_concat"
}
layer {
  name: "dense34_scale"
  type: "Scale"
  bottom: "dense33_concat"
  top: "dense34_scale"
  scale_param {
    bias_term: true
  }
  param {
    lr_mult: 0.0
    decay_mult: 0.0
  }
  param {
    lr_mult: 0.0
    decay_mult: 0.0
  }
}
layer {
  name: "dense34_relu"
  type: "ReLU"
  bottom: "dense34_scale"
  top: "dense34_scale"
}
layer {
  name: "dense34_conv1"
  type: "Convolution"
  bottom: "dense34_scale"
  top: "dense34_conv1"
  param {
    lr_mult: 1
    decay_mult: 1
  }
  convolution_param {
    num_output: 128
    bias_term: false
    kernel_size: 1
  }
}
layer {
  name: "dense34_conv1_scale"
  type: "Scale"
  bottom: "dense34_conv1"
  top: "dense34_conv1"
  scale_param {
    bias_term: true
  }
  param {
    lr_mult: 0.0
    decay_mult: 0.0
  }
  param {
    lr_mult: 0.0
    decay_mult: 0.0
  }
}
layer {
  name: "dense34_conv1_relu"
  type: "ReLU"
  bottom: "dense34_conv1"
  top: "dense34_conv1"
}
layer {
  name: "dense34_conv2"
  type: "Convolution"
  bottom: "dense34_conv1"
  top: "dense34_conv2"
  param {
    lr_mult: 1
    decay_mult: 1
  }
  convolution_param {
    num_output: 32
    bias_term: false
    pad: 1
    kernel_size: 3
  }
}
layer {
  name: "dense34_concat"
  type: "Concat"
  bottom: "dense33_concat"
  bottom: "dense34_conv2"
  top: "dense34_concat"
}
layer {
  name: "dense35_scale"
  type: "Scale"
  bottom: "dense34_concat"
  top: "dense35_scale"
  scale_param {
    bias_term: true
  }
  param {
    lr_mult: 0.0
    decay_mult: 0.0
  }
  param {
    lr_mult: 0.0
    decay_mult: 0.0
  }
}
layer {
  name: "dense35_relu"
  type: "ReLU"
  bottom: "dense35_scale"
  top: "dense35_scale"
}
layer {
  name: "dense35_conv1"
  type: "Convolution"
  bottom: "dense35_scale"
  top: "dense35_conv1"
  param {
    lr_mult: 1
    decay_mult: 1
  }
  convolution_param {
    num_output: 128
    bias_term: false
    kernel_size: 1
  }
}
layer {
  name: "dense35_conv1_scale"
  type: "Scale"
  bottom: "dense35_conv1"
  top: "dense35_conv1"
  scale_param {
    bias_term: true
  }
  param {
    lr_mult: 0.0
    decay_mult: 0.0
  }
  param {
    lr_mult: 0.0
    decay_mult: 0.0
  }
}
layer {
  name: "dense35_conv1_relu"
  type: "ReLU"
  bottom: "dense35_conv1"
  top: "dense35_conv1"
}
layer {
  name: "dense35_conv2"
  type: "Convolution"
  bottom: "dense35_conv1"
  top: "dense35_conv2"
  param {
    lr_mult: 1
    decay_mult: 1
  }
  convolution_param {
    num_output: 32
    bias_term: false
    pad: 1
    kernel_size: 3
  }
}
layer {
  name: "dense35_concat"
  type: "Concat"
  bottom: "dense34_concat"
  bottom: "dense35_conv2"
  top: "dense35_concat"
}
layer {
  name: "dense36_scale"
  type: "Scale"
  bottom: "dense35_concat"
  top: "dense36_scale"
  scale_param {
    bias_term: true
  }
  param {
    lr_mult: 0.0
    decay_mult: 0.0
  }
  param {
    lr_mult: 0.0
    decay_mult: 0.0
  }
}
layer {
  name: "dense36_relu"
  type: "ReLU"
  bottom: "dense36_scale"
  top: "dense36_scale"
}
layer {
  name: "dense36_conv1"
  type: "Convolution"
  bottom: "dense36_scale"
  top: "dense36_conv1"
  param {
    lr_mult: 1
    decay_mult: 1
  }
  convolution_param {
    num_output: 128
    bias_term: false
    kernel_size: 1
  }
}
layer {
  name: "dense36_conv1_scale"
  type: "Scale"
  bottom: "dense36_conv1"
  top: "dense36_conv1"
  scale_param {
    bias_term: true
  }
  param {
    lr_mult: 0.0
    decay_mult: 0.0
  }
  param {
    lr_mult: 0.0
    decay_mult: 0.0
  }
}
layer {
  name: "dense36_conv1_relu"
  type: "ReLU"
  bottom: "dense36_conv1"
  top: "dense36_conv1"
}
layer {
  name: "dense36_conv2"
  type: "Convolution"
  bottom: "dense36_conv1"
  top: "dense36_conv2"
  param {
    lr_mult: 1
    decay_mult: 1
  }
  convolution_param {
    num_output: 32
    bias_term: false
    pad: 1
    kernel_size: 3
  }
}
layer {
  name: "dense36_concat"
  type: "Concat"
  bottom: "dense35_concat"
  bottom: "dense36_conv2"
  top: "dense36_concat"
}
layer {
  name: "dense37_scale"
  type: "Scale"
  bottom: "dense36_concat"
  top: "dense37_scale"
  scale_param {
    bias_term: true
  }
  param {
    lr_mult: 0.0
    decay_mult: 0.0
  }
  param {
    lr_mult: 0.0
    decay_mult: 0.0
  }
}
layer {
  name: "dense37_relu"
  type: "ReLU"
  bottom: "dense37_scale"
  top: "dense37_scale"
}
layer {
  name: "dense37_conv1"
  type: "Convolution"
  bottom: "dense37_scale"
  top: "dense37_conv1"
  param {
    lr_mult: 1
    decay_mult: 1
  }
  convolution_param {
    num_output: 128
    bias_term: false
    kernel_size: 1
  }
}
layer {
  name: "dense37_conv1_scale"
  type: "Scale"
  bottom: "dense37_conv1"
  top: "dense37_conv1"
  scale_param {
    bias_term: true
  }
  param {
    lr_mult: 0.0
    decay_mult: 0.0
  }
  param {
    lr_mult: 0.0
    decay_mult: 0.0
  }
}
layer {
  name: "dense37_conv1_relu"
  type: "ReLU"
  bottom: "dense37_conv1"
  top: "dense37_conv1"
}
layer {
  name: "dense37_conv2"
  type: "Convolution"
  bottom: "dense37_conv1"
  top: "dense37_conv2"
  param {
    lr_mult: 1
    decay_mult: 1
  }
  convolution_param {
    num_output: 32
    bias_term: false
    pad: 1
    kernel_size: 3
  }
}
layer {
  name: "dense37_concat"
  type: "Concat"
  bottom: "dense36_concat"
  bottom: "dense37_conv2"
  top: "dense37_concat"
}
layer {
  name: "dense38_scale"
  type: "Scale"
  bottom: "dense37_concat"
  top: "dense38_scale"
  scale_param {
    bias_term: true
  }
  param {
    lr_mult: 0.0
    decay_mult: 0.0
  }
  param {
    lr_mult: 0.0
    decay_mult: 0.0
  }
}
layer {
  name: "dense38_relu"
  type: "ReLU"
  bottom: "dense38_scale"
  top: "dense38_scale"
}
layer {
  name: "dense38_conv1"
  type: "Convolution"
  bottom: "dense38_scale"
  top: "dense38_conv1"
  param {
    lr_mult: 1
    decay_mult: 1
  }
  convolution_param {
    num_output: 128
    bias_term: false
    kernel_size: 1
  }
}
layer {
  name: "dense38_conv1_scale"
  type: "Scale"
  bottom: "dense38_conv1"
  top: "dense38_conv1"
  scale_param {
    bias_term: true
  }
  param {
    lr_mult: 0.0
    decay_mult: 0.0
  }
  param {
    lr_mult: 0.0
    decay_mult: 0.0
  }
}
layer {
  name: "dense38_conv1_relu"
  type: "ReLU"
  bottom: "dense38_conv1"
  top: "dense38_conv1"
}
layer {
  name: "dense38_conv2"
  type: "Convolution"
  bottom: "dense38_conv1"
  top: "dense38_conv2"
  param {
    lr_mult: 1
    decay_mult: 1
  }
  convolution_param {
    num_output: 32
    bias_term: false
    pad: 1
    kernel_size: 3
  }
}
layer {
  name: "dense38_concat"
  type: "Concat"
  bottom: "dense37_concat"
  bottom: "dense38_conv2"
  top: "dense38_concat"
}
layer {
  name: "dense39_scale"
  type: "Scale"
  bottom: "dense38_concat"
  top: "dense39_scale"
  scale_param {
    bias_term: true
  }
  param {
    lr_mult: 0.0
    decay_mult: 0.0
  }
  param {
    lr_mult: 0.0
    decay_mult: 0.0
  }
}
layer {
  name: "dense39_relu"
  type: "ReLU"
  bottom: "dense39_scale"
  top: "dense39_scale"
}
layer {
  name: "dense39_conv1"
  type: "Convolution"
  bottom: "dense39_scale"
  top: "dense39_conv1"
  param {
    lr_mult: 1
    decay_mult: 1
  }
  convolution_param {
    num_output: 128
    bias_term: false
    kernel_size: 1
  }
}
layer {
  name: "dense39_conv1_scale"
  type: "Scale"
  bottom: "dense39_conv1"
  top: "dense39_conv1"
  scale_param {
    bias_term: true
  }
  param {
    lr_mult: 0.0
    decay_mult: 0.0
  }
  param {
    lr_mult: 0.0
    decay_mult: 0.0
  }
}
layer {
  name: "dense39_conv1_relu"
  type: "ReLU"
  bottom: "dense39_conv1"
  top: "dense39_conv1"
}
layer {
  name: "dense39_conv2"
  type: "Convolution"
  bottom: "dense39_conv1"
  top: "dense39_conv2"
  param {
    lr_mult: 1
    decay_mult: 1
  }
  convolution_param {
    num_output: 32
    bias_term: false
    pad: 1
    kernel_size: 3
  }
}
layer {
  name: "dense39_concat"
  type: "Concat"
  bottom: "dense38_concat"
  bottom: "dense39_conv2"
  top: "dense39_concat"
}
layer {
  name: "dense40_scale"
  type: "Scale"
  bottom: "dense39_concat"
  top: "dense40_scale"
  scale_param {
    bias_term: true
  }
  param {
    lr_mult: 0.0
    decay_mult: 0.0
  }
  param {
    lr_mult: 0.0
    decay_mult: 0.0
  }
}
layer {
  name: "dense40_relu"
  type: "ReLU"
  bottom: "dense40_scale"
  top: "dense40_scale"
}
layer {
  name: "dense40_conv1"
  type: "Convolution"
  bottom: "dense40_scale"
  top: "dense40_conv1"
  param {
    lr_mult: 1
    decay_mult: 1
  }
  convolution_param {
    num_output: 128
    bias_term: false
    kernel_size: 1
  }
}
layer {
  name: "dense40_conv1_scale"
  type: "Scale"
  bottom: "dense40_conv1"
  top: "dense40_conv1"
  scale_param {
    bias_term: true
  }
  param {
    lr_mult: 0.0
    decay_mult: 0.0
  }
  param {
    lr_mult: 0.0
    decay_mult: 0.0
  }
}
layer {
  name: "dense40_conv1_relu"
  type: "ReLU"
  bottom: "dense40_conv1"
  top: "dense40_conv1"
}
layer {
  name: "dense40_conv2"
  type: "Convolution"
  bottom: "dense40_conv1"
  top: "dense40_conv2"
  param {
    lr_mult: 1
    decay_mult: 1
  }
  convolution_param {
    num_output: 32
    bias_term: false
    pad: 1
    kernel_size: 3
  }
}
layer {
  name: "dense40_concat"
  type: "Concat"
  bottom: "dense39_concat"
  bottom: "dense40_conv2"
  top: "dense40_concat"
}
layer {
  name: "dense41_scale"
  type: "Scale"
  bottom: "dense40_concat"
  top: "dense41_scale"
  scale_param {
    bias_term: true
  }
  param {
    lr_mult: 0.0
    decay_mult: 0.0
  }
  param {
    lr_mult: 0.0
    decay_mult: 0.0
  }
}
layer {
  name: "dense41_relu"
  type: "ReLU"
  bottom: "dense41_scale"
  top: "dense41_scale"
}
layer {
  name: "dense41_conv1"
  type: "Convolution"
  bottom: "dense41_scale"
  top: "dense41_conv1"
  param {
    lr_mult: 1
    decay_mult: 1
  }
  convolution_param {
    num_output: 128
    bias_term: false
    kernel_size: 1
  }
}
layer {
  name: "dense41_conv1_scale"
  type: "Scale"
  bottom: "dense41_conv1"
  top: "dense41_conv1"
  scale_param {
    bias_term: true
  }
  param {
    lr_mult: 0.0
    decay_mult: 0.0
  }
  param {
    lr_mult: 0.0
    decay_mult: 0.0
  }
}
layer {
  name: "dense41_conv1_relu"
  type: "ReLU"
  bottom: "dense41_conv1"
  top: "dense41_conv1"
}
layer {
  name: "dense41_conv2"
  type: "Convolution"
  bottom: "dense41_conv1"
  top: "dense41_conv2"
  param {
    lr_mult: 1
    decay_mult: 1
  }
  convolution_param {
    num_output: 32
    bias_term: false
    pad: 1
    kernel_size: 3
  }
}
layer {
  name: "dense41_concat"
  type: "Concat"
  bottom: "dense40_concat"
  bottom: "dense41_conv2"
  top: "dense41_concat"
}
layer {
  name: "dense42_scale"
  type: "Scale"
  bottom: "dense41_concat"
  top: "dense42_scale"
  scale_param {
    bias_term: true
  }
  param {
    lr_mult: 0.0
    decay_mult: 0.0
  }
  param {
    lr_mult: 0.0
    decay_mult: 0.0
  }
}
layer {
  name: "dense42_relu"
  type: "ReLU"
  bottom: "dense42_scale"
  top: "dense42_scale"
}
layer {
  name: "dense42_conv1"
  type: "Convolution"
  bottom: "dense42_scale"
  top: "dense42_conv1"
  param {
    lr_mult: 1
    decay_mult: 1
  }
  convolution_param {
    num_output: 128
    bias_term: false
    kernel_size: 1
  }
}
layer {
  name: "dense42_conv1_scale"
  type: "Scale"
  bottom: "dense42_conv1"
  top: "dense42_conv1"
  scale_param {
    bias_term: true
  }
  param {
    lr_mult: 0.0
    decay_mult: 0.0
  }
  param {
    lr_mult: 0.0
    decay_mult: 0.0
  }
}
layer {
  name: "dense42_conv1_relu"
  type: "ReLU"
  bottom: "dense42_conv1"
  top: "dense42_conv1"
}
layer {
  name: "dense42_conv2"
  type: "Convolution"
  bottom: "dense42_conv1"
  top: "dense42_conv2"
  param {
    lr_mult: 1
    decay_mult: 1
  }
  convolution_param {
    num_output: 32
    bias_term: false
    pad: 1
    kernel_size: 3
  }
}
layer {
  name: "dense42_concat"
  type: "Concat"
  bottom: "dense41_concat"
  bottom: "dense42_conv2"
  top: "dense42_concat"
}
layer {
  name: "dense43_scale"
  type: "Scale"
  bottom: "dense42_concat"
  top: "dense43_scale"
  scale_param {
    bias_term: true
  }
  param {
    lr_mult: 0.0
    decay_mult: 0.0
  }
  param {
    lr_mult: 0.0
    decay_mult: 0.0
  }
}
layer {
  name: "dense43_relu"
  type: "ReLU"
  bottom: "dense43_scale"
  top: "dense43_scale"
}
layer {
  name: "dense43_conv1"
  type: "Convolution"
  bottom: "dense43_scale"
  top: "dense43_conv1"
  param {
    lr_mult: 1
    decay_mult: 1
  }
  convolution_param {
    num_output: 128
    bias_term: false
    kernel_size: 1
  }
}
layer {
  name: "dense43_conv1_scale"
  type: "Scale"
  bottom: "dense43_conv1"
  top: "dense43_conv1"
  scale_param {
    bias_term: true
  }
  param {
    lr_mult: 0.0
    decay_mult: 0.0
  }
  param {
    lr_mult: 0.0
    decay_mult: 0.0
  }
}
layer {
  name: "dense43_conv1_relu"
  type: "ReLU"
  bottom: "dense43_conv1"
  top: "dense43_conv1"
}
layer {
  name: "dense43_conv2"
  type: "Convolution"
  bottom: "dense43_conv1"
  top: "dense43_conv2"
  param {
    lr_mult: 1
    decay_mult: 1
  }
  convolution_param {
    num_output: 32
    bias_term: false
    pad: 1
    kernel_size: 3
  }
}
layer {
  name: "dense43_concat"
  type: "Concat"
  bottom: "dense42_concat"
  bottom: "dense43_conv2"
  top: "dense43_concat"
}
layer {
  name: "dense44_scale"
  type: "Scale"
  bottom: "dense43_concat"
  top: "dense44_scale"
  scale_param {
    bias_term: true
  }
  param {
    lr_mult: 0.0
    decay_mult: 0.0
  }
  param {
    lr_mult: 0.0
    decay_mult: 0.0
  }
}
layer {
  name: "dense44_relu"
  type: "ReLU"
  bottom: "dense44_scale"
  top: "dense44_scale"
}
layer {
  name: "dense44_conv1"
  type: "Convolution"
  bottom: "dense44_scale"
  top: "dense44_conv1"
  param {
    lr_mult: 1
    decay_mult: 1
  }
  convolution_param {
    num_output: 128
    bias_term: false
    kernel_size: 1
  }
}
layer {
  name: "dense44_conv1_scale"
  type: "Scale"
  bottom: "dense44_conv1"
  top: "dense44_conv1"
  scale_param {
    bias_term: true
  }
  param {
    lr_mult: 0.0
    decay_mult: 0.0
  }
  param {
    lr_mult: 0.0
    decay_mult: 0.0
  }
}
layer {
  name: "dense44_conv1_relu"
  type: "ReLU"
  bottom: "dense44_conv1"
  top: "dense44_conv1"
}
layer {
  name: "dense44_conv2"
  type: "Convolution"
  bottom: "dense44_conv1"
  top: "dense44_conv2"
  param {
    lr_mult: 1
    decay_mult: 1
  }
  convolution_param {
    num_output: 32
    bias_term: false
    pad: 1
    kernel_size: 3
  }
}
layer {
  name: "dense44_concat"
  type: "Concat"
  bottom: "dense43_concat"
  bottom: "dense44_conv2"
  top: "dense44_concat"
}
layer {
  name: "dense45_scale"
  type: "Scale"
  bottom: "dense44_concat"
  top: "dense45_scale"
  scale_param {
    bias_term: true
  }
  param {
    lr_mult: 0.0
    decay_mult: 0.0
  }
  param {
    lr_mult: 0.0
    decay_mult: 0.0
  }
}
layer {
  name: "dense45_relu"
  type: "ReLU"
  bottom: "dense45_scale"
  top: "dense45_scale"
}
layer {
  name: "dense45_conv1"
  type: "Convolution"
  bottom: "dense45_scale"
  top: "dense45_conv1"
  param {
    lr_mult: 1
    decay_mult: 1
  }
  convolution_param {
    num_output: 128
    bias_term: false
    kernel_size: 1
  }
}
layer {
  name: "dense45_conv1_scale"
  type: "Scale"
  bottom: "dense45_conv1"
  top: "dense45_conv1"
  scale_param {
    bias_term: true
  }
  param {
    lr_mult: 0.0
    decay_mult: 0.0
  }
  param {
    lr_mult: 0.0
    decay_mult: 0.0
  }
}
layer {
  name: "dense45_conv1_relu"
  type: "ReLU"
  bottom: "dense45_conv1"
  top: "dense45_conv1"
}
layer {
  name: "dense45_conv2"
  type: "Convolution"
  bottom: "dense45_conv1"
  top: "dense45_conv2"
  param {
    lr_mult: 1
    decay_mult: 1
  }
  convolution_param {
    num_output: 32
    bias_term: false
    pad: 1
    kernel_size: 3
  }
}
layer {
  name: "dense45_concat"
  type: "Concat"
  bottom: "dense44_concat"
  bottom: "dense45_conv2"
  top: "dense45_concat"
}
layer {
  name: "dense46_scale"
  type: "Scale"
  bottom: "dense45_concat"
  top: "dense46_scale"
  scale_param {
    bias_term: true
  }
  param {
    lr_mult: 0.0
    decay_mult: 0.0
  }
  param {
    lr_mult: 0.0
    decay_mult: 0.0
  }
}
layer {
  name: "dense46_relu"
  type: "ReLU"
  bottom: "dense46_scale"
  top: "dense46_scale"
}
layer {
  name: "dense46_conv1"
  type: "Convolution"
  bottom: "dense46_scale"
  top: "dense46_conv1"
  param {
    lr_mult: 1
    decay_mult: 1
  }
  convolution_param {
    num_output: 128
    bias_term: false
    kernel_size: 1
  }
}
layer {
  name: "dense46_conv1_scale"
  type: "Scale"
  bottom: "dense46_conv1"
  top: "dense46_conv1"
  scale_param {
    bias_term: true
  }
  param {
    lr_mult: 0.0
    decay_mult: 0.0
  }
  param {
    lr_mult: 0.0
    decay_mult: 0.0
  }
}
layer {
  name: "dense46_conv1_relu"
  type: "ReLU"
  bottom: "dense46_conv1"
  top: "dense46_conv1"
}
layer {
  name: "dense46_conv2"
  type: "Convolution"
  bottom: "dense46_conv1"
  top: "dense46_conv2"
  param {
    lr_mult: 1
    decay_mult: 1
  }
  convolution_param {
    num_output: 32
    bias_term: false
    pad: 1
    kernel_size: 3
  }
}
layer {
  name: "dense46_concat"
  type: "Concat"
  bottom: "dense45_concat"
  bottom: "dense46_conv2"
  top: "dense46_concat"
}
layer {
  name: "dense47_scale"
  type: "Scale"
  bottom: "dense46_concat"
  top: "dense47_scale"
  scale_param {
    bias_term: true
  }
  param {
    lr_mult: 0.0
    decay_mult: 0.0
  }
  param {
    lr_mult: 0.0
    decay_mult: 0.0
  }
}
layer {
  name: "dense47_relu"
  type: "ReLU"
  bottom: "dense47_scale"
  top: "dense47_scale"
}
layer {
  name: "dense47_conv1"
  type: "Convolution"
  bottom: "dense47_scale"
  top: "dense47_conv1"
  param {
    lr_mult: 1
    decay_mult: 1
  }
  convolution_param {
    num_output: 128
    bias_term: false
    kernel_size: 1
  }
}
layer {
  name: "dense47_conv1_scale"
  type: "Scale"
  bottom: "dense47_conv1"
  top: "dense47_conv1"
  scale_param {
    bias_term: true
  }
  param {
    lr_mult: 0.0
    decay_mult: 0.0
  }
  param {
    lr_mult: 0.0
    decay_mult: 0.0
  }
}
layer {
  name: "dense47_conv1_relu"
  type: "ReLU"
  bottom: "dense47_conv1"
  top: "dense47_conv1"
}
layer {
  name: "dense47_conv2"
  type: "Convolution"
  bottom: "dense47_conv1"
  top: "dense47_conv2"
  param {
    lr_mult: 1
    decay_mult: 1
  }
  convolution_param {
    num_output: 32
    bias_term: false
    pad: 1
    kernel_size: 3
  }
}
layer {
  name: "dense47_concat"
  type: "Concat"
  bottom: "dense46_concat"
  bottom: "dense47_conv2"
  top: "dense47_concat"
}
layer {
  name: "dense48_scale"
  type: "Scale"
  bottom: "dense47_concat"
  top: "dense48_scale"
  scale_param {
    bias_term: true
  }
  param {
    lr_mult: 0.0
    decay_mult: 0.0
  }
  param {
    lr_mult: 0.0
    decay_mult: 0.0
  }
}
layer {
  name: "dense48_relu"
  type: "ReLU"
  bottom: "dense48_scale"
  top: "dense48_scale"
}
layer {
  name: "dense48_conv1"
  type: "Convolution"
  bottom: "dense48_scale"
  top: "dense48_conv1"
  param {
    lr_mult: 1
    decay_mult: 1
  }
  convolution_param {
    num_output: 128
    bias_term: false
    kernel_size: 1
  }
}
layer {
  name: "dense48_conv1_scale"
  type: "Scale"
  bottom: "dense48_conv1"
  top: "dense48_conv1"
  scale_param {
    bias_term: true
  }
  param {
    lr_mult: 0.0
    decay_mult: 0.0
  }
  param {
    lr_mult: 0.0
    decay_mult: 0.0
  }
}
layer {
  name: "dense48_conv1_relu"
  type: "ReLU"
  bottom: "dense48_conv1"
  top: "dense48_conv1"
}
layer {
  name: "dense48_conv2"
  type: "Convolution"
  bottom: "dense48_conv1"
  top: "dense48_conv2"
  param {
    lr_mult: 1
    decay_mult: 1
  }
  convolution_param {
    num_output: 32
    bias_term: false
    pad: 1
    kernel_size: 3
  }
}
layer {
  name: "dense48_concat"
  type: "Concat"
  bottom: "dense47_concat"
  bottom: "dense48_conv2"
  top: "dense48_concat"
}
layer {
  name: "dense49_scale"
  type: "Scale"
  bottom: "dense48_concat"
  top: "dense49_scale"
  scale_param {
    bias_term: true
  }
  param {
    lr_mult: 0.0
    decay_mult: 0.0
  }
  param {
    lr_mult: 0.0
    decay_mult: 0.0
  }
}
layer {
  name: "dense49_relu"
  type: "ReLU"
  bottom: "dense49_scale"
  top: "dense49_scale"
}
layer {
  name: "dense49_conv1"
  type: "Convolution"
  bottom: "dense49_scale"
  top: "dense49_conv1"
  param {
    lr_mult: 1
    decay_mult: 1
  }
  convolution_param {
    num_output: 128
    bias_term: false
    kernel_size: 1
  }
}
layer {
  name: "dense49_conv1_scale"
  type: "Scale"
  bottom: "dense49_conv1"
  top: "dense49_conv1"
  scale_param {
    bias_term: true
  }
  param {
    lr_mult: 0.0
    decay_mult: 0.0
  }
  param {
    lr_mult: 0.0
    decay_mult: 0.0
  }
}
layer {
  name: "dense49_conv1_relu"
  type: "ReLU"
  bottom: "dense49_conv1"
  top: "dense49_conv1"
}
layer {
  name: "dense49_conv2"
  type: "Convolution"
  bottom: "dense49_conv1"
  top: "dense49_conv2"
  param {
    lr_mult: 1
    decay_mult: 1
  }
  convolution_param {
    num_output: 32
    bias_term: false
    pad: 1
    kernel_size: 3
  }
}
layer {
  name: "dense49_concat"
  type: "Concat"
  bottom: "dense48_concat"
  bottom: "dense49_conv2"
  top: "dense49_concat"
}
layer {
  name: "dense50_scale"
  type: "Scale"
  bottom: "dense49_concat"
  top: "dense50_scale"
  scale_param {
    bias_term: true
  }
  param {
    lr_mult: 0.0
    decay_mult: 0.0
  }
  param {
    lr_mult: 0.0
    decay_mult: 0.0
  }
}
layer {
  name: "dense50_relu"
  type: "ReLU"
  bottom: "dense50_scale"
  top: "dense50_scale"
}
layer {
  name: "dense50_conv1"
  type: "Convolution"
  bottom: "dense50_scale"
  top: "dense50_conv1"
  param {
    lr_mult: 1
    decay_mult: 1
  }
  convolution_param {
    num_output: 128
    bias_term: false
    kernel_size: 1
  }
}
layer {
  name: "dense50_conv1_scale"
  type: "Scale"
  bottom: "dense50_conv1"
  top: "dense50_conv1"
  scale_param {
    bias_term: true
  }
  param {
    lr_mult: 0.0
    decay_mult: 0.0
  }
  param {
    lr_mult: 0.0
    decay_mult: 0.0
  }
}
layer {
  name: "dense50_conv1_relu"
  type: "ReLU"
  bottom: "dense50_conv1"
  top: "dense50_conv1"
}
layer {
  name: "dense50_conv2"
  type: "Convolution"
  bottom: "dense50_conv1"
  top: "dense50_conv2"
  param {
    lr_mult: 1
    decay_mult: 1
  }
  convolution_param {
    num_output: 32
    bias_term: false
    pad: 1
    kernel_size: 3
  }
}
layer {
  name: "dense50_concat"
  type: "Concat"
  bottom: "dense49_concat"
  bottom: "dense50_conv2"
  top: "dense50_concat"
}
layer {
  name: "dense51_scale"
  type: "Scale"
  bottom: "dense50_concat"
  top: "dense51_scale"
  scale_param {
    bias_term: true
  }
  param {
    lr_mult: 0.0
    decay_mult: 0.0
  }
  param {
    lr_mult: 0.0
    decay_mult: 0.0
  }
}
layer {
  name: "dense51_relu"
  type: "ReLU"
  bottom: "dense51_scale"
  top: "dense51_scale"
}
layer {
  name: "dense51_conv1"
  type: "Convolution"
  bottom: "dense51_scale"
  top: "dense51_conv1"
  param {
    lr_mult: 1
    decay_mult: 1
  }
  convolution_param {
    num_output: 128
    bias_term: false
    kernel_size: 1
  }
}
layer {
  name: "dense51_conv1_scale"
  type: "Scale"
  bottom: "dense51_conv1"
  top: "dense51_conv1"
  scale_param {
    bias_term: true
  }
  param {
    lr_mult: 0.0
    decay_mult: 0.0
  }
  param {
    lr_mult: 0.0
    decay_mult: 0.0
  }
}
layer {
  name: "dense51_conv1_relu"
  type: "ReLU"
  bottom: "dense51_conv1"
  top: "dense51_conv1"
}
layer {
  name: "dense51_conv2"
  type: "Convolution"
  bottom: "dense51_conv1"
  top: "dense51_conv2"
  param {
    lr_mult: 1
    decay_mult: 1
  }
  convolution_param {
    num_output: 32
    bias_term: false
    pad: 1
    kernel_size: 3
  }
}
layer {
  name: "dense51_concat"
  type: "Concat"
  bottom: "dense50_concat"
  bottom: "dense51_conv2"
  top: "dense51_concat"
}
layer {
  name: "dense52_scale"
  type: "Scale"
  bottom: "dense51_concat"
  top: "dense52_scale"
  scale_param {
    bias_term: true
  }
  param {
    lr_mult: 0.0
    decay_mult: 0.0
  }
  param {
    lr_mult: 0.0
    decay_mult: 0.0
  }
}
layer {
  name: "dense52_relu"
  type: "ReLU"
  bottom: "dense52_scale"
  top: "dense52_scale"
}
layer {
  name: "dense52_conv1"
  type: "Convolution"
  bottom: "dense52_scale"
  top: "dense52_conv1"
  param {
    lr_mult: 1
    decay_mult: 1
  }
  convolution_param {
    num_output: 128
    bias_term: false
    kernel_size: 1
  }
}
layer {
  name: "dense52_conv1_scale"
  type: "Scale"
  bottom: "dense52_conv1"
  top: "dense52_conv1"
  scale_param {
    bias_term: true
  }
  param {
    lr_mult: 0.0
    decay_mult: 0.0
  }
  param {
    lr_mult: 0.0
    decay_mult: 0.0
  }
}
layer {
  name: "dense52_conv1_relu"
  type: "ReLU"
  bottom: "dense52_conv1"
  top: "dense52_conv1"
}
layer {
  name: "dense52_conv2"
  type: "Convolution"
  bottom: "dense52_conv1"
  top: "dense52_conv2"
  param {
    lr_mult: 1
    decay_mult: 1
  }
  convolution_param {
    num_output: 32
    bias_term: false
    pad: 1
    kernel_size: 3
  }
}
layer {
  name: "dense52_concat"
  type: "Concat"
  bottom: "dense51_concat"
  bottom: "dense52_conv2"
  top: "dense52_concat"
}
layer {
  name: "dense53_scale"
  type: "Scale"
  bottom: "dense52_concat"
  top: "dense53_scale"
  scale_param {
    bias_term: true
  }
  param {
    lr_mult: 0.0
    decay_mult: 0.0
  }
  param {
    lr_mult: 0.0
    decay_mult: 0.0
  }
}
layer {
  name: "dense53_relu"
  type: "ReLU"
  bottom: "dense53_scale"
  top: "dense53_scale"
}
layer {
  name: "dense53_conv1"
  type: "Convolution"
  bottom: "dense53_scale"
  top: "dense53_conv1"
  param {
    lr_mult: 1
    decay_mult: 1
  }
  convolution_param {
    num_output: 128
    bias_term: false
    kernel_size: 1
  }
}
layer {
  name: "dense53_conv1_scale"
  type: "Scale"
  bottom: "dense53_conv1"
  top: "dense53_conv1"
  scale_param {
    bias_term: true
  }
  param {
    lr_mult: 0.0
    decay_mult: 0.0
  }
  param {
    lr_mult: 0.0
    decay_mult: 0.0
  }
}
layer {
  name: "dense53_conv1_relu"
  type: "ReLU"
  bottom: "dense53_conv1"
  top: "dense53_conv1"
}
layer {
  name: "dense53_conv2"
  type: "Convolution"
  bottom: "dense53_conv1"
  top: "dense53_conv2"
  param {
    lr_mult: 1
    decay_mult: 1
  }
  convolution_param {
    num_output: 32
    bias_term: false
    pad: 1
    kernel_size: 3
  }
}
layer {
  name: "dense53_concat"
  type: "Concat"
  bottom: "dense52_concat"
  bottom: "dense53_conv2"
  top: "dense53_concat"
}
layer {
  name: "dense54_scale"
  type: "Scale"
  bottom: "dense53_concat"
  top: "dense54_scale"
  scale_param {
    bias_term: true
  }
  param {
    lr_mult: 0.0
    decay_mult: 0.0
  }
  param {
    lr_mult: 0.0
    decay_mult: 0.0
  }
}
layer {
  name: "dense54_relu"
  type: "ReLU"
  bottom: "dense54_scale"
  top: "dense54_scale"
}
layer {
  name: "dense54_conv1"
  type: "Convolution"
  bottom: "dense54_scale"
  top: "dense54_conv1"
  param {
    lr_mult: 1
    decay_mult: 1
  }
  convolution_param {
    num_output: 128
    bias_term: false
    kernel_size: 1
  }
}
layer {
  name: "dense54_conv1_scale"
  type: "Scale"
  bottom: "dense54_conv1"
  top: "dense54_conv1"
  scale_param {
    bias_term: true
  }
  param {
    lr_mult: 0.0
    decay_mult: 0.0
  }
  param {
    lr_mult: 0.0
    decay_mult: 0.0
  }
}
layer {
  name: "dense54_conv1_relu"
  type: "ReLU"
  bottom: "dense54_conv1"
  top: "dense54_conv1"
}
layer {
  name: "dense54_conv2"
  type: "Convolution"
  bottom: "dense54_conv1"
  top: "dense54_conv2"
  param {
    lr_mult: 1
    decay_mult: 1
  }
  convolution_param {
    num_output: 32
    bias_term: false
    pad: 1
    kernel_size: 3
  }
}
layer {
  name: "dense54_concat"
  type: "Concat"
  bottom: "dense53_concat"
  bottom: "dense54_conv2"
  top: "dense54_concat"
}
layer {
  name: "dense55_scale"
  type: "Scale"
  bottom: "dense54_concat"
  top: "dense55_scale"
  scale_param {
    bias_term: true
  }
  param {
    lr_mult: 0.0
    decay_mult: 0.0
  }
  param {
    lr_mult: 0.0
    decay_mult: 0.0
  }
}
layer {
  name: "dense55_relu"
  type: "ReLU"
  bottom: "dense55_scale"
  top: "dense55_scale"
}
layer {
  name: "dense55_conv1"
  type: "Convolution"
  bottom: "dense55_scale"
  top: "dense55_conv1"
  param {
    lr_mult: 1
    decay_mult: 1
  }
  convolution_param {
    num_output: 128
    bias_term: false
    kernel_size: 1
  }
}
layer {
  name: "dense55_conv1_scale"
  type: "Scale"
  bottom: "dense55_conv1"
  top: "dense55_conv1"
  scale_param {
    bias_term: true
  }
  param {
    lr_mult: 0.0
    decay_mult: 0.0
  }
  param {
    lr_mult: 0.0
    decay_mult: 0.0
  }
}
layer {
  name: "dense55_conv1_relu"
  type: "ReLU"
  bottom: "dense55_conv1"
  top: "dense55_conv1"
}
layer {
  name: "dense55_conv2"
  type: "Convolution"
  bottom: "dense55_conv1"
  top: "dense55_conv2"
  param {
    lr_mult: 1
    decay_mult: 1
  }
  convolution_param {
    num_output: 32
    bias_term: false
    pad: 1
    kernel_size: 3
  }
}
layer {
  name: "dense55_concat"
  type: "Concat"
  bottom: "dense54_concat"
  bottom: "dense55_conv2"
  top: "dense55_concat"
}
layer {
  name: "dense56_scale"
  type: "Scale"
  bottom: "dense55_concat"
  top: "dense56_scale"
  scale_param {
    bias_term: true
  }
  param {
    lr_mult: 0.0
    decay_mult: 0.0
  }
  param {
    lr_mult: 0.0
    decay_mult: 0.0
  }
}
layer {
  name: "dense56_relu"
  type: "ReLU"
  bottom: "dense56_scale"
  top: "dense56_scale"
}
layer {
  name: "dense56_conv1"
  type: "Convolution"
  bottom: "dense56_scale"
  top: "dense56_conv1"
  param {
    lr_mult: 1
    decay_mult: 1
  }
  convolution_param {
    num_output: 128
    bias_term: false
    kernel_size: 1
  }
}
layer {
  name: "dense56_conv1_scale"
  type: "Scale"
  bottom: "dense56_conv1"
  top: "dense56_conv1"
  scale_param {
    bias_term: true
  }
  param {
    lr_mult: 0.0
    decay_mult: 0.0
  }
  param {
    lr_mult: 0.0
    decay_mult: 0.0
  }
}
layer {
  name: "dense56_conv1_relu"
  type: "ReLU"
  bottom: "dense56_conv1"
  top: "dense56_conv1"
}
layer {
  name: "dense56_conv2"
  type: "Convolution"
  bottom: "dense56_conv1"
  top: "dense56_conv2"
  param {
    lr_mult: 1
    decay_mult: 1
  }
  convolution_param {
    num_output: 32
    bias_term: false
    pad: 1
    kernel_size: 3
  }
}
layer {
  name: "dense56_concat"
  type: "Concat"
  bottom: "dense55_concat"
  bottom: "dense56_conv2"
  top: "dense56_concat"
}
layer {
  name: "dense57_scale"
  type: "Scale"
  bottom: "dense56_concat"
  top: "dense57_scale"
  scale_param {
    bias_term: true
  }
  param {
    lr_mult: 0.0
    decay_mult: 0.0
  }
  param {
    lr_mult: 0.0
    decay_mult: 0.0
  }
}
layer {
  name: "dense57_relu"
  type: "ReLU"
  bottom: "dense57_scale"
  top: "dense57_scale"
}
layer {
  name: "dense57_conv1"
  type: "Convolution"
  bottom: "dense57_scale"
  top: "dense57_conv1"
  param {
    lr_mult: 1
    decay_mult: 1
  }
  convolution_param {
    num_output: 128
    bias_term: false
    kernel_size: 1
  }
}
layer {
  name: "dense57_conv1_scale"
  type: "Scale"
  bottom: "dense57_conv1"
  top: "dense57_conv1"
  scale_param {
    bias_term: true
  }
  param {
    lr_mult: 0.0
    decay_mult: 0.0
  }
  param {
    lr_mult: 0.0
    decay_mult: 0.0
  }
}
layer {
  name: "dense57_conv1_relu"
  type: "ReLU"
  bottom: "dense57_conv1"
  top: "dense57_conv1"
}
layer {
  name: "dense57_conv2"
  type: "Convolution"
  bottom: "dense57_conv1"
  top: "dense57_conv2"
  param {
    lr_mult: 1
    decay_mult: 1
  }
  convolution_param {
    num_output: 32
    bias_term: false
    pad: 1
    kernel_size: 3
  }
}
layer {
  name: "dense57_concat"
  type: "Concat"
  bottom: "dense56_concat"
  bottom: "dense57_conv2"
  top: "dense57_concat"
}
layer {
  name: "dense58_scale"
  type: "Scale"
  bottom: "dense57_concat"
  top: "dense58_scale"
  scale_param {
    bias_term: true
  }
  param {
    lr_mult: 0.0
    decay_mult: 0.0
  }
  param {
    lr_mult: 0.0
    decay_mult: 0.0
  }
}
layer {
  name: "dense58_relu"
  type: "ReLU"
  bottom: "dense58_scale"
  top: "dense58_scale"
}
layer {
  name: "dense58_conv1"
  type: "Convolution"
  bottom: "dense58_scale"
  top: "dense58_conv1"
  param {
    lr_mult: 1
    decay_mult: 1
  }
  convolution_param {
    num_output: 128
    bias_term: false
    kernel_size: 1
  }
}
layer {
  name: "dense58_conv1_scale"
  type: "Scale"
  bottom: "dense58_conv1"
  top: "dense58_conv1"
  scale_param {
    bias_term: true
  }
  param {
    lr_mult: 0.0
    decay_mult: 0.0
  }
  param {
    lr_mult: 0.0
    decay_mult: 0.0
  }
}
layer {
  name: "dense58_conv1_relu"
  type: "ReLU"
  bottom: "dense58_conv1"
  top: "dense58_conv1"
}
layer {
  name: "dense58_conv2"
  type: "Convolution"
  bottom: "dense58_conv1"
  top: "dense58_conv2"
  param {
    lr_mult: 1
    decay_mult: 1
  }
  convolution_param {
    num_output: 32
    bias_term: false
    pad: 1
    kernel_size: 3
  }
}
layer {
  name: "dense58_concat"
  type: "Concat"
  bottom: "dense57_concat"
  bottom: "dense58_conv2"
  top: "dense58_concat"
}
layer {
  name: "dense59_scale"
  type: "Scale"
  bottom: "dense58_concat"
  top: "dense59_scale"
  scale_param {
    bias_term: true
  }
  param {
    lr_mult: 0.0
    decay_mult: 0.0
  }
  param {
    lr_mult: 0.0
    decay_mult: 0.0
  }
}
layer {
  name: "dense59_relu"
  type: "ReLU"
  bottom: "dense59_scale"
  top: "dense59_scale"
}
layer {
  name: "dense59_conv1"
  type: "Convolution"
  bottom: "dense59_scale"
  top: "dense59_conv1"
  param {
    lr_mult: 1
    decay_mult: 1
  }
  convolution_param {
    num_output: 128
    bias_term: false
    kernel_size: 1
  }
}
layer {
  name: "dense59_conv1_scale"
  type: "Scale"
  bottom: "dense59_conv1"
  top: "dense59_conv1"
  scale_param {
    bias_term: true
  }
  param {
    lr_mult: 0.0
    decay_mult: 0.0
  }
  param {
    lr_mult: 0.0
    decay_mult: 0.0
  }
}
layer {
  name: "dense59_conv1_relu"
  type: "ReLU"
  bottom: "dense59_conv1"
  top: "dense59_conv1"
}
layer {
  name: "dense59_conv2"
  type: "Convolution"
  bottom: "dense59_conv1"
  top: "dense59_conv2"
  param {
    lr_mult: 1
    decay_mult: 1
  }
  convolution_param {
    num_output: 32
    bias_term: false
    pad: 1
    kernel_size: 3
  }
}
layer {
  name: "dense59_concat"
  type: "Concat"
  bottom: "dense58_concat"
  bottom: "dense59_conv2"
  top: "dense59_concat"
}
layer {
  name: "dense60_scale"
  type: "Scale"
  bottom: "dense59_concat"
  top: "dense60_scale"
  scale_param {
    bias_term: true
  }
  param {
    lr_mult: 0.0
    decay_mult: 0.0
  }
  param {
    lr_mult: 0.0
    decay_mult: 0.0
  }
}
layer {
  name: "dense60_relu"
  type: "ReLU"
  bottom: "dense60_scale"
  top: "dense60_scale"
}
layer {
  name: "dense60_conv1"
  type: "Convolution"
  bottom: "dense60_scale"
  top: "dense60_conv1"
  param {
    lr_mult: 1
    decay_mult: 1
  }
  convolution_param {
    num_output: 128
    bias_term: false
    kernel_size: 1
  }
}
layer {
  name: "dense60_conv1_scale"
  type: "Scale"
  bottom: "dense60_conv1"
  top: "dense60_conv1"
  scale_param {
    bias_term: true
  }
  param {
    lr_mult: 0.0
    decay_mult: 0.0
  }
  param {
    lr_mult: 0.0
    decay_mult: 0.0
  }
}
layer {
  name: "dense60_conv1_relu"
  type: "ReLU"
  bottom: "dense60_conv1"
  top: "dense60_conv1"
}
layer {
  name: "dense60_conv2"
  type: "Convolution"
  bottom: "dense60_conv1"
  top: "dense60_conv2"
  param {
    lr_mult: 1
    decay_mult: 1
  }
  convolution_param {
    num_output: 32
    bias_term: false
    pad: 1
    kernel_size: 3
  }
}
layer {
  name: "dense60_concat"
  type: "Concat"
  bottom: "dense59_concat"
  bottom: "dense60_conv2"
  top: "dense60_concat"
}
layer {
  name: "dense61_scale"
  type: "Scale"
  bottom: "dense60_concat"
  top: "dense61_scale"
  scale_param {
    bias_term: true
  }
  param {
    lr_mult: 0.0
    decay_mult: 0.0
  }
  param {
    lr_mult: 0.0
    decay_mult: 0.0
  }
}
layer {
  name: "dense61_relu"
  type: "ReLU"
  bottom: "dense61_scale"
  top: "dense61_scale"
}
layer {
  name: "dense61_conv1"
  type: "Convolution"
  bottom: "dense61_scale"
  top: "dense61_conv1"
  param {
    lr_mult: 1
    decay_mult: 1
  }
  convolution_param {
    num_output: 128
    bias_term: false
    kernel_size: 1
  }
}
layer {
  name: "dense61_conv1_scale"
  type: "Scale"
  bottom: "dense61_conv1"
  top: "dense61_conv1"
  scale_param {
    bias_term: true
  }
  param {
    lr_mult: 0.0
    decay_mult: 0.0
  }
  param {
    lr_mult: 0.0
    decay_mult: 0.0
  }
}
layer {
  name: "dense61_conv1_relu"
  type: "ReLU"
  bottom: "dense61_conv1"
  top: "dense61_conv1"
}
layer {
  name: "dense61_conv2"
  type: "Convolution"
  bottom: "dense61_conv1"
  top: "dense61_conv2"
  param {
    lr_mult: 1
    decay_mult: 1
  }
  convolution_param {
    num_output: 32
    bias_term: false
    pad: 1
    kernel_size: 3
  }
}
layer {
  name: "dense61_concat"
  type: "Concat"
  bottom: "dense60_concat"
  bottom: "dense61_conv2"
  top: "dense61_concat"
}
layer {
  name: "dense62_scale"
  type: "Scale"
  bottom: "dense61_concat"
  top: "dense62_scale"
  scale_param {
    bias_term: true
  }
  param {
    lr_mult: 0.0
    decay_mult: 0.0
  }
  param {
    lr_mult: 0.0
    decay_mult: 0.0
  }
}
layer {
  name: "dense62_relu"
  type: "ReLU"
  bottom: "dense62_scale"
  top: "dense62_scale"
}
layer {
  name: "dense62_conv1"
  type: "Convolution"
  bottom: "dense62_scale"
  top: "dense62_conv1"
  param {
    lr_mult: 1
    decay_mult: 1
  }
  convolution_param {
    num_output: 128
    bias_term: false
    kernel_size: 1
  }
}
layer {
  name: "dense62_conv1_scale"
  type: "Scale"
  bottom: "dense62_conv1"
  top: "dense62_conv1"
  scale_param {
    bias_term: true
  }
  param {
    lr_mult: 0.0
    decay_mult: 0.0
  }
  param {
    lr_mult: 0.0
    decay_mult: 0.0
  }
}
layer {
  name: "dense62_conv1_relu"
  type: "ReLU"
  bottom: "dense62_conv1"
  top: "dense62_conv1"
}
layer {
  name: "dense62_conv2"
  type: "Convolution"
  bottom: "dense62_conv1"
  top: "dense62_conv2"
  param {
    lr_mult: 1
    decay_mult: 1
  }
  convolution_param {
    num_output: 32
    bias_term: false
    pad: 1
    kernel_size: 3
  }
}
layer {
  name: "dense62_concat"
  type: "Concat"
  bottom: "dense61_concat"
  bottom: "dense62_conv2"
  top: "dense62_concat"
}
layer {
  name: "dense63_scale"
  type: "Scale"
  bottom: "dense62_concat"
  top: "dense63_scale"
  scale_param {
    bias_term: true
  }
  param {
    lr_mult: 0.0
    decay_mult: 0.0
  }
  param {
    lr_mult: 0.0
    decay_mult: 0.0
  }
}
layer {
  name: "dense63_relu"
  type: "ReLU"
  bottom: "dense63_scale"
  top: "dense63_scale"
}
layer {
  name: "dense63_conv1"
  type: "Convolution"
  bottom: "dense63_scale"
  top: "dense63_conv1"
  param {
    lr_mult: 1
    decay_mult: 1
  }
  convolution_param {
    num_output: 128
    bias_term: false
    kernel_size: 1
  }
}
layer {
  name: "dense63_conv1_scale"
  type: "Scale"
  bottom: "dense63_conv1"
  top: "dense63_conv1"
  scale_param {
    bias_term: true
  }
  param {
    lr_mult: 0.0
    decay_mult: 0.0
  }
  param {
    lr_mult: 0.0
    decay_mult: 0.0
  }
}
layer {
  name: "dense63_conv1_relu"
  type: "ReLU"
  bottom: "dense63_conv1"
  top: "dense63_conv1"
}
layer {
  name: "dense63_conv2"
  type: "Convolution"
  bottom: "dense63_conv1"
  top: "dense63_conv2"
  param {
    lr_mult: 1
    decay_mult: 1
  }
  convolution_param {
    num_output: 32
    bias_term: false
    pad: 1
    kernel_size: 3
  }
}
layer {
  name: "dense63_concat"
  type: "Concat"
  bottom: "dense62_concat"
  bottom: "dense63_conv2"
  top: "dense63_concat"
}
layer {
  name: "dense64_scale"
  type: "Scale"
  bottom: "dense63_concat"
  top: "dense64_scale"
  scale_param {
    bias_term: true
  }
  param {
    lr_mult: 0.0
    decay_mult: 0.0
  }
  param {
    lr_mult: 0.0
    decay_mult: 0.0
  }
}
layer {
  name: "dense64_relu"
  type: "ReLU"
  bottom: "dense64_scale"
  top: "dense64_scale"
}
layer {
  name: "dense64_conv1"
  type: "Convolution"
  bottom: "dense64_scale"
  top: "dense64_conv1"
  param {
    lr_mult: 1
    decay_mult: 1
  }
  convolution_param {
    num_output: 128
    bias_term: false
    kernel_size: 1
  }
}
layer {
  name: "dense64_conv1_scale"
  type: "Scale"
  bottom: "dense64_conv1"
  top: "dense64_conv1"
  scale_param {
    bias_term: true
  }
  param {
    lr_mult: 0.0
    decay_mult: 0.0
  }
  param {
    lr_mult: 0.0
    decay_mult: 0.0
  }
}
layer {
  name: "dense64_conv1_relu"
  type: "ReLU"
  bottom: "dense64_conv1"
  top: "dense64_conv1"
}
layer {
  name: "dense64_conv2"
  type: "Convolution"
  bottom: "dense64_conv1"
  top: "dense64_conv2"
  param {
    lr_mult: 1
    decay_mult: 1
  }
  convolution_param {
    num_output: 32
    bias_term: false
    pad: 1
    kernel_size: 3
  }
}
layer {
  name: "dense64_concat"
  type: "Concat"
  bottom: "dense63_concat"
  bottom: "dense64_conv2"
  top: "dense64_concat"
}
layer {
  name: "dense65_scale"
  type: "Scale"
  bottom: "dense64_concat"
  top: "dense65_scale"
  scale_param {
    bias_term: true
  }
  param {
    lr_mult: 0.0
    decay_mult: 0.0
  }
  param {
    lr_mult: 0.0
    decay_mult: 0.0
  }
}
layer {
  name: "dense65_relu"
  type: "ReLU"
  bottom: "dense65_scale"
  top: "dense65_scale"
}
layer {
  name: "dense65_conv1"
  type: "Convolution"
  bottom: "dense65_scale"
  top: "dense65_conv1"
  param {
    lr_mult: 1
    decay_mult: 1
  }
  convolution_param {
    num_output: 128
    bias_term: false
    kernel_size: 1
  }
}
layer {
  name: "dense65_conv1_scale"
  type: "Scale"
  bottom: "dense65_conv1"
  top: "dense65_conv1"
  scale_param {
    bias_term: true
  }
  param {
    lr_mult: 0.0
    decay_mult: 0.0
  }
  param {
    lr_mult: 0.0
    decay_mult: 0.0
  }
}
layer {
  name: "dense65_conv1_relu"
  type: "ReLU"
  bottom: "dense65_conv1"
  top: "dense65_conv1"
}
layer {
  name: "dense65_conv2"
  type: "Convolution"
  bottom: "dense65_conv1"
  top: "dense65_conv2"
  param {
    lr_mult: 1
    decay_mult: 1
  }
  convolution_param {
    num_output: 32
    bias_term: false
    pad: 1
    kernel_size: 3
  }
}
layer {
  name: "dense65_concat"
  type: "Concat"
  bottom: "dense64_concat"
  bottom: "dense65_conv2"
  top: "dense65_concat"
}
layer {
  name: "dense66_scale"
  type: "Scale"
  bottom: "dense65_concat"
  top: "dense66_scale"
  scale_param {
    bias_term: true
  }
  param {
    lr_mult: 0.0
    decay_mult: 0.0
  }
  param {
    lr_mult: 0.0
    decay_mult: 0.0
  }
}
layer {
  name: "dense66_relu"
  type: "ReLU"
  bottom: "dense66_scale"
  top: "dense66_scale"
}
layer {
  name: "dense66_conv1"
  type: "Convolution"
  bottom: "dense66_scale"
  top: "dense66_conv1"
  param {
    lr_mult: 1
    decay_mult: 1
  }
  convolution_param {
    num_output: 128
    bias_term: false
    kernel_size: 1
  }
}
layer {
  name: "dense66_conv1_scale"
  type: "Scale"
  bottom: "dense66_conv1"
  top: "dense66_conv1"
  scale_param {
    bias_term: true
  }
  param {
    lr_mult: 0.0
    decay_mult: 0.0
  }
  param {
    lr_mult: 0.0
    decay_mult: 0.0
  }
}
layer {
  name: "dense66_conv1_relu"
  type: "ReLU"
  bottom: "dense66_conv1"
  top: "dense66_conv1"
}
layer {
  name: "dense66_conv2"
  type: "Convolution"
  bottom: "dense66_conv1"
  top: "dense66_conv2"
  param {
    lr_mult: 1
    decay_mult: 1
  }
  convolution_param {
    num_output: 32
    bias_term: false
    pad: 1
    kernel_size: 3
  }
}
layer {
  name: "dense66_concat"
  type: "Concat"
  bottom: "dense65_concat"
  bottom: "dense66_conv2"
  top: "dense66_concat"
}
layer {
  name: "dense66_concat_scale"
  type: "Scale"
  bottom: "dense66_concat"
  top: "dense66_concat"
  scale_param {
    bias_term: true
  }
  param {
    lr_mult: 0.0
    decay_mult: 0.0
  }
  param {
    lr_mult: 0.0
    decay_mult: 0.0
  }
}
layer {
  name: "dense66_concat_relu"
  type: "ReLU"
  bottom: "dense66_concat"
  top: "dense66_concat"
}


#============== RPN ===============
layer {
  name: "rpn_conv_3x3"
  type: "Convolution"
  bottom: "dense66_concat"
  top: "rpn_output"
  param {
    lr_mult: 1
    decay_mult: 1
  }
  param {
    lr_mult: 2
    decay_mult: 0
  }
  convolution_param {
    num_output: 512
    kernel_size: 3
    pad: 1
    stride: 1
    weight_filler {
      type: "gaussian"
      std: 0.01
    }
    bias_filler {
      type: "constant"
      value: 0
    }
  }
}
layer {
  name: "rpn_relu_3x3"
  type: "ReLU"
  bottom: "rpn_output"
  top: "rpn_output"
}
layer {
  name: "rpn_cls_score"
  type: "Convolution"
  bottom: "rpn_output"
  top: "rpn_cls_score"
  param {
    lr_mult: 1
    decay_mult: 1
  }
  param {
    lr_mult: 2
    decay_mult: 0
  }
  convolution_param {
    num_output: 18   # 2(bg/fg) * 9(anchors)
    kernel_size: 1
    pad: 0
    stride: 1
    weight_filler {
      type: "gaussian"
      std: 0.01
    }
    bias_filler {
      type: "constant"
      value: 0
    }
  }
}
layer {
  name: "rpn_bbox_pred"
  type: "Convolution"
  bottom: "rpn_output"
  top: "rpn_bbox_pred"
  param {
    lr_mult: 1
    decay_mult: 1
  }
  param {
    lr_mult: 2
    decay_mult: 0
  }
  convolution_param {
    num_output: 36   # 4 * 9(anchors)
    kernel_size: 1
    pad: 0
    stride: 1
    weight_filler {
      type: "gaussian"
      std: 0.01
    }
    bias_filler {
      type: "constant"
      value: 0
    }
  }
}
layer {
  bottom: "rpn_cls_score"
  top: "rpn_cls_score_reshape"
  name: "rpn_cls_score_reshape"
  type: "Reshape"
  reshape_param {
    shape {
      dim: 0
      dim: 2
      dim: -1
      dim: 0
    }
  }
}
layer {
  name: 'rpn-data'
  type: 'Python'
  bottom: 'rpn_cls_score'
  bottom: 'gt_boxes'
  bottom: 'im_info'
  bottom: 'data'
  top: 'rpn_labels'
  top: 'rpn_bbox_targets'
  top: 'rpn_bbox_inside_weights'
  top: 'rpn_bbox_outside_weights'
  python_param {
    module: 'rpn.anchor_target_layer'
    layer: 'AnchorTargetLayer'
    param_str: "'feat_stride': 16"
  }
}
layer {
  name: "rpn_loss_cls"
  type: "SoftmaxWithLoss"
  bottom: "rpn_cls_score_reshape"
  bottom: "rpn_labels"
  propagate_down: 1
  propagate_down: 0
  top: "rpn_cls_loss"
  loss_weight: 1
  loss_param {
    ignore_label: -1
    normalize: true
  }
}
layer {
  name: "rpn_loss_bbox"
  type: "SmoothL1Loss"
  bottom: "rpn_bbox_pred"
  bottom: "rpn_bbox_targets"
  bottom: 'rpn_bbox_inside_weights'
  bottom: 'rpn_bbox_outside_weights'
  top: "rpn_loss_bbox"
  loss_weight: 1
  smooth_l1_loss_param {
    sigma: 3.0
  }
}


#============== ROI Proposal ===============
layer {
  name: "rpn_cls_prob"
  type: "Softmax"
  bottom: "rpn_cls_score_reshape"
  top: "rpn_cls_prob"
}
layer {
  name: 'rpn_cls_prob_reshape'
  type: 'Reshape'
  bottom: 'rpn_cls_prob'
  top: 'rpn_cls_prob_reshape'
  reshape_param {
    shape {
      dim: 0
      dim: 18
      dim: -1
      dim: 0
    }
  }
}
layer {
  name: 'proposal'
  type: 'Python'
  bottom: 'rpn_cls_prob_reshape'
  bottom: 'rpn_bbox_pred'
  bottom: 'im_info'
  top: 'rpn_rois'
  python_param {
    module: 'rpn.proposal_layer'
    layer: 'ProposalLayer'
    param_str: "'feat_stride': 16"
  }
}
layer {
  name: 'roi-data'
  type: 'Python'
  bottom: 'rpn_rois'
  bottom: 'gt_boxes'
  top: 'rois'
  top: 'labels'
  top: 'bbox_targets'
  top: 'bbox_inside_weights'
  top: 'bbox_outside_weights'
  python_param {
    module: 'rpn.proposal_target_layer'
    layer: 'ProposalTargetLayer'
    param_str: "'num_classes': 21"
  }
}

#============== RCNN ===============
layer {
  name: "roi_pool"
  type: "ROIPooling"
  bottom: "dense66_concat"
  bottom: "rois"
  top: "roi_pool"
  roi_pooling_param {
    pooled_w: 14
    pooled_h: 14
    spatial_scale: 0.062500
  }
}
layer {
  name: "conv4"
  type: "Convolution"
  bottom: "roi_pool"
  top: "conv4"
  param {
    lr_mult: 1
    decay_mult: 1
  }
  convolution_param {
    num_output: 896
    bias_term: false
    kernel_size: 1
  }
}
layer {
  name: "pool4"
  type: "Pooling"
  bottom: "conv4"
  top: "pool4"
  pooling_param {
    pool: AVE
    kernel_size: 2
    stride: 2
  }
}
layer {
  name: "dense67_scale"
  type: "Scale"
  bottom: "pool4"
  top: "dense67_scale"
  scale_param {
    bias_term: true
  }
  param {
    lr_mult: 0.0
    decay_mult: 0.0
  }
  param {
    lr_mult: 0.0
    decay_mult: 0.0
  }
}
layer {
  name: "dense67_relu"
  type: "ReLU"
  bottom: "dense67_scale"
  top: "dense67_scale"
}
layer {
  name: "dense67_conv1"
  type: "Convolution"
  bottom: "dense67_scale"
  top: "dense67_conv1"
  param {
    lr_mult: 1
    decay_mult: 1
  }
  convolution_param {
    num_output: 128
    bias_term: false
    kernel_size: 1
  }
}
layer {
  name: "dense67_conv1_scale"
  type: "Scale"
  bottom: "dense67_conv1"
  top: "dense67_conv1"
  scale_param {
    bias_term: true
  }
  param {
    lr_mult: 0.0
    decay_mult: 0.0
  }
  param {
    lr_mult: 0.0
    decay_mult: 0.0
  }
}
layer {
  name: "dense67_conv1_relu"
  type: "ReLU"
  bottom: "dense67_conv1"
  top: "dense67_conv1"
}
layer {
  name: "dense67_conv2"
  type: "Convolution"
  bottom: "dense67_conv1"
  top: "dense67_conv2"
  param {
    lr_mult: 1
    decay_mult: 1
  }
  convolution_param {
    num_output: 32
    bias_term: false
    pad: 1
    kernel_size: 3
  }
}
layer {
  name: "dense67_concat"
  type: "Concat"
  bottom: "pool4"
  bottom: "dense67_conv2"
  top: "dense67_concat"
}
layer {
  name: "dense68_scale"
  type: "Scale"
  bottom: "dense67_concat"
  top: "dense68_scale"
  scale_param {
    bias_term: true
  }
  param {
    lr_mult: 0.0
    decay_mult: 0.0
  }
  param {
    lr_mult: 0.0
    decay_mult: 0.0
  }
}
layer {
  name: "dense68_relu"
  type: "ReLU"
  bottom: "dense68_scale"
  top: "dense68_scale"
}
layer {
  name: "dense68_conv1"
  type: "Convolution"
  bottom: "dense68_scale"
  top: "dense68_conv1"
  param {
    lr_mult: 1
    decay_mult: 1
  }
  convolution_param {
    num_output: 128
    bias_term: false
    kernel_size: 1
  }
}
layer {
  name: "dense68_conv1_scale"
  type: "Scale"
  bottom: "dense68_conv1"
  top: "dense68_conv1"
  scale_param {
    bias_term: true
  }
  param {
    lr_mult: 0.0
    decay_mult: 0.0
  }
  param {
    lr_mult: 0.0
    decay_mult: 0.0
  }
}
layer {
  name: "dense68_conv1_relu"
  type: "ReLU"
  bottom: "dense68_conv1"
  top: "dense68_conv1"
}
layer {
  name: "dense68_conv2"
  type: "Convolution"
  bottom: "dense68_conv1"
  top: "dense68_conv2"
  param {
    lr_mult: 1
    decay_mult: 1
  }
  convolution_param {
    num_output: 32
    bias_term: false
    pad: 1
    kernel_size: 3
  }
}
layer {
  name: "dense68_concat"
  type: "Concat"
  bottom: "dense67_concat"
  bottom: "dense68_conv2"
  top: "dense68_concat"
}
layer {
  name: "dense69_scale"
  type: "Scale"
  bottom: "dense68_concat"
  top: "dense69_scale"
  scale_param {
    bias_term: true
  }
  param {
    lr_mult: 0.0
    decay_mult: 0.0
  }
  param {
    lr_mult: 0.0
    decay_mult: 0.0
  }
}
layer {
  name: "dense69_relu"
  type: "ReLU"
  bottom: "dense69_scale"
  top: "dense69_scale"
}
layer {
  name: "dense69_conv1"
  type: "Convolution"
  bottom: "dense69_scale"
  top: "dense69_conv1"
  param {
    lr_mult: 1
    decay_mult: 1
  }
  convolution_param {
    num_output: 128
    bias_term: false
    kernel_size: 1
  }
}
layer {
  name: "dense69_conv1_scale"
  type: "Scale"
  bottom: "dense69_conv1"
  top: "dense69_conv1"
  scale_param {
    bias_term: true
  }
  param {
    lr_mult: 0.0
    decay_mult: 0.0
  }
  param {
    lr_mult: 0.0
    decay_mult: 0.0
  }
}
layer {
  name: "dense69_conv1_relu"
  type: "ReLU"
  bottom: "dense69_conv1"
  top: "dense69_conv1"
}
layer {
  name: "dense69_conv2"
  type: "Convolution"
  bottom: "dense69_conv1"
  top: "dense69_conv2"
  param {
    lr_mult: 1
    decay_mult: 1
  }
  convolution_param {
    num_output: 32
    bias_term: false
    pad: 1
    kernel_size: 3
  }
}
layer {
  name: "dense69_concat"
  type: "Concat"
  bottom: "dense68_concat"
  bottom: "dense69_conv2"
  top: "dense69_concat"
}
layer {
  name: "dense70_scale"
  type: "Scale"
  bottom: "dense69_concat"
  top: "dense70_scale"
  scale_param {
    bias_term: true
  }
  param {
    lr_mult: 0.0
    decay_mult: 0.0
  }
  param {
    lr_mult: 0.0
    decay_mult: 0.0
  }
}
layer {
  name: "dense70_relu"
  type: "ReLU"
  bottom: "dense70_scale"
  top: "dense70_scale"
}
layer {
  name: "dense70_conv1"
  type: "Convolution"
  bottom: "dense70_scale"
  top: "dense70_conv1"
  param {
    lr_mult: 1
    decay_mult: 1
  }
  convolution_param {
    num_output: 128
    bias_term: false
    kernel_size: 1
  }
}
layer {
  name: "dense70_conv1_scale"
  type: "Scale"
  bottom: "dense70_conv1"
  top: "dense70_conv1"
  scale_param {
    bias_term: true
  }
  param {
    lr_mult: 0.0
    decay_mult: 0.0
  }
  param {
    lr_mult: 0.0
    decay_mult: 0.0
  }
}
layer {
  name: "dense70_conv1_relu"
  type: "ReLU"
  bottom: "dense70_conv1"
  top: "dense70_conv1"
}
layer {
  name: "dense70_conv2"
  type: "Convolution"
  bottom: "dense70_conv1"
  top: "dense70_conv2"
  param {
    lr_mult: 1
    decay_mult: 1
  }
  convolution_param {
    num_output: 32
    bias_term: false
    pad: 1
    kernel_size: 3
  }
}
layer {
  name: "dense70_concat"
  type: "Concat"
  bottom: "dense69_concat"
  bottom: "dense70_conv2"
  top: "dense70_concat"
}
layer {
  name: "dense71_scale"
  type: "Scale"
  bottom: "dense70_concat"
  top: "dense71_scale"
  scale_param {
    bias_term: true
  }
  param {
    lr_mult: 0.0
    decay_mult: 0.0
  }
  param {
    lr_mult: 0.0
    decay_mult: 0.0
  }
}
layer {
  name: "dense71_relu"
  type: "ReLU"
  bottom: "dense71_scale"
  top: "dense71_scale"
}
layer {
  name: "dense71_conv1"
  type: "Convolution"
  bottom: "dense71_scale"
  top: "dense71_conv1"
  param {
    lr_mult: 1
    decay_mult: 1
  }
  convolution_param {
    num_output: 128
    bias_term: false
    kernel_size: 1
  }
}
layer {
  name: "dense71_conv1_scale"
  type: "Scale"
  bottom: "dense71_conv1"
  top: "dense71_conv1"
  scale_param {
    bias_term: true
  }
  param {
    lr_mult: 0.0
    decay_mult: 0.0
  }
  param {
    lr_mult: 0.0
    decay_mult: 0.0
  }
}
layer {
  name: "dense71_conv1_relu"
  type: "ReLU"
  bottom: "dense71_conv1"
  top: "dense71_conv1"
}
layer {
  name: "dense71_conv2"
  type: "Convolution"
  bottom: "dense71_conv1"
  top: "dense71_conv2"
  param {
    lr_mult: 1
    decay_mult: 1
  }
  convolution_param {
    num_output: 32
    bias_term: false
    pad: 1
    kernel_size: 3
  }
}
layer {
  name: "dense71_concat"
  type: "Concat"
  bottom: "dense70_concat"
  bottom: "dense71_conv2"
  top: "dense71_concat"
}
layer {
  name: "dense72_scale"
  type: "Scale"
  bottom: "dense71_concat"
  top: "dense72_scale"
  scale_param {
    bias_term: true
  }
  param {
    lr_mult: 0.0
    decay_mult: 0.0
  }
  param {
    lr_mult: 0.0
    decay_mult: 0.0
  }
}
layer {
  name: "dense72_relu"
  type: "ReLU"
  bottom: "dense72_scale"
  top: "dense72_scale"
}
layer {
  name: "dense72_conv1"
  type: "Convolution"
  bottom: "dense72_scale"
  top: "dense72_conv1"
  param {
    lr_mult: 1
    decay_mult: 1
  }
  convolution_param {
    num_output: 128
    bias_term: false
    kernel_size: 1
  }
}
layer {
  name: "dense72_conv1_scale"
  type: "Scale"
  bottom: "dense72_conv1"
  top: "dense72_conv1"
  scale_param {
    bias_term: true
  }
  param {
    lr_mult: 0.0
    decay_mult: 0.0
  }
  param {
    lr_mult: 0.0
    decay_mult: 0.0
  }
}
layer {
  name: "dense72_conv1_relu"
  type: "ReLU"
  bottom: "dense72_conv1"
  top: "dense72_conv1"
}
layer {
  name: "dense72_conv2"
  type: "Convolution"
  bottom: "dense72_conv1"
  top: "dense72_conv2"
  param {
    lr_mult: 1
    decay_mult: 1
  }
  convolution_param {
    num_output: 32
    bias_term: false
    pad: 1
    kernel_size: 3
  }
}
layer {
  name: "dense72_concat"
  type: "Concat"
  bottom: "dense71_concat"
  bottom: "dense72_conv2"
  top: "dense72_concat"
}
layer {
  name: "dense73_scale"
  type: "Scale"
  bottom: "dense72_concat"
  top: "dense73_scale"
  scale_param {
    bias_term: true
  }
  param {
    lr_mult: 0.0
    decay_mult: 0.0
  }
  param {
    lr_mult: 0.0
    decay_mult: 0.0
  }
}
layer {
  name: "dense73_relu"
  type: "ReLU"
  bottom: "dense73_scale"
  top: "dense73_scale"
}
layer {
  name: "dense73_conv1"
  type: "Convolution"
  bottom: "dense73_scale"
  top: "dense73_conv1"
  param {
    lr_mult: 1
    decay_mult: 1
  }
  convolution_param {
    num_output: 128
    bias_term: false
    kernel_size: 1
  }
}
layer {
  name: "dense73_conv1_scale"
  type: "Scale"
  bottom: "dense73_conv1"
  top: "dense73_conv1"
  scale_param {
    bias_term: true
  }
  param {
    lr_mult: 0.0
    decay_mult: 0.0
  }
  param {
    lr_mult: 0.0
    decay_mult: 0.0
  }
}
layer {
  name: "dense73_conv1_relu"
  type: "ReLU"
  bottom: "dense73_conv1"
  top: "dense73_conv1"
}
layer {
  name: "dense73_conv2"
  type: "Convolution"
  bottom: "dense73_conv1"
  top: "dense73_conv2"
  param {
    lr_mult: 1
    decay_mult: 1
  }
  convolution_param {
    num_output: 32
    bias_term: false
    pad: 1
    kernel_size: 3
  }
}
layer {
  name: "dense73_concat"
  type: "Concat"
  bottom: "dense72_concat"
  bottom: "dense73_conv2"
  top: "dense73_concat"
}
layer {
  name: "dense74_scale"
  type: "Scale"
  bottom: "dense73_concat"
  top: "dense74_scale"
  scale_param {
    bias_term: true
  }
  param {
    lr_mult: 0.0
    decay_mult: 0.0
  }
  param {
    lr_mult: 0.0
    decay_mult: 0.0
  }
}
layer {
  name: "dense74_relu"
  type: "ReLU"
  bottom: "dense74_scale"
  top: "dense74_scale"
}
layer {
  name: "dense74_conv1"
  type: "Convolution"
  bottom: "dense74_scale"
  top: "dense74_conv1"
  param {
    lr_mult: 1
    decay_mult: 1
  }
  convolution_param {
    num_output: 128
    bias_term: false
    kernel_size: 1
  }
}
layer {
  name: "dense74_conv1_scale"
  type: "Scale"
  bottom: "dense74_conv1"
  top: "dense74_conv1"
  scale_param {
    bias_term: true
  }
  param {
    lr_mult: 0.0
    decay_mult: 0.0
  }
  param {
    lr_mult: 0.0
    decay_mult: 0.0
  }
}
layer {
  name: "dense74_conv1_relu"
  type: "ReLU"
  bottom: "dense74_conv1"
  top: "dense74_conv1"
}
layer {
  name: "dense74_conv2"
  type: "Convolution"
  bottom: "dense74_conv1"
  top: "dense74_conv2"
  param {
    lr_mult: 1
    decay_mult: 1
  }
  convolution_param {
    num_output: 32
    bias_term: false
    pad: 1
    kernel_size: 3
  }
}
layer {
  name: "dense74_concat"
  type: "Concat"
  bottom: "dense73_concat"
  bottom: "dense74_conv2"
  top: "dense74_concat"
}
layer {
  name: "dense75_scale"
  type: "Scale"
  bottom: "dense74_concat"
  top: "dense75_scale"
  scale_param {
    bias_term: true
  }
  param {
    lr_mult: 0.0
    decay_mult: 0.0
  }
  param {
    lr_mult: 0.0
    decay_mult: 0.0
  }
}
layer {
  name: "dense75_relu"
  type: "ReLU"
  bottom: "dense75_scale"
  top: "dense75_scale"
}
layer {
  name: "dense75_conv1"
  type: "Convolution"
  bottom: "dense75_scale"
  top: "dense75_conv1"
  param {
    lr_mult: 1
    decay_mult: 1
  }
  convolution_param {
    num_output: 128
    bias_term: false
    kernel_size: 1
  }
}
layer {
  name: "dense75_conv1_scale"
  type: "Scale"
  bottom: "dense75_conv1"
  top: "dense75_conv1"
  scale_param {
    bias_term: true
  }
  param {
    lr_mult: 0.0
    decay_mult: 0.0
  }
  param {
    lr_mult: 0.0
    decay_mult: 0.0
  }
}
layer {
  name: "dense75_conv1_relu"
  type: "ReLU"
  bottom: "dense75_conv1"
  top: "dense75_conv1"
}
layer {
  name: "dense75_conv2"
  type: "Convolution"
  bottom: "dense75_conv1"
  top: "dense75_conv2"
  param {
    lr_mult: 1
    decay_mult: 1
  }
  convolution_param {
    num_output: 32
    bias_term: false
    pad: 1
    kernel_size: 3
  }
}
layer {
  name: "dense75_concat"
  type: "Concat"
  bottom: "dense74_concat"
  bottom: "dense75_conv2"
  top: "dense75_concat"
}
layer {
  name: "dense76_scale"
  type: "Scale"
  bottom: "dense75_concat"
  top: "dense76_scale"
  scale_param {
    bias_term: true
  }
  param {
    lr_mult: 0.0
    decay_mult: 0.0
  }
  param {
    lr_mult: 0.0
    decay_mult: 0.0
  }
}
layer {
  name: "dense76_relu"
  type: "ReLU"
  bottom: "dense76_scale"
  top: "dense76_scale"
}
layer {
  name: "dense76_conv1"
  type: "Convolution"
  bottom: "dense76_scale"
  top: "dense76_conv1"
  param {
    lr_mult: 1
    decay_mult: 1
  }
  convolution_param {
    num_output: 128
    bias_term: false
    kernel_size: 1
  }
}
layer {
  name: "dense76_conv1_scale"
  type: "Scale"
  bottom: "dense76_conv1"
  top: "dense76_conv1"
  scale_param {
    bias_term: true
  }
  param {
    lr_mult: 0.0
    decay_mult: 0.0
  }
  param {
    lr_mult: 0.0
    decay_mult: 0.0
  }
}
layer {
  name: "dense76_conv1_relu"
  type: "ReLU"
  bottom: "dense76_conv1"
  top: "dense76_conv1"
}
layer {
  name: "dense76_conv2"
  type: "Convolution"
  bottom: "dense76_conv1"
  top: "dense76_conv2"
  param {
    lr_mult: 1
    decay_mult: 1
  }
  convolution_param {
    num_output: 32
    bias_term: false
    pad: 1
    kernel_size: 3
  }
}
layer {
  name: "dense76_concat"
  type: "Concat"
  bottom: "dense75_concat"
  bottom: "dense76_conv2"
  top: "dense76_concat"
}
layer {
  name: "dense77_scale"
  type: "Scale"
  bottom: "dense76_concat"
  top: "dense77_scale"
  scale_param {
    bias_term: true
  }
  param {
    lr_mult: 0.0
    decay_mult: 0.0
  }
  param {
    lr_mult: 0.0
    decay_mult: 0.0
  }
}
layer {
  name: "dense77_relu"
  type: "ReLU"
  bottom: "dense77_scale"
  top: "dense77_scale"
}
layer {
  name: "dense77_conv1"
  type: "Convolution"
  bottom: "dense77_scale"
  top: "dense77_conv1"
  param {
    lr_mult: 1
    decay_mult: 1
  }
  convolution_param {
    num_output: 128
    bias_term: false
    kernel_size: 1
  }
}
layer {
  name: "dense77_conv1_scale"
  type: "Scale"
  bottom: "dense77_conv1"
  top: "dense77_conv1"
  scale_param {
    bias_term: true
  }
  param {
    lr_mult: 0.0
    decay_mult: 0.0
  }
  param {
    lr_mult: 0.0
    decay_mult: 0.0
  }
}
layer {
  name: "dense77_conv1_relu"
  type: "ReLU"
  bottom: "dense77_conv1"
  top: "dense77_conv1"
}
layer {
  name: "dense77_conv2"
  type: "Convolution"
  bottom: "dense77_conv1"
  top: "dense77_conv2"
  param {
    lr_mult: 1
    decay_mult: 1
  }
  convolution_param {
    num_output: 32
    bias_term: false
    pad: 1
    kernel_size: 3
  }
}
layer {
  name: "dense77_concat"
  type: "Concat"
  bottom: "dense76_concat"
  bottom: "dense77_conv2"
  top: "dense77_concat"
}
layer {
  name: "dense78_scale"
  type: "Scale"
  bottom: "dense77_concat"
  top: "dense78_scale"
  scale_param {
    bias_term: true
  }
  param {
    lr_mult: 0.0
    decay_mult: 0.0
  }
  param {
    lr_mult: 0.0
    decay_mult: 0.0
  }
}
layer {
  name: "dense78_relu"
  type: "ReLU"
  bottom: "dense78_scale"
  top: "dense78_scale"
}
layer {
  name: "dense78_conv1"
  type: "Convolution"
  bottom: "dense78_scale"
  top: "dense78_conv1"
  param {
    lr_mult: 1
    decay_mult: 1
  }
  convolution_param {
    num_output: 128
    bias_term: false
    kernel_size: 1
  }
}
layer {
  name: "dense78_conv1_scale"
  type: "Scale"
  bottom: "dense78_conv1"
  top: "dense78_conv1"
  scale_param {
    bias_term: true
  }
  param {
    lr_mult: 0.0
    decay_mult: 0.0
  }
  param {
    lr_mult: 0.0
    decay_mult: 0.0
  }
}
layer {
  name: "dense78_conv1_relu"
  type: "ReLU"
  bottom: "dense78_conv1"
  top: "dense78_conv1"
}
layer {
  name: "dense78_conv2"
  type: "Convolution"
  bottom: "dense78_conv1"
  top: "dense78_conv2"
  param {
    lr_mult: 1
    decay_mult: 1
  }
  convolution_param {
    num_output: 32
    bias_term: false
    pad: 1
    kernel_size: 3
  }
}
layer {
  name: "dense78_concat"
  type: "Concat"
  bottom: "dense77_concat"
  bottom: "dense78_conv2"
  top: "dense78_concat"
}
layer {
  name: "dense79_scale"
  type: "Scale"
  bottom: "dense78_concat"
  top: "dense79_scale"
  scale_param {
    bias_term: true
  }
  param {
    lr_mult: 0.0
    decay_mult: 0.0
  }
  param {
    lr_mult: 0.0
    decay_mult: 0.0
  }
}
layer {
  name: "dense79_relu"
  type: "ReLU"
  bottom: "dense79_scale"
  top: "dense79_scale"
}
layer {
  name: "dense79_conv1"
  type: "Convolution"
  bottom: "dense79_scale"
  top: "dense79_conv1"
  param {
    lr_mult: 1
    decay_mult: 1
  }
  convolution_param {
    num_output: 128
    bias_term: false
    kernel_size: 1
  }
}
layer {
  name: "dense79_conv1_scale"
  type: "Scale"
  bottom: "dense79_conv1"
  top: "dense79_conv1"
  scale_param {
    bias_term: true
  }
  param {
    lr_mult: 0.0
    decay_mult: 0.0
  }
  param {
    lr_mult: 0.0
    decay_mult: 0.0
  }
}
layer {
  name: "dense79_conv1_relu"
  type: "ReLU"
  bottom: "dense79_conv1"
  top: "dense79_conv1"
}
layer {
  name: "dense79_conv2"
  type: "Convolution"
  bottom: "dense79_conv1"
  top: "dense79_conv2"
  param {
    lr_mult: 1
    decay_mult: 1
  }
  convolution_param {
    num_output: 32
    bias_term: false
    pad: 1
    kernel_size: 3
  }
}
layer {
  name: "dense79_concat"
  type: "Concat"
  bottom: "dense78_concat"
  bottom: "dense79_conv2"
  top: "dense79_concat"
}
layer {
  name: "dense80_scale"
  type: "Scale"
  bottom: "dense79_concat"
  top: "dense80_scale"
  scale_param {
    bias_term: true
  }
  param {
    lr_mult: 0.0
    decay_mult: 0.0
  }
  param {
    lr_mult: 0.0
    decay_mult: 0.0
  }
}
layer {
  name: "dense80_relu"
  type: "ReLU"
  bottom: "dense80_scale"
  top: "dense80_scale"
}
layer {
  name: "dense80_conv1"
  type: "Convolution"
  bottom: "dense80_scale"
  top: "dense80_conv1"
  param {
    lr_mult: 1
    decay_mult: 1
  }
  convolution_param {
    num_output: 128
    bias_term: false
    kernel_size: 1
  }
}
layer {
  name: "dense80_conv1_scale"
  type: "Scale"
  bottom: "dense80_conv1"
  top: "dense80_conv1"
  scale_param {
    bias_term: true
  }
  param {
    lr_mult: 0.0
    decay_mult: 0.0
  }
  param {
    lr_mult: 0.0
    decay_mult: 0.0
  }
}
layer {
  name: "dense80_conv1_relu"
  type: "ReLU"
  bottom: "dense80_conv1"
  top: "dense80_conv1"
}
layer {
  name: "dense80_conv2"
  type: "Convolution"
  bottom: "dense80_conv1"
  top: "dense80_conv2"
  param {
    lr_mult: 1
    decay_mult: 1
  }
  convolution_param {
    num_output: 32
    bias_term: false
    pad: 1
    kernel_size: 3
  }
}
layer {
  name: "dense80_concat"
  type: "Concat"
  bottom: "dense79_concat"
  bottom: "dense80_conv2"
  top: "dense80_concat"
}
layer {
  name: "dense81_scale"
  type: "Scale"
  bottom: "dense80_concat"
  top: "dense81_scale"
  scale_param {
    bias_term: true
  }
  param {
    lr_mult: 0.0
    decay_mult: 0.0
  }
  param {
    lr_mult: 0.0
    decay_mult: 0.0
  }
}
layer {
  name: "dense81_relu"
  type: "ReLU"
  bottom: "dense81_scale"
  top: "dense81_scale"
}
layer {
  name: "dense81_conv1"
  type: "Convolution"
  bottom: "dense81_scale"
  top: "dense81_conv1"
  param {
    lr_mult: 1
    decay_mult: 1
  }
  convolution_param {
    num_output: 128
    bias_term: false
    kernel_size: 1
  }
}
layer {
  name: "dense81_conv1_scale"
  type: "Scale"
  bottom: "dense81_conv1"
  top: "dense81_conv1"
  scale_param {
    bias_term: true
  }
  param {
    lr_mult: 0.0
    decay_mult: 0.0
  }
  param {
    lr_mult: 0.0
    decay_mult: 0.0
  }
}
layer {
  name: "dense81_conv1_relu"
  type: "ReLU"
  bottom: "dense81_conv1"
  top: "dense81_conv1"
}
layer {
  name: "dense81_conv2"
  type: "Convolution"
  bottom: "dense81_conv1"
  top: "dense81_conv2"
  param {
    lr_mult: 1
    decay_mult: 1
  }
  convolution_param {
    num_output: 32
    bias_term: false
    pad: 1
    kernel_size: 3
  }
}
layer {
  name: "dense81_concat"
  type: "Concat"
  bottom: "dense80_concat"
  bottom: "dense81_conv2"
  top: "dense81_concat"
}
layer {
  name: "dense82_scale"
  type: "Scale"
  bottom: "dense81_concat"
  top: "dense82_scale"
  scale_param {
    bias_term: true
  }
  param {
    lr_mult: 0.0
    decay_mult: 0.0
  }
  param {
    lr_mult: 0.0
    decay_mult: 0.0
  }
}
layer {
  name: "dense82_relu"
  type: "ReLU"
  bottom: "dense82_scale"
  top: "dense82_scale"
}
layer {
  name: "dense82_conv1"
  type: "Convolution"
  bottom: "dense82_scale"
  top: "dense82_conv1"
  param {
    lr_mult: 1
    decay_mult: 1
  }
  convolution_param {
    num_output: 128
    bias_term: false
    kernel_size: 1
  }
}
layer {
  name: "dense82_conv1_scale"
  type: "Scale"
  bottom: "dense82_conv1"
  top: "dense82_conv1"
  scale_param {
    bias_term: true
  }
  param {
    lr_mult: 0.0
    decay_mult: 0.0
  }
  param {
    lr_mult: 0.0
    decay_mult: 0.0
  }
}
layer {
  name: "dense82_conv1_relu"
  type: "ReLU"
  bottom: "dense82_conv1"
  top: "dense82_conv1"
}
layer {
  name: "dense82_conv2"
  type: "Convolution"
  bottom: "dense82_conv1"
  top: "dense82_conv2"
  param {
    lr_mult: 1
    decay_mult: 1
  }
  convolution_param {
    num_output: 32
    bias_term: false
    pad: 1
    kernel_size: 3
  }
}
layer {
  name: "dense82_concat"
  type: "Concat"
  bottom: "dense81_concat"
  bottom: "dense82_conv2"
  top: "dense82_concat"
}
layer {
  name: "dense83_scale"
  type: "Scale"
  bottom: "dense82_concat"
  top: "dense83_scale"
  scale_param {
    bias_term: true
  }
  param {
    lr_mult: 0.0
    decay_mult: 0.0
  }
  param {
    lr_mult: 0.0
    decay_mult: 0.0
  }
}
layer {
  name: "dense83_relu"
  type: "ReLU"
  bottom: "dense83_scale"
  top: "dense83_scale"
}
layer {
  name: "dense83_conv1"
  type: "Convolution"
  bottom: "dense83_scale"
  top: "dense83_conv1"
  param {
    lr_mult: 1
    decay_mult: 1
  }
  convolution_param {
    num_output: 128
    bias_term: false
    kernel_size: 1
  }
}
layer {
  name: "dense83_conv1_scale"
  type: "Scale"
  bottom: "dense83_conv1"
  top: "dense83_conv1"
  scale_param {
    bias_term: true
  }
  param {
    lr_mult: 0.0
    decay_mult: 0.0
  }
  param {
    lr_mult: 0.0
    decay_mult: 0.0
  }
}
layer {
  name: "dense83_conv1_relu"
  type: "ReLU"
  bottom: "dense83_conv1"
  top: "dense83_conv1"
}
layer {
  name: "dense83_conv2"
  type: "Convolution"
  bottom: "dense83_conv1"
  top: "dense83_conv2"
  param {
    lr_mult: 1
    decay_mult: 1
  }
  convolution_param {
    num_output: 32
    bias_term: false
    pad: 1
    kernel_size: 3
  }
}
layer {
  name: "dense83_concat"
  type: "Concat"
  bottom: "dense82_concat"
  bottom: "dense83_conv2"
  top: "dense83_concat"
}
layer {
  name: "dense84_scale"
  type: "Scale"
  bottom: "dense83_concat"
  top: "dense84_scale"
  scale_param {
    bias_term: true
  }
  param {
    lr_mult: 0.0
    decay_mult: 0.0
  }
  param {
    lr_mult: 0.0
    decay_mult: 0.0
  }
}
layer {
  name: "dense84_relu"
  type: "ReLU"
  bottom: "dense84_scale"
  top: "dense84_scale"
}
layer {
  name: "dense84_conv1"
  type: "Convolution"
  bottom: "dense84_scale"
  top: "dense84_conv1"
  param {
    lr_mult: 1
    decay_mult: 1
  }
  convolution_param {
    num_output: 128
    bias_term: false
    kernel_size: 1
  }
}
layer {
  name: "dense84_conv1_scale"
  type: "Scale"
  bottom: "dense84_conv1"
  top: "dense84_conv1"
  scale_param {
    bias_term: true
  }
  param {
    lr_mult: 0.0
    decay_mult: 0.0
  }
  param {
    lr_mult: 0.0
    decay_mult: 0.0
  }
}
layer {
  name: "dense84_conv1_relu"
  type: "ReLU"
  bottom: "dense84_conv1"
  top: "dense84_conv1"
}
layer {
  name: "dense84_conv2"
  type: "Convolution"
  bottom: "dense84_conv1"
  top: "dense84_conv2"
  param {
    lr_mult: 1
    decay_mult: 1
  }
  convolution_param {
    num_output: 32
    bias_term: false
    pad: 1
    kernel_size: 3
  }
}
layer {
  name: "dense84_concat"
  type: "Concat"
  bottom: "dense83_concat"
  bottom: "dense84_conv2"
  top: "dense84_concat"
}
layer {
  name: "dense85_scale"
  type: "Scale"
  bottom: "dense84_concat"
  top: "dense85_scale"
  scale_param {
    bias_term: true
  }
  param {
    lr_mult: 0.0
    decay_mult: 0.0
  }
  param {
    lr_mult: 0.0
    decay_mult: 0.0
  }
}
layer {
  name: "dense85_relu"
  type: "ReLU"
  bottom: "dense85_scale"
  top: "dense85_scale"
}
layer {
  name: "dense85_conv1"
  type: "Convolution"
  bottom: "dense85_scale"
  top: "dense85_conv1"
  param {
    lr_mult: 1
    decay_mult: 1
  }
  convolution_param {
    num_output: 128
    bias_term: false
    kernel_size: 1
  }
}
layer {
  name: "dense85_conv1_scale"
  type: "Scale"
  bottom: "dense85_conv1"
  top: "dense85_conv1"
  scale_param {
    bias_term: true
  }
  param {
    lr_mult: 0.0
    decay_mult: 0.0
  }
  param {
    lr_mult: 0.0
    decay_mult: 0.0
  }
}
layer {
  name: "dense85_conv1_relu"
  type: "ReLU"
  bottom: "dense85_conv1"
  top: "dense85_conv1"
}
layer {
  name: "dense85_conv2"
  type: "Convolution"
  bottom: "dense85_conv1"
  top: "dense85_conv2"
  param {
    lr_mult: 1
    decay_mult: 1
  }
  convolution_param {
    num_output: 32
    bias_term: false
    pad: 1
    kernel_size: 3
  }
}
layer {
  name: "dense85_concat"
  type: "Concat"
  bottom: "dense84_concat"
  bottom: "dense85_conv2"
  top: "dense85_concat"
}
layer {
  name: "dense86_scale"
  type: "Scale"
  bottom: "dense85_concat"
  top: "dense86_scale"
  scale_param {
    bias_term: true
  }
  param {
    lr_mult: 0.0
    decay_mult: 0.0
  }
  param {
    lr_mult: 0.0
    decay_mult: 0.0
  }
}
layer {
  name: "dense86_relu"
  type: "ReLU"
  bottom: "dense86_scale"
  top: "dense86_scale"
}
layer {
  name: "dense86_conv1"
  type: "Convolution"
  bottom: "dense86_scale"
  top: "dense86_conv1"
  param {
    lr_mult: 1
    decay_mult: 1
  }
  convolution_param {
    num_output: 128
    bias_term: false
    kernel_size: 1
  }
}
layer {
  name: "dense86_conv1_scale"
  type: "Scale"
  bottom: "dense86_conv1"
  top: "dense86_conv1"
  scale_param {
    bias_term: true
  }
  param {
    lr_mult: 0.0
    decay_mult: 0.0
  }
  param {
    lr_mult: 0.0
    decay_mult: 0.0
  }
}
layer {
  name: "dense86_conv1_relu"
  type: "ReLU"
  bottom: "dense86_conv1"
  top: "dense86_conv1"
}
layer {
  name: "dense86_conv2"
  type: "Convolution"
  bottom: "dense86_conv1"
  top: "dense86_conv2"
  param {
    lr_mult: 1
    decay_mult: 1
  }
  convolution_param {
    num_output: 32
    bias_term: false
    pad: 1
    kernel_size: 3
  }
}
layer {
  name: "dense86_concat"
  type: "Concat"
  bottom: "dense85_concat"
  bottom: "dense86_conv2"
  top: "dense86_concat"
}
layer {
  name: "dense87_scale"
  type: "Scale"
  bottom: "dense86_concat"
  top: "dense87_scale"
  scale_param {
    bias_term: true
  }
  param {
    lr_mult: 0.0
    decay_mult: 0.0
  }
  param {
    lr_mult: 0.0
    decay_mult: 0.0
  }
}
layer {
  name: "dense87_relu"
  type: "ReLU"
  bottom: "dense87_scale"
  top: "dense87_scale"
}
layer {
  name: "dense87_conv1"
  type: "Convolution"
  bottom: "dense87_scale"
  top: "dense87_conv1"
  param {
    lr_mult: 1
    decay_mult: 1
  }
  convolution_param {
    num_output: 128
    bias_term: false
    kernel_size: 1
  }
}
layer {
  name: "dense87_conv1_scale"
  type: "Scale"
  bottom: "dense87_conv1"
  top: "dense87_conv1"
  scale_param {
    bias_term: true
  }
  param {
    lr_mult: 0.0
    decay_mult: 0.0
  }
  param {
    lr_mult: 0.0
    decay_mult: 0.0
  }
}
layer {
  name: "dense87_conv1_relu"
  type: "ReLU"
  bottom: "dense87_conv1"
  top: "dense87_conv1"
}
layer {
  name: "dense87_conv2"
  type: "Convolution"
  bottom: "dense87_conv1"
  top: "dense87_conv2"
  param {
    lr_mult: 1
    decay_mult: 1
  }
  convolution_param {
    num_output: 32
    bias_term: false
    pad: 1
    kernel_size: 3
  }
}
layer {
  name: "dense87_concat"
  type: "Concat"
  bottom: "dense86_concat"
  bottom: "dense87_conv2"
  top: "dense87_concat"
}
layer {
  name: "dense88_scale"
  type: "Scale"
  bottom: "dense87_concat"
  top: "dense88_scale"
  scale_param {
    bias_term: true
  }
  param {
    lr_mult: 0.0
    decay_mult: 0.0
  }
  param {
    lr_mult: 0.0
    decay_mult: 0.0
  }
}
layer {
  name: "dense88_relu"
  type: "ReLU"
  bottom: "dense88_scale"
  top: "dense88_scale"
}
layer {
  name: "dense88_conv1"
  type: "Convolution"
  bottom: "dense88_scale"
  top: "dense88_conv1"
  param {
    lr_mult: 1
    decay_mult: 1
  }
  convolution_param {
    num_output: 128
    bias_term: false
    kernel_size: 1
  }
}
layer {
  name: "dense88_conv1_scale"
  type: "Scale"
  bottom: "dense88_conv1"
  top: "dense88_conv1"
  scale_param {
    bias_term: true
  }
  param {
    lr_mult: 0.0
    decay_mult: 0.0
  }
  param {
    lr_mult: 0.0
    decay_mult: 0.0
  }
}
layer {
  name: "dense88_conv1_relu"
  type: "ReLU"
  bottom: "dense88_conv1"
  top: "dense88_conv1"
}
layer {
  name: "dense88_conv2"
  type: "Convolution"
  bottom: "dense88_conv1"
  top: "dense88_conv2"
  param {
    lr_mult: 1
    decay_mult: 1
  }
  convolution_param {
    num_output: 32
    bias_term: false
    pad: 1
    kernel_size: 3
  }
}
layer {
  name: "dense88_concat"
  type: "Concat"
  bottom: "dense87_concat"
  bottom: "dense88_conv2"
  top: "dense88_concat"
}
layer {
  name: "dense89_scale"
  type: "Scale"
  bottom: "dense88_concat"
  top: "dense89_scale"
  scale_param {
    bias_term: true
  }
  param {
    lr_mult: 0.0
    decay_mult: 0.0
  }
  param {
    lr_mult: 0.0
    decay_mult: 0.0
  }
}
layer {
  name: "dense89_relu"
  type: "ReLU"
  bottom: "dense89_scale"
  top: "dense89_scale"
}
layer {
  name: "dense89_conv1"
  type: "Convolution"
  bottom: "dense89_scale"
  top: "dense89_conv1"
  param {
    lr_mult: 1
    decay_mult: 1
  }
  convolution_param {
    num_output: 128
    bias_term: false
    kernel_size: 1
  }
}
layer {
  name: "dense89_conv1_scale"
  type: "Scale"
  bottom: "dense89_conv1"
  top: "dense89_conv1"
  scale_param {
    bias_term: true
  }
  param {
    lr_mult: 0.0
    decay_mult: 0.0
  }
  param {
    lr_mult: 0.0
    decay_mult: 0.0
  }
}
layer {
  name: "dense89_conv1_relu"
  type: "ReLU"
  bottom: "dense89_conv1"
  top: "dense89_conv1"
}
layer {
  name: "dense89_conv2"
  type: "Convolution"
  bottom: "dense89_conv1"
  top: "dense89_conv2"
  param {
    lr_mult: 1
    decay_mult: 1
  }
  convolution_param {
    num_output: 32
    bias_term: false
    pad: 1
    kernel_size: 3
  }
}
layer {
  name: "dense89_concat"
  type: "Concat"
  bottom: "dense88_concat"
  bottom: "dense89_conv2"
  top: "dense89_concat"
}
layer {
  name: "dense90_scale"
  type: "Scale"
  bottom: "dense89_concat"
  top: "dense90_scale"
  scale_param {
    bias_term: true
  }
  param {
    lr_mult: 0.0
    decay_mult: 0.0
  }
  param {
    lr_mult: 0.0
    decay_mult: 0.0
  }
}
layer {
  name: "dense90_relu"
  type: "ReLU"
  bottom: "dense90_scale"
  top: "dense90_scale"
}
layer {
  name: "dense90_conv1"
  type: "Convolution"
  bottom: "dense90_scale"
  top: "dense90_conv1"
  param {
    lr_mult: 1
    decay_mult: 1
  }
  convolution_param {
    num_output: 128
    bias_term: false
    kernel_size: 1
  }
}
layer {
  name: "dense90_conv1_scale"
  type: "Scale"
  bottom: "dense90_conv1"
  top: "dense90_conv1"
  scale_param {
    bias_term: true
  }
  param {
    lr_mult: 0.0
    decay_mult: 0.0
  }
  param {
    lr_mult: 0.0
    decay_mult: 0.0
  }
}
layer {
  name: "dense90_conv1_relu"
  type: "ReLU"
  bottom: "dense90_conv1"
  top: "dense90_conv1"
}
layer {
  name: "dense90_conv2"
  type: "Convolution"
  bottom: "dense90_conv1"
  top: "dense90_conv2"
  param {
    lr_mult: 1
    decay_mult: 1
  }
  convolution_param {
    num_output: 32
    bias_term: false
    pad: 1
    kernel_size: 3
  }
}
layer {
  name: "dense90_concat"
  type: "Concat"
  bottom: "dense89_concat"
  bottom: "dense90_conv2"
  top: "dense90_concat"
}
layer {
  name: "dense91_scale"
  type: "Scale"
  bottom: "dense90_concat"
  top: "dense91_scale"
  scale_param {
    bias_term: true
  }
  param {
    lr_mult: 0.0
    decay_mult: 0.0
  }
  param {
    lr_mult: 0.0
    decay_mult: 0.0
  }
}
layer {
  name: "dense91_relu"
  type: "ReLU"
  bottom: "dense91_scale"
  top: "dense91_scale"
}
layer {
  name: "dense91_conv1"
  type: "Convolution"
  bottom: "dense91_scale"
  top: "dense91_conv1"
  param {
    lr_mult: 1
    decay_mult: 1
  }
  convolution_param {
    num_output: 128
    bias_term: false
    kernel_size: 1
  }
}
layer {
  name: "dense91_conv1_scale"
  type: "Scale"
  bottom: "dense91_conv1"
  top: "dense91_conv1"
  scale_param {
    bias_term: true
  }
  param {
    lr_mult: 0.0
    decay_mult: 0.0
  }
  param {
    lr_mult: 0.0
    decay_mult: 0.0
  }
}
layer {
  name: "dense91_conv1_relu"
  type: "ReLU"
  bottom: "dense91_conv1"
  top: "dense91_conv1"
}
layer {
  name: "dense91_conv2"
  type: "Convolution"
  bottom: "dense91_conv1"
  top: "dense91_conv2"
  param {
    lr_mult: 1
    decay_mult: 1
  }
  convolution_param {
    num_output: 32
    bias_term: false
    pad: 1
    kernel_size: 3
  }
}
layer {
  name: "dense91_concat"
  type: "Concat"
  bottom: "dense90_concat"
  bottom: "dense91_conv2"
  top: "dense91_concat"
}
layer {
  name: "dense92_scale"
  type: "Scale"
  bottom: "dense91_concat"
  top: "dense92_scale"
  scale_param {
    bias_term: true
  }
  param {
    lr_mult: 0.0
    decay_mult: 0.0
  }
  param {
    lr_mult: 0.0
    decay_mult: 0.0
  }
}
layer {
  name: "dense92_relu"
  type: "ReLU"
  bottom: "dense92_scale"
  top: "dense92_scale"
}
layer {
  name: "dense92_conv1"
  type: "Convolution"
  bottom: "dense92_scale"
  top: "dense92_conv1"
  param {
    lr_mult: 1
    decay_mult: 1
  }
  convolution_param {
    num_output: 128
    bias_term: false
    kernel_size: 1
  }
}
layer {
  name: "dense92_conv1_scale"
  type: "Scale"
  bottom: "dense92_conv1"
  top: "dense92_conv1"
  scale_param {
    bias_term: true
  }
  param {
    lr_mult: 0.0
    decay_mult: 0.0
  }
  param {
    lr_mult: 0.0
    decay_mult: 0.0
  }
}
layer {
  name: "dense92_conv1_relu"
  type: "ReLU"
  bottom: "dense92_conv1"
  top: "dense92_conv1"
}
layer {
  name: "dense92_conv2"
  type: "Convolution"
  bottom: "dense92_conv1"
  top: "dense92_conv2"
  param {
    lr_mult: 1
    decay_mult: 1
  }
  convolution_param {
    num_output: 32
    bias_term: false
    pad: 1
    kernel_size: 3
  }
}
layer {
  name: "dense92_concat"
  type: "Concat"
  bottom: "dense91_concat"
  bottom: "dense92_conv2"
  top: "dense92_concat"
}
layer {
  name: "dense93_scale"
  type: "Scale"
  bottom: "dense92_concat"
  top: "dense93_scale"
  scale_param {
    bias_term: true
  }
  param {
    lr_mult: 0.0
    decay_mult: 0.0
  }
  param {
    lr_mult: 0.0
    decay_mult: 0.0
  }
}
layer {
  name: "dense93_relu"
  type: "ReLU"
  bottom: "dense93_scale"
  top: "dense93_scale"
}
layer {
  name: "dense93_conv1"
  type: "Convolution"
  bottom: "dense93_scale"
  top: "dense93_conv1"
  param {
    lr_mult: 1
    decay_mult: 1
  }
  convolution_param {
    num_output: 128
    bias_term: false
    kernel_size: 1
  }
}
layer {
  name: "dense93_conv1_scale"
  type: "Scale"
  bottom: "dense93_conv1"
  top: "dense93_conv1"
  scale_param {
    bias_term: true
  }
  param {
    lr_mult: 0.0
    decay_mult: 0.0
  }
  param {
    lr_mult: 0.0
    decay_mult: 0.0
  }
}
layer {
  name: "dense93_conv1_relu"
  type: "ReLU"
  bottom: "dense93_conv1"
  top: "dense93_conv1"
}
layer {
  name: "dense93_conv2"
  type: "Convolution"
  bottom: "dense93_conv1"
  top: "dense93_conv2"
  param {
    lr_mult: 1
    decay_mult: 1
  }
  convolution_param {
    num_output: 32
    bias_term: false
    pad: 1
    kernel_size: 3
  }
}
layer {
  name: "dense93_concat"
  type: "Concat"
  bottom: "dense92_concat"
  bottom: "dense93_conv2"
  top: "dense93_concat"
}
layer {
  name: "dense94_scale"
  type: "Scale"
  bottom: "dense93_concat"
  top: "dense94_scale"
  scale_param {
    bias_term: true
  }
  param {
    lr_mult: 0.0
    decay_mult: 0.0
  }
  param {
    lr_mult: 0.0
    decay_mult: 0.0
  }
}
layer {
  name: "dense94_relu"
  type: "ReLU"
  bottom: "dense94_scale"
  top: "dense94_scale"
}
layer {
  name: "dense94_conv1"
  type: "Convolution"
  bottom: "dense94_scale"
  top: "dense94_conv1"
  param {
    lr_mult: 1
    decay_mult: 1
  }
  convolution_param {
    num_output: 128
    bias_term: false
    kernel_size: 1
  }
}
layer {
  name: "dense94_conv1_scale"
  type: "Scale"
  bottom: "dense94_conv1"
  top: "dense94_conv1"
  scale_param {
    bias_term: true
  }
  param {
    lr_mult: 0.0
    decay_mult: 0.0
  }
  param {
    lr_mult: 0.0
    decay_mult: 0.0
  }
}
layer {
  name: "dense94_conv1_relu"
  type: "ReLU"
  bottom: "dense94_conv1"
  top: "dense94_conv1"
}
layer {
  name: "dense94_conv2"
  type: "Convolution"
  bottom: "dense94_conv1"
  top: "dense94_conv2"
  param {
    lr_mult: 1
    decay_mult: 1
  }
  convolution_param {
    num_output: 32
    bias_term: false
    pad: 1
    kernel_size: 3
  }
}
layer {
  name: "dense94_concat"
  type: "Concat"
  bottom: "dense93_concat"
  bottom: "dense94_conv2"
  top: "dense94_concat"
}
layer {
  name: "dense95_scale"
  type: "Scale"
  bottom: "dense94_concat"
  top: "dense95_scale"
  scale_param {
    bias_term: true
  }
  param {
    lr_mult: 0.0
    decay_mult: 0.0
  }
  param {
    lr_mult: 0.0
    decay_mult: 0.0
  }
}
layer {
  name: "dense95_relu"
  type: "ReLU"
  bottom: "dense95_scale"
  top: "dense95_scale"
}
layer {
  name: "dense95_conv1"
  type: "Convolution"
  bottom: "dense95_scale"
  top: "dense95_conv1"
  param {
    lr_mult: 1
    decay_mult: 1
  }
  convolution_param {
    num_output: 128
    bias_term: false
    kernel_size: 1
  }
}
layer {
  name: "dense95_conv1_scale"
  type: "Scale"
  bottom: "dense95_conv1"
  top: "dense95_conv1"
  scale_param {
    bias_term: true
  }
  param {
    lr_mult: 0.0
    decay_mult: 0.0
  }
  param {
    lr_mult: 0.0
    decay_mult: 0.0
  }
}
layer {
  name: "dense95_conv1_relu"
  type: "ReLU"
  bottom: "dense95_conv1"
  top: "dense95_conv1"
}
layer {
  name: "dense95_conv2"
  type: "Convolution"
  bottom: "dense95_conv1"
  top: "dense95_conv2"
  param {
    lr_mult: 1
    decay_mult: 1
  }
  convolution_param {
    num_output: 32
    bias_term: false
    pad: 1
    kernel_size: 3
  }
}
layer {
  name: "dense95_concat"
  type: "Concat"
  bottom: "dense94_concat"
  bottom: "dense95_conv2"
  top: "dense95_concat"
}
layer {
  name: "dense96_scale"
  type: "Scale"
  bottom: "dense95_concat"
  top: "dense96_scale"
  scale_param {
    bias_term: true
  }
  param {
    lr_mult: 0.0
    decay_mult: 0.0
  }
  param {
    lr_mult: 0.0
    decay_mult: 0.0
  }
}
layer {
  name: "dense96_relu"
  type: "ReLU"
  bottom: "dense96_scale"
  top: "dense96_scale"
}
layer {
  name: "dense96_conv1"
  type: "Convolution"
  bottom: "dense96_scale"
  top: "dense96_conv1"
  param {
    lr_mult: 1
    decay_mult: 1
  }
  convolution_param {
    num_output: 128
    bias_term: false
    kernel_size: 1
  }
}
layer {
  name: "dense96_conv1_scale"
  type: "Scale"
  bottom: "dense96_conv1"
  top: "dense96_conv1"
  scale_param {
    bias_term: true
  }
  param {
    lr_mult: 0.0
    decay_mult: 0.0
  }
  param {
    lr_mult: 0.0
    decay_mult: 0.0
  }
}
layer {
  name: "dense96_conv1_relu"
  type: "ReLU"
  bottom: "dense96_conv1"
  top: "dense96_conv1"
}
layer {
  name: "dense96_conv2"
  type: "Convolution"
  bottom: "dense96_conv1"
  top: "dense96_conv2"
  param {
    lr_mult: 1
    decay_mult: 1
  }
  convolution_param {
    num_output: 32
    bias_term: false
    pad: 1
    kernel_size: 3
  }
}
layer {
  name: "dense96_concat"
  type: "Concat"
  bottom: "dense95_concat"
  bottom: "dense96_conv2"
  top: "dense96_concat"
}
layer {
  name: "dense97_scale"
  type: "Scale"
  bottom: "dense96_concat"
  top: "dense97_scale"
  scale_param {
    bias_term: true
  }
  param {
    lr_mult: 0.0
    decay_mult: 0.0
  }
  param {
    lr_mult: 0.0
    decay_mult: 0.0
  }
}
layer {
  name: "dense97_relu"
  type: "ReLU"
  bottom: "dense97_scale"
  top: "dense97_scale"
}
layer {
  name: "dense97_conv1"
  type: "Convolution"
  bottom: "dense97_scale"
  top: "dense97_conv1"
  param {
    lr_mult: 1
    decay_mult: 1
  }
  convolution_param {
    num_output: 128
    bias_term: false
    kernel_size: 1
  }
}
layer {
  name: "dense97_conv1_scale"
  type: "Scale"
  bottom: "dense97_conv1"
  top: "dense97_conv1"
  scale_param {
    bias_term: true
  }
  param {
    lr_mult: 0.0
    decay_mult: 0.0
  }
  param {
    lr_mult: 0.0
    decay_mult: 0.0
  }
}
layer {
  name: "dense97_conv1_relu"
  type: "ReLU"
  bottom: "dense97_conv1"
  top: "dense97_conv1"
}
layer {
  name: "dense97_conv2"
  type: "Convolution"
  bottom: "dense97_conv1"
  top: "dense97_conv2"
  param {
    lr_mult: 1
    decay_mult: 1
  }
  convolution_param {
    num_output: 32
    bias_term: false
    pad: 1
    kernel_size: 3
  }
}
layer {
  name: "dense97_concat"
  type: "Concat"
  bottom: "dense96_concat"
  bottom: "dense97_conv2"
  top: "dense97_concat"
}
layer {
  name: "dense98_scale"
  type: "Scale"
  bottom: "dense97_concat"
  top: "dense98_scale"
  scale_param {
    bias_term: true
  }
  param {
    lr_mult: 0.0
    decay_mult: 0.0
  }
  param {
    lr_mult: 0.0
    decay_mult: 0.0
  }
}
layer {
  name: "dense98_relu"
  type: "ReLU"
  bottom: "dense98_scale"
  top: "dense98_scale"
}
layer {
  name: "dense98_conv1"
  type: "Convolution"
  bottom: "dense98_scale"
  top: "dense98_conv1"
  param {
    lr_mult: 1
    decay_mult: 1
  }
  convolution_param {
    num_output: 128
    bias_term: false
    kernel_size: 1
  }
}
layer {
  name: "dense98_conv1_scale"
  type: "Scale"
  bottom: "dense98_conv1"
  top: "dense98_conv1"
  scale_param {
    bias_term: true
  }
  param {
    lr_mult: 0.0
    decay_mult: 0.0
  }
  param {
    lr_mult: 0.0
    decay_mult: 0.0
  }
}
layer {
  name: "dense98_conv1_relu"
  type: "ReLU"
  bottom: "dense98_conv1"
  top: "dense98_conv1"
}
layer {
  name: "dense98_conv2"
  type: "Convolution"
  bottom: "dense98_conv1"
  top: "dense98_conv2"
  param {
    lr_mult: 1
    decay_mult: 1
  }
  convolution_param {
    num_output: 32
    bias_term: false
    pad: 1
    kernel_size: 3
  }
}
layer {
  name: "dense98_concat"
  type: "Concat"
  bottom: "dense97_concat"
  bottom: "dense98_conv2"
  top: "dense98_concat"
}
layer {
  name: "dense98_concat_scale"
  type: "Scale"
  bottom: "dense98_concat"
  top: "dense98_concat"
  scale_param {
    bias_term: true
  }
  param {
    lr_mult: 0.0
    decay_mult: 0.0
  }
  param {
    lr_mult: 0.0
    decay_mult: 0.0
  }
}
layer {
  name: "dense98_concat_relu"
  type: "ReLU"
  bottom: "dense98_concat"
  top: "dense98_concat"
}
layer {
  name: "pool5"
  type: "Pooling"
  bottom: "dense98_concat"
  top: "pool5"
  pooling_param {
    pool: AVE
    global_pooling: true
  }
}
layer {
  name: "cls_score"
  type: "InnerProduct"
  bottom: "pool5"
  top: "cls_score"
  param {
    lr_mult: 1
    decay_mult: 1
  }
  param {
    lr_mult: 2
    decay_mult: 0
  }
  inner_product_param {
    num_output: 21
    weight_filler {
      type: "msra"
      std: 0.01
    }
    bias_filler {
      type: "constant"
      value: 0
    }
  }
}
layer {
  name: "bbox_pred"
  type: "InnerProduct"
  bottom: "pool5"
  top: "bbox_pred"
  param {
    lr_mult: 1
    decay_mult: 1
  }
  param {
    lr_mult: 2
    decay_mult: 0
  }
  inner_product_param {
  num_output: 84
    weight_filler {
      type: "msra"
      std: 0.01
    }
    bias_filler {
      type: "constant"
      value: 0
    }
  }
}
layer {
  name: "loss_cls"
  type: "SoftmaxWithLoss"
  bottom: "cls_score"
  bottom: "labels"
  propagate_down: 1
  propagate_down: 0
  top: "loss_cls"
  loss_weight: 1
}
layer {
  name: "loss_bbox"
  type: "SmoothL1Loss"
  bottom: "bbox_pred"
  bottom: "bbox_targets"
  bottom: "bbox_inside_weights"
  bottom: "bbox_outside_weights"
  top: "loss_bbox"
  loss_weight: 1
}
